DQN/DQN_checkpoints/dqn_checkpoint_50.pt (torch, 298865 bytes, 24 tensors)

network.0.weight f4 [128, 8]
00000000: 250d a43e 9124 a73e 1c58 db3e 08a3 ab3d
00000010: 4017 c4bd c69f 423e 6896 f73d 055b a33e
00000020: dcbd 9bbe cdfd dd3e d5a4 863e 7f4c e8bd
00000030: 1790 d23e 0a88 96be f74d 363e 528e 45be
00000040: da58 9abe 4576 be3e 4403 ddbd 5c8a 01bd
00000050: 9269 8dbd 5e4f c73e d6e7 fd3e 9c20 103f
00000060: daa2 2b3e 4e54 53bf 4c39 ae3e cf61 afbd
00000070: 3088 223e 8256 f8be 9990 103f 5245 e6be
00000080: e505 97be a0e1 c43e ebb4 ffbd 28d9 b83e
00000090: 401b ca3d f935 013f 97ac c73e 9bca bf3d
000000a0: 6261 a43e 3632 3a3c 581b af3e 7926 bb3d
000000b0: 002b 23bc ee6c c9bd 49c5 6abe fefc 9dbe
000000c0: 2c20 85be acab 053d 3f2f 1c3e 222e 21be
000000d0: 3a20 653e 78a9 723e 5632 a23e f689 2d3f
000000e0: bb1d 9d3e 36b6 ea3e 645c b0be 1f25 c7be
000000f0: c46c b9be f963 24bd 271c fd3e 22b3 333d
00000100: dd90 f9be ac7a 903e 91ef f8bd 9638 273d
00000110: ede7 c23e 40a7 2b3e d00a 513e d47d da3e
00000120: 19b9 983e 98e8 91be fd07 dc3e 0d2f 883e
00000130: bba5 013e 5cc9 e9bd 3c0b 11bf 3b62 f63e
00000140: ea83 0c3d 140a 823e 6dd0 033f 467c a93e
00000150: a8dd 933e 2b85 cc3e 164e 0dbe e49a 82be
00000160: e777 b0be 2b49 db3e d8e1 c03d c16c 15be
00000170: 6ba1 23be 44fc 903e 17c1 d43e c27f d53e
00000180: b298 933e b1bc c6be 91b6 79be 4277 b93e
00000190: 67dc 9b3a aa50 b3be d49b a23e 7550 9f3e
000001a0: 45b6 65be 84b1 e23e fc46 223e 1ed1 003f
000001b0: 346e 9cbe 8cb6 2c3e 86c9 243e ef6e f83e
000001c0: 6f87 d43d 69be cc3e d16f eb3e 4dd1 9e3e
000001d0: 23e9 a9be 3e54 bdbd b050 f13d 3ff9 bcbd
000001e0: ad62 033f e269 15bc b5c1 4b3e 585a 81be
000001f0: cdf3 033f deeb 15bc 3a93 b0be a2ed 3eba
00000200: 3892 db3e 70e5 cd3e da82 833e eb81 1a3e
00000210: ccf7 8bbd bd92 903e 5052 c7be cc5d 9ebe
00000220: 49e2 483e bd82 8e3e a509 de3e a662 fd3e
00000230: 4ca5 bb3e 3cec 843d 1d14 86be 628c 633e
00000240: da79 45be 6ba8 fe3e dc22 1bbd 898b cc3e
00000250: d416 493c d5cc 0dbf f1da b6bd 0eb9 9cbe
00000260: a5ec a43e 223e 183e 4d2e 9f3e b0d7 82be
00000270: 3c93 24bf afb1 873b afe4 863e 7c4f f33d
00000280: 1f9d 883e 834e 5fbe e2db 823e ab64 053e
00000290: ae2e 313e ca23 e4bb e3b1 c0be 315c 143f
000002a0: 98ec 65be f40e 563e 129b 9e3e c18a 4cbd
000002b0: af55 3bbf 64b4 b3be 5ecb 063e 99f5 823d
000002c0: 7404 453e 780c 433d e26e d13e c8e6 b23e
000002d0: 9ba7 833e 8238 ac3e 2a3b 9f3e eb3f c6be
000002e0: 429e 043f ed2b c73c 8a75 a13d 1c78 85be
000002f0: be04 c33e 167e fbbd f337 e6be 1408 8d3d
00000300: 6601 4ebc 9b4c d43e 0756 4d3e ad46 a9be
00000310: d3e2 c53e a3c3 953e 7952 95be 809c 96be
00000320: 3634 97be f706 613d 360c ce3d e4ce 8fbe
00000330: 4afd df3d 3707 823e 7554 873d fd68 993d
00000340: 4595 163e 3aab af3e 2406 ee3d 1805 dc3d
00000350: f400 833e 01de 62be 0b90 52be 8aab 653d
00000360: a041 c73e f633 53be 2405 9b3e 6a5f 2f3d
00000370: 2e5c dfbe 1b5a 98bd 5c56 c03e 57e3 55be
00000380: bdfd 0b3f 5986 07be b7fe 5dbb 4483 d3bd
00000390: 5008 debe 5644 eb3d a7b5 ba3e 8787 07bd
000003a0: d8e7 8a3e 2e72 2dbd 441c abbe 71c9 f7be
000003b0: 75c0 c43d 163f 9cbe 7198 2abf d5ef 663e
000003c0: f1f6 e93e 4ae9 a5be 9d76 d23e b151 a4be
000003d0: 7227 65be 9d0e 123e 0701 1c3d 4c8d 81be
000003e0: 54b6 d43e 7c20 77be 8204 703e b8ef 3abe
000003f0: 47c1 143f bd7e 053e 9ce3 723d 817b 0fbe
0.32041278 0.32645085 0.4284066 0.08380705 -0.09574747 0.19006261 0.120892346 0.3190538
-0.3041829 0.43357697 0.26297632 -0.113427155 0.41125557 -0.29400665 0.17803179 -0.19292572
-0.30145913 0.37199607 -0.107916385 -0.03162609 -0.069049016 0.3892774 0.4959094 0.5629976
0.16761342 -0.82550514 0.3402809 -0.085635774 0.15872264 -0.485035 0.5647064 -0.44974762
-0.29496685 0.38453388 -0.12485679 0.36103177 0.09868479 0.5047298 0.38998863 0.09364816
0.32105547 0.01136451 0.3420055 0.091381975 -0.0099589825 -0.0983523 -0.22926821 -0.3085708
-0.26001108 0.032634422 0.15252398 -0.15740255 0.22375575 0.2369746 0.31679028 0.67788637
0.30686745 0.4584214 -0.34445488 -0.3889551 -0.36215794 -0.040134404 0.4943554 0.043872006
-0.48743334 0.2821859 -0.12155069 0.04082545 0.3806757 0.1676302 0.20414281 0.42674124
0.29828718 -0.28497767 0.42974845 0.26598397 0.12660877 -0.114153594 -0.5665777 0.4812182
0.03430549 0.25398314 0.5148991 0.33102626 0.28880048 0.3994535 -0.13799319 -0.25508797
-0.34466478 0.4282926 0.09418076 -0.14592268 -0.15979545 0.28317463 0.41553566 0.41699034
0.28827435 -0.38815835 -0.2438605 0.362238 0.0011891247 -0.3502248 0.31759512 0.3111607
-0.22432812 0.4427606 0.15847391 0.5031909 -0.30552828 0.16866511 0.160925 0.48522136
0.103773944 0.3998902 0.45983747 0.3101906 -0.33185682 -0.092445835 0.11782968 -0.092272274
0.5132244 -0.009119483 0.19898112 -0.2526424 0.51543885 -0.009150473 -0.34487325 -0.0007283335
0.42884994 0.4021411 0.2568577 0.15088622 -0.06834373 0.28236952 -0.38929987 -0.30930936
0.19617571 0.2783412 0.43366733 0.49489325 0.3664955 0.06490371 -0.2618722 0.2222152
-0.19284764 0.49737868 -0.03787504 0.39950207 0.012273509 -0.55390674 -0.089284785 -0.30609936
0.32211795 0.14867452 0.31090012 -0.25555182 -0.6428716 0.0041410546 0.26346347 0.11880395
0.26682374 -0.21807294 0.25558382 0.13026683 0.17302963 -0.006962274 -0.37635717 0.5795317
-0.22453535 0.20904142 0.30977684 -0.049937014 -0.7317762 -0.35098565 0.13163516 0.063945
0.1923998 0.047619313 0.4090491 0.34941697 0.2571381 0.33636862 0.31099826 -0.3872064
0.5180398 0.024312938 0.07883747 -0.260682 0.38089556 -0.12279908 -0.4496456 0.068863064
-0.012573576 0.41464695 0.20052348 -0.33061734 0.38649616 0.2925082 -0.29164484 -0.29416275
-0.2953202 0.054938283 0.10060923 -0.28087533 0.10936983 0.2539613 0.06607906 0.07490728
0.1470538 0.34310323 0.11622265 0.10743159 0.25586665 -0.22155 -0.2056276 0.056071796
0.38917255 -0.2062529 0.3027736 0.042815603 -0.43625015 -0.07439061 0.37565887 -0.20887505
0.5468405 -0.13234843 -0.0033873746 -0.10327771 -0.43365717 0.114876434 0.36466715 -0.033088233
0.27130008 -0.04234522 -0.33420002 -0.48395875 0.09607021 -0.3051688 -0.6663886 0.22552426
0.45696214 -0.32404548 0.4110612 -0.32093576 -0.22378328 0.14263387 0.038086917 -0.25303113
0.41545355 -0.24133486 0.2343922 -0.18255508 0.5810742 0.13036628 0.059299096 -0.14011957

network.0.bias f4 [128]
00000000: ff89 aa3e 86db b73e 25f9 7cbe 9cc2 37be
00000010: d8d0 8cbe 036a 083f 1f05 a2be 2e52 b63e
00000020: 8f5d d43d 60b6 3f3e 5f17 ed3e 05e9 70be
00000030: 7e2e 12bd 8e4f 763e 814e b73d 517c e6be
00000040: 619b 5ebe a4b5 7d3d 4a67 cc3e 1f4f 8cbc
00000050: 4a41 1b3e 0616 3b3e ac90 3fbe a005 7cbe
00000060: fd84 783e 1a9e da3e 27e7 013f 3453 dcbd
00000070: fce8 203e 5d6b 183e 531c 563e 1fae 92be
00000080: e886 81be fe63 d53d 0e73 bcbe 31cb b13e
00000090: d77f 753e 4da2 d4bd d6a4 8abe c581 a3be
000000a0: a53f 203f e164 09be fbbb 2c3c 632b ae3d
000000b0: 3db7 50be 0c2a b03e 117f b23e 5882 413e
000000c0: 2926 cabc fb2c 163d 93b9 89be d708 2d3e
000000d0: 3757 8e3e afab b63e a297 1b3f b9b4 d43e
000000e0: a83a 0ebd 0366 fd3e ac21 f03e 8bcd 06be
000000f0: 3e44 f43e e60e f83d c84f 89bd 7726 76bb
00000100: 58c9 9d3e 41ec 123f d60d a13e fa9e c53e
00000110: ada0 29bc d05f 8c3e 2886 14be 0e9e 10be
00000120: abad c83e 8883 b0be 5506 053e 3893 523e
00000130: ab96 93be 13ec 60be b867 003f 4238 733a
00000140: 7a89 8d3e f287 b13e d850 a5be 1a7d 743e
00000150: 7a2d 7a3e 155f cc3d 2aea dfbc dd4c 51bc
00000160: e2e4 fb3e 0019 a53e eb42 c8be 5b82 ad3b
00000170: 0a5a ae3e f52a 3cbe 1ba5 e73d a69e b7bc
00000180: 20ba a2be 2d7d 813e e888 e03c 58dd c33e
00000190: f724 1cbb d2a6 dc3e 9692 853e 9f6e 35be
000001a0: 8722 a93e b311 ab3b 02d6 f93e 2142 95bd
000001b0: af83 c2bd 90e3 d3bc b78d 243e 71b2 883e
000001c0: 9b16 983d 033b b9bd 3970 9e3e 9e8b 573d
000001d0: eded 923e 1e8e d0bd 67c0 413e a9cb 213d
000001e0: 8dcd df3d cf41 f5bd c886 1fbe 191e 053f
000001f0: 302a 563d 9897 5a3e e1fd 123f 2699 afbe
0.33308408 0.3590967 -0.24704416 -0.17945331 -0.27503085 0.5328676 -0.31644532 0.35609573
0.103694074 0.18721914 0.46306893 -0.2352639 -0.03568887 0.24053785 0.0895052 -0.4501672
-0.2173896 0.061940804 0.39922553 -0.017127572 0.15161625 0.1827012 -0.18707532 -0.24611521
0.24269481 0.42698747 0.50743335 -0.10758057 0.15713876 0.14884706 0.20909242 -0.2864847
-0.25298238 0.104194626 -0.3680653 0.34725335 0.23974548 -0.10382519 -0.27078885 -0.31934944
0.62597114 -0.13417388 0.010542865 0.08504369 -0.203824 0.3440708 0.3486257 0.18897378
-0.0246764 0.03666399 -0.26899394 0.16897903 0.27800915 0.3567786 0.6077825 0.4154413
-0.034723908 0.4949189 0.4690069 -0.13164346 0.47708315 0.12112217 -0.0670467 -0.0037559548
0.30817676 0.57391745 0.31455868 0.38597852 -0.0103532495 0.2741685 -0.14504302 -0.14122793
0.39194998 -0.3447535 0.12990697 0.20563972 -0.28825888 -0.21965055 0.5015826 0.00092780974
0.2764395 0.3467403 -0.3228824 0.23875847 0.2443141 0.09979073 -0.027333338 -0.012774673
0.4919806 0.32245636 -0.39113554 0.0052950806 0.3405307 -0.18375762 0.11310788 -0.022414517
-0.31782627 0.25290814 0.027409032 0.3825481 -0.0023825744 0.43096024 0.260884 -0.1771798
0.33034155 0.005220616 0.48796088 -0.07288004 -0.09497773 -0.025865346 0.16069685 0.2669864
0.07426187 -0.09044459 0.30944994 0.052623384 0.28697148 -0.10183357 0.18921052 0.039500866
0.109278776 -0.119754426 -0.15578759 0.5199905 0.052286327 0.21346891 0.5741864 -0.3429653

network.2.weight f4 [128, 128]
00000000: cbec 203d 55f5 213d 9aa1 103d dd43 7ebd
00000010: 1cfc d2bc 05cc 28bc 6a0a 2bbd d35f a0bc
00000020: a050 bfbd bfc3 5fbd 2fe3 a4bd 96b4 48bc
00000030: 2d33 793d 7dac 453d 7b60 91bd 7fae 88bd
00000040: c042 8fbd 7b5f ff3b 40b9 72bd 149e 8b3c
00000050: 5c0f b93c 4a7b 523c b9ac bbbd d166 98bd
00000060: 1e57 15bd ce2b 40ba d717 723d 5c22 44bd
00000070: 4f30 b9bc 6fea 473d 11e5 9c3d bea8 3dbd
00000080: 3b3c a8bc 5a69 8b3d 22f1 0e3d 1db4 4abd
00000090: 49c7 163d 9023 66bc 633d 933b 7089 a53b
000000a0: d4ba 69bc 70df c5bc 7c6b 893a 1b0b 43bd
000000b0: 0218 8a3d cf66 acbd 102a 2a3d 455d b6bc
000000c0: ff08 283d 2dd4 513d 59f9 48bd d41a 583d
000000d0: de4a e4bc 0c06 c7bc 1987 4e3c 957d b23c
000000e0: 3854 96bd 310a 9dbc 1673 85bd 29ee 403d
000000f0: 7a1e 36bb c275 c3bd 7631 213c 124b 353d
00000100: 0f23 f73c 0d75 b73c e516 13bd f689 803d
00000110: c65c 58bd 4a34 863c f9c1 88bd 3e7a 153d
00000120: 3066 9cbd aae0 473d c53c 873d bcc3 57bd
00000130: 5d52 c2bd 319e 8fbd 29f5 0cbc 9220 3b3d
00000140: e3ca 543d 5375 88bc ba5d 5d3d f7b3 95bd
00000150: 119b 4abd 3414 cd3c 4864 993c d253 ad3c
00000160: f209 d8bd 6ef9 883c de96 8d3c 09aa 6dbc
00000170: 16c1 22bd c45a ea3c 0f08 633c db2f dcbb
00000180: 4c6a eebc 2b2a 493b 6e1f 0b3d 3741 4fbd
00000190: 8939 a83d c8f7 9fbd 6dfa bdbd 56a9 0c3d
000001a0: 7f19 03bd bf5b b9bd 83fa cebd e1d8 39bc
000001b0: 476a 8fbc 3a51 94bd 7940 843d 2591 343d
000001c0: 2a46 00bd b4fb 92ba 7ae1 e3bc 8c20 c8bc
000001d0: 31ec b4bc 4340 033d 7a71 5dbd 3c4a 953d
000001e0: a623 ea3c 3ce4 c7bc 1468 ca3b f468 6c3b
000001f0: 1209 953d 35ff 443d 26b9 0cbd f2f9 94bd
00000200: 280d e83d dcf1 f6bd fc83 dc3e 7485 91be
00000210: 1370 d13e bdf9 78be 14d9 1d3f d64c 31be
00000220: ec7f bf3d b667 813e 9bc4 4fbd e4fd 8b3e
00000230: 1b4a 0e3e 153e 1d3e ca77 83bd d654 073e
00000240: 2daa d1bd eecb 573d 35df 3dbe 42da a93d
00000250: 3461 8d3e 56eb 10be 3cdd 33be 6d56 32bd
00000260: d096 7abe 3617 0bbe 7379 82bd 46c6 f0be
00000270: 58d4 273e 455c 133e 6756 ca3d 3031 f4be
00000280: 4d9c 8f3e 2483 09be 9781 a8be ba24 59bd
00000290: 8963 f1bc d62d 483e 5ac4 3cbd 5d9c 303c
000002a0: 5139 c4bd 11ae 31be 6085 87bd 7794 b63e
000002b0: 1286 1e3e 1465 0c3e 7ef9 493e bd0b ca3d
000002c0: 73ad 9bbd 70c0 c8be 6460 0fbe 047c 28be
000002d0: 4baf e93d 3c3f 253f caa9 c5bd cb6f 4e3d
000002e0: 9f92 343e 249a b93d d96c c3bd 9127 f7be
000002f0: 636d 893c f696 ddbe b2e6 3cbf 2150 3e3e
00000300: 13cf a1be 34d7 b8bd 7d4a 16bf fc09 273e
00000310: 491e 3bbe 7ca3 823e 2cef 56be bd02 9fbe
00000320: 3e0d 35be f907 36bd 206e ac3d cd25 05bf
00000330: 0acc b83e 33f8 623d 9a51 c2ba 37b1 3b3e
00000340: 043a dcbe 1735 8dbc dc58 29bf 0365 a83b
00000350: 81cf 9ebe 8b6b 9bbe 997b 86be 217e a13d
00000360: cf6d f7bd 5bbc a43d 2359 2e3f 34d7 053e
00000370: da0d 35be db85 05bc 0f40 a33e d290 523e
00000380: c13c 8b3d 06f2 b93d f642 2abe 5e7c 6abe
00000390: c727 493d e5a9 7bbe 87dd 10be e95a f3be
000003a0: 01b9 69bd 1314 11be 01c8 07bd 4f20 e93d
000003b0: a5e8 4a3e 12ac 9c3e 2f2b fabe 5fb7 5f3e
000003c0: e9fe 523e 4517 2dbf a2ac 4cbe ba9f c3bd
000003d0: a6ba 003e 326c 7cbb fe6f bd3d eb4f 3a3e
000003e0: 79bc bfbd 3183 8abd 094f 4ebd 0588 dbbc
000003f0: 653b 873e 223a aa3e 1f51 43bc 077f af3d
0.039288323 0.039540607 0.035310365 -0.06207644 -0.02575498 -0.010302548 -0.04175798 -0.019576943
-0.0934155 -0.054630037 -0.08051144 -0.012250086 0.06083982 0.0482602 -0.0709848 -0.066739075
-0.069951534 0.0077933646 -0.0592587 0.017043151 0.022590332 0.012846777 -0.091638036 -0.07441486
-0.036460035 -0.0007330746 0.059104767 -0.04788433 -0.022606043 0.048807558 0.076608784 -0.046303503
-0.020536533 0.068072036 0.03489793 -0.049488176 0.036811147 -0.014046565 0.004493402 0.005051784
-0.014265735 -0.024154395 0.0010484303 -0.047618013 0.067428604 -0.08418047 0.04154402 -0.022261271
0.041024204 0.051227737 -0.04906592 0.05275996 -0.02786773 -0.024294876 0.012605452 0.021788398
-0.07340282 -0.019169899 -0.065160915 0.047102127 -0.0027789162 -0.09543945 0.009838453 0.044261046
0.030168084 0.022394681 -0.035910506 0.06276314 -0.05282285 0.016382355 -0.06677622 0.036493532
-0.07636678 0.04879824 0.06603388 -0.0526769 -0.09488366 -0.070125945 -0.008603373 0.04568536
0.0519513 -0.016657507 0.054044463 -0.07309716 -0.04946429 0.025034048 0.018724576 0.021158133
-0.10548772 0.0167205 0.017283853 -0.014505872 -0.039734922 0.028607734 0.013856902 -0.006719572
-0.02910342 0.00306953 0.03396552 -0.050599303 0.08214099 -0.078109324 -0.092762806 0.03434118
-0.032006737 -0.09050702 -0.10106375 -0.011343212 -0.017506732 -0.07242055 0.0645761 0.044083733
-0.031316914 -0.0011213929 -0.027817477 -0.024429582 -0.022085281 0.032043707 -0.054063298 0.0728955
0.028581452 -0.024400823 0.006176958 0.00360733 0.07277121 0.048094947 -0.03435626 -0.07274236
0.11330634 -0.1205785 0.43069446 -0.2842213 0.40905818 -0.24314018 0.6165936 -0.17314467
0.09350571 0.25274438 -0.050724607 0.2734214 0.13895456 0.15355714 -0.06419332 0.13215956
-0.102375366 0.052684717 -0.18542178 0.082935825 0.27613223 -0.14152274 -0.17564863 -0.043539453
-0.24471593 -0.13583073 -0.06370821 -0.4702627 0.16389596 0.14390667 0.09879761 -0.47693777
0.28048936 -0.13428932 -0.3291137 -0.05301354 -0.029466407 0.19548735 -0.046085693 0.010779467
-0.09581245 -0.17351557 -0.06617236 0.35660145 0.15480831 0.13710433 0.1972408 0.0986552
-0.07601442 -0.39209318 -0.14001614 -0.16453558 0.114103876 0.64549613 -0.09651525 0.050399583
0.17634057 0.09062603 -0.095422454 -0.48272374 0.016775792 -0.43279237 -0.73789513 0.18585254
-0.31603298 -0.09025422 -0.5870741 0.16312402 -0.18273272 0.25515354 -0.20989674 -0.31056777
-0.17680833 -0.044441197 0.08419442 -0.52010804 0.3609317 0.055412482 -0.0014825345 0.18329321
-0.43013012 -0.01723723 -0.66151214 0.0051389947 -0.31017688 -0.30355486 -0.26266173 0.07885385
-0.12081491 0.080437385 0.6810476 0.13070375 -0.17681065 -0.008149589 0.3188481 0.20563057
0.06798697 0.090793654 -0.16627106 -0.22899005 0.0491102 -0.24576528 -0.14147006 -0.47530296
-0.0570612 -0.14167814 -0.033149723 0.113831155 0.1981531 0.3060003 -0.4886107 0.21847294
0.20605053 -0.6761363 -0.19987729 -0.0955195 0.125712 -0.0038516638 0.092498764 0.18194549
-0.0936212 -0.06763304 -0.050368343 -0.026798258 0.26412502 0.33247477 -0.011921196 0.085691504

network.2.bias f4 [128]
00000000: 0e16 dab9 f6bc 82bc 1740 b03c 0c0e 52bd
00000010: 6df3 5f3e 19f1 9cbd fc64 edbc 7077 833e
00000020: 8bb0 80bb e842 c4bc 9d4d c33c e6c0 193d
00000030: 3021 2e3d 0396 9d3c ecf0 abbd fdb5 3d3e
00000040: 45bd 3d3e c302 5abd 45b8 6f3d 5565 d63b
00000050: 707f 89bd c1b3 123e 14d5 993d 30f6 8bbd
00000060: 167a 8fbc 511b 623d 924a 093e 4585 603c
00000070: 3df2 b33b 3706 d9bd f388 92bd 16cb da3c
00000080: 46f8 4f3d 0e1c e2bb 2b56 803d 023c d0bc
00000090: 17a8 3d3e e01d 9a3e 9968 90bd c91d d6bc
000000a0: b8d0 e1bc 9ee8 e9bb 8ec1 09be 3399 cc3d
000000b0: 7113 763e e584 613d ce1a a53c ed1b b8bd
000000c0: bb3e 253e f0c5 95bc 41cd 87bc 5388 89bd
000000d0: e460 863d df6e 483e 2c3b 49bc cdeb 1abd
000000e0: d301 48bd 6e65 b1bd 60c7 40bd e2bc 833d
000000f0: 32e6 743d 90c9 a03e df8a 603d e444 4dbc
00000100: 55e4 3e3d f29d 30bc 0a5e 21bd b16b a7bd
00000110: 0ad7 b0bd d962 2e3e 99d7 22be 9625 76bd
00000120: 3efc bdbd 6a11 083c cebb 5bbb a191 22bd
00000130: 9f73 a43b bfb8 9bbd 8af9 c0bd ceef 6cbd
00000140: cbd4 92bb a031 9d3c 5cc3 a2bc 4377 49bd
00000150: e978 44bd 4838 6c3d 128c 663d b2c6 843d
00000160: 9637 c93d fd7e 28bd 5882 bfbc bd77 b1bd
00000170: 07b8 773d dad4 53bd 5068 4d3e 1675 133e
00000180: 063c 843c 6357 95bd 0322 c9bb 585d 903d
00000190: 077e 933d 40fa 76bd fc2c bc3b 17ab 4d3d
000001a0: f6f8 f33d f293 ccbd 7c8e 733e b729 82bd
000001b0: 440f a93c 431b 933d 4b94 c8bc 5205 733d
000001c0: acc7 3dbc 2d9c e0bd 751c 3f3c 7092 8bbd
000001d0: 9659 7e3e 5e2f 08bd cd66 66bd 3990 623d
000001e0: b219 56bc 5dcd 0cbe 4596 28be 81e2 0f3d
000001f0: 725e 7abd 98b7 503d f415 5fbd 12af a3bd
-0.00041596632 -0.015959244 0.021514935 -0.051282927 0.21870203 -0.07663173 -0.028978817 0.2567706
-0.0039272956 -0.023957685 0.02384072 0.037537478 0.04251212 0.01923657 -0.083955616 0.18526454
0.18529232 -0.05322529 0.058525342 0.0065428414 -0.0671376 0.14326383 0.075113446 -0.06834066
-0.01751427 0.055201832 0.13407353 0.013703649 0.0054915235 -0.105968885 -0.07155027 0.026708167
0.05077388 -0.006900317 0.06266435 -0.025419239 0.18521152 0.30100918 -0.070512004 -0.02613725
-0.027565345 -0.007138326 -0.13452742 0.09990158 0.24030854 0.05505838 0.020154383 -0.089897014
0.16137211 -0.01828286 -0.016577365 -0.06715455 0.06561449 0.19573544 -0.012282174 -0.037822533
-0.048829865 -0.08661924 -0.04706514 0.06432511 0.059789844 0.3140378 0.054819938 -0.012528632
0.046604473 -0.010779845 -0.039396323 -0.081748374 -0.086347654 0.17029895 -0.15902556 -0.06009444
-0.09276627 0.008304933 -0.0033528688 -0.039689664 0.005018666 -0.07603597 -0.09422596 -0.057845883
-0.0044809333 0.019188702 -0.019868545 -0.049186002 -0.04796687 0.05767086 0.056285925 0.064832106
0.09825055 -0.04113673 -0.023377582 -0.086654164 0.060478237 -0.051716663 0.20059323 0.14400133
0.016141903 -0.07292058 -0.0061380877 0.07049054 0.07201772 -0.06029725 0.0057426672 0.050211992
0.1191272 -0.09989156 0.23784822 -0.06355613 0.020637162 0.07182934 -0.024484774 0.059331246
-0.01158325 -0.10967288 0.0116644995 -0.0681504 0.24838862 -0.033248298 -0.056250382 0.055313323
-0.01306765 -0.13750215 -0.16463573 0.03512812 -0.061125226 0.05095634 -0.054464296 -0.079923764

network.4.weight f4 [3, 128]
00000000: 4179 2cbd 15c0 6dbe 43c9 273c 6300 44bd
00000010: e7e8 8f3e f21d 32bf b1e0 84bd ea87 a23e
00000020: 0782 24bd 7b1e b6bc b5bf 7a3e 331c 3fbd
00000030: 244d aa3c b8cb 4d3c 62bc b4bc fbe8 be3e
00000040: 02b0 b83e 5338 48bd 6891 10be a314 043e
00000050: dc3a 663c 079d 943e 8efd a63e 7bd2 a8bd
00000060: 54be 38bd 1bd9 4e3d 3fc0 b83e 96a7 15bd
00000070: 37c1 ad3c b476 5d3e 5b2a 36bc da1d 703e
00000080: 034f 91bd 18a2 98bd 8fd7 653d fe08 2e3e
00000090: 617e 983e 6f0d ba3e 024d 55bc e7f1 e2bc
000000a0: 60c1 b03c 56df 9cbe 2fc4 2b3e 4e16 993e
000000b0: da13 933e 4932 963b 8851 9e3e 5711 25be
000000c0: b7ec 9f3e 3177 1cbe 3a71 28bf 321f a33d
000000d0: e99d 06bd 069d 623e 2a41 1f3d 6106 27be
000000e0: 8be9 4bbd 2ec7 1abd 5afe 69bd 328b 663c
000000f0: d4db 91bd c656 c13e 9cf1 f0bc 268a 293e
00000100: 4b89 5cbd 3de8 693e 2f95 23bd e9f2 af3d
00000110: 320d 06bd 00e5 b93e 9e5c 3fbd 10d5 99bd
00000120: 0ccd 3dbe 0eb1 8ebc e134 18bf 0bed d1bc
00000130: 86b3 8abd 982f 3abd dfa4 f53d 5adf 0f3c
00000140: a8d0 ad3d fcd2 51bc 89d9 5ebe b88c 41bd
00000150: da85 2dbc af1c 673e ee10 813d 63b0 4d3c
00000160: 7008 5cbe 8360 5cbd 3d37 68bd c9cd f1bc
00000170: 79bd 74bc 3ec4 1bbe 7b6b d73e cd65 ba3e
00000180: bcac 86bd c713 97bd 73aa 28bd 78d3 eabc
00000190: dd5f 69be 07d0 65bd 2669 bbbe 94a8 1ebe
000001a0: bf15 c13e 60a1 83bd c86e ad3e 569a 483c
000001b0: 82d1 91be b277 f23b d3e0 47bd 59b4 a53e
000001c0: 2ee3 b93c d4bc c73d e2d6 ac3d 93bf 913d
000001d0: 2826 973e f8b4 6cb8 586f 223e 127b 343e
000001e0: 5649 1cbd 1fb0 393d 0bd6 30bd 42e9 84bd
000001f0: 0cc8 89be 08ef 933e 18ba fcbc c857 353e
00000200: 7715 843d e4a0 b4be 71a9 fb3c 385e f7be
00000210: b163 c63e b52f 38be be05 473d 55b7 583e
00000220: 01cf e2bc c8d5 963d 5762 7dbc a8f8 9fbd
00000230: f3b5 37bd 50b0 5c3d 9fb5 6f3d 2d19 b93e
00000240: 5ab0 323e b6da 643d 9d03 cabd 73d7 9939
00000250: 686d e3bc 653d 8e3e 47d2 bc3d d05d 913c
00000260: efdc 92bd 7b25 3ebd 17ea 843e 3d19 af3c
00000270: 3d94 353d f12c 50be f695 103d e5a3 5d3e
00000280: 8bef d8bc 6b2f 463c 5bad 1dbd fc53 8fbd
00000290: 6411 013f 3390 d03e bfe0 043d 8bf7 573c
000002a0: a52a 033d a1d8 acbe a6a1 e7be bf40 653e
000002b0: 75f5 303e 33cc 2b3d dfcb 513e e32b 17bf
000002c0: 294e ea3e 3e8a 82be 6ca4 45be 5f53 573d
000002d0: 1a1c fb3c 777e 9d3e 0490 8dbd f2e8 80be
000002e0: ba6a 15be 26c0 1dbd 5de7 883d e2a9 a83c
000002f0: 302d 7f3d 4f3f c63e a067 1b3d c63e 52be
00000300: 4c9d 403d 4038 2f3d de2e 12bc be89 a63d
00000310: d414 173d c8e8 c33e 60aa 38be 2950 bf3c
00000320: 175c 9cbe 85f9 7b3b bbca d6be d1c1 acbb
00000330: 1457 353d 06e2 eabe 3049 60bd 1b99 eabe
00000340: 7e7b 813c c4f6 883d e64d 92be bfe6 463d
00000350: 07b1 143d fa61 703e caa9 563d aac7 b53b
00000360: a3c7 77be 8594 45bd a0cb 0d3d 52f7 d8bc
00000370: 3375 0fbe 26be dcbe 5b87 ec3e e8cb 113e
00000380: 7ea3 8c3d e1b1 7a3d 0c5c 373c 40f6 ad3c
00000390: c934 58be 0295 34bd 317d 04bf 84bd 92be
000003a0: a9d8 cb3e 273f 3abe 20c2 bd3e c72e 5dbd
000003b0: 372b 823d df10 263d 10f8 1ebd b70e 733e
000003c0: 59a2 823b a884 16be 2a4e 8a3d e205 31be
000003d0: b25d 3f3e 5b99 d4be 642a 8ebe 4b92 513d
000003e0: 3b2f 953c f20d 4cbe 9df8 c1be 8b1e 91bb
000003f0: d95f 65be a791 9abd 751d 573b 7f90 69bd
-0.042107824 -0.23217805 0.010240856 -0.04785193 0.28107378 -0.6957694 -0.06488169 0.3174432
-0.040163066 -0.022231331 0.24487193 -0.046657752 0.020788737 0.012560777 -0.022062484 0.37287125
0.36071783 -0.04888184 -0.14117968 0.12898497 0.014052119 0.29026052 0.32615322 -0.08243271
-0.045103386 0.050500017 0.36084172 -0.036536776 0.021210296 0.21627313 -0.011118497 0.23448887
-0.070951484 -0.07452792 0.056113776 0.16995618 0.2978392 0.36338374 -0.013018848 -0.027703239
0.021576583 -0.30639142 0.16774057 0.2989983 0.28726083 0.004583631 0.30921578 -0.16119896
0.31235287 -0.15279843 -0.6579777 0.079649344 -0.03286544 0.22130212 0.038880505 -0.16311027
-0.04978327 -0.03778761 -0.057127334 0.014071273 -0.07122007 0.37761515 -0.029412083 0.16556606
-0.05384187 0.22842498 -0.039937194 0.08591253 -0.032727428 0.36307526 -0.046719186 -0.075113416
-0.1853525 -0.01741841 -0.59455687 -0.025625726 -0.06772523 -0.045455545 0.11994337 0.0087812785
0.08487064 -0.01280665 -0.2176267 -0.04725334 -0.010590995 0.22569536 0.06302057 0.012554261
-0.21487594 -0.05380298 -0.056693304 -0.029517071 -0.014937752 -0.15211579 0.4207419 0.36405793
-0.06575915 -0.07376819 -0.041178178 -0.02866529 -0.22790475 -0.056106593 -0.3660366 -0.15493995
0.37711903 -0.06427264 0.33873582 0.012243828 -0.28480154 0.0073995227 -0.048798393 0.32364157
0.022691336 0.09752813 0.08439423 0.07116618 0.29521298 -5.6435325e-05 0.15862787 0.17625073
-0.038155876 0.045333978 -0.043172877 -0.06489803 -0.26910436 0.28893304 -0.030850455 0.17709267
0.064494066 -0.35279 0.030720444 -0.4831407 0.38747934 -0.17986949 0.04858946 0.21163686
-0.027686598 0.07364994 -0.015465341 -0.07811099 -0.044851255 0.053879082 0.058522817 0.3615202
0.17450085 0.05587264 -0.098639704 0.00029342956 -0.02776213 0.27781215 0.09219795 0.017744929
-0.07171046 -0.046422463 0.25959846 0.02137434 0.044330824 -0.20329644 0.035299264 0.21644552
-0.02648141 0.012096266 -0.038495403 -0.069984406 0.5041716 0.40735015 0.032440897 0.013181577
0.03202309 -0.33759025 -0.45240515 0.2238798 0.17281134 0.041942786 0.20487927 -0.5905134
0.45762756 -0.25496095 -0.19301003 0.052569743 0.030653048 0.30760548 -0.069122344 -0.25177723
-0.14591494 -0.038513325 0.06684754 0.020588819 0.062298954 0.38720176 0.03794062 -0.20531759
0.04702501 0.042778254 -0.008922307 0.08131741 0.036885098 0.38263535 -0.18033743 0.023353653
-0.3053901 0.0038448286 -0.41951546 -0.005272128 0.044272497 -0.45875567 -0.054757297 -0.45819935
0.015805956 0.06687692 -0.28575057 0.0485599 0.03630164 0.23474875 0.052408017 0.0055474835
-0.24197249 -0.048237342 0.03461802 -0.026485119 -0.14009552 -0.43113822 0.46197018 0.1423794
0.06867121 0.061204795 0.011191379 0.021235585 -0.21113886 -0.044087417 -0.51753527 -0.28660214
0.39813736 -0.18188153 0.37062168 -0.05399969 0.06355899 0.040543433 -0.03881079 0.23736082
0.0039866385 -0.14699042 0.0675319 -0.172874 0.18688086 -0.4152325 -0.27766716 0.051164906
0.018210998 -0.19927195 -0.3788499 -0.00442869 -0.22399844 -0.07547312 0.0032823954 -0.057022568

network.4.bias f4 [3]
00000000: be29 bf3c 4a5a d33d 181c efbb
0.023335334 0.10319956 -0.00729705

network.0.weight f4 [128, 8]
00000000: 4f84 a43e f5de a63e 97f6 d53e 35c7 993d
00000010: 6900 c9bd e214 413e fdfc f33d 947d a23e
00000020: d9b8 9abe 97d0 dc3e 3cd6 833e 35c8 e8bd
00000030: 9db8 ce3e 083b 94be 9215 333e 77c1 46be
00000040: 0798 99be bdac b93e 86ed dfbd 1ffd 00bd
00000050: 53cb 9dbd bacb c63e be97 fc3e e32b 113f
00000060: 8bc4 343e c9c8 4dbf ac05 ac3e d793 9cbd
00000070: 8d0e 1f3e ff49 f3be b2a1 0e3f 3c7e e4be
00000080: b4c7 95be 9fe9 c63e 6e42 06be 16b2 b53e
00000090: 1e04 c53d 0460 ff3e 82be c63e f0ea bf3d
000000a0: 289b a53e 41d6 0f3c 094a ab3e a3db b03d
000000b0: 4eff 38bc f350 ccbd 55fa 6cbe 746e 9ebe
000000c0: 7a1f 85be 5e83 083d e1fc 143e e65b 1fbe
000000d0: 21c6 633e 8aec 6e3e 638b a03e e02e 2e3f
000000e0: 8a1b 9f3e fcb9 e33e 007a b0be 28c1 c5be
000000f0: a042 babe a063 29bd 6f8d f13e 81b2 363d
00000100: 1a03 f8be f4f3 903e 4a06 fabd f61b 1b3d
00000110: b34f bf3e ea56 243e 12d3 4d3e 8d07 dd3e
00000120: 9bea 993e f923 8fbe b765 d73e cba6 843e
00000130: ef70 013e eb11 e2bd 6319 10bf a057 f63e
00000140: 084e 173d b6ce 813e a6a4 013f f210 a63e
00000150: 4af4 913e 0325 cb3e ebf6 11be c614 82be
00000160: 28e1 b0be 02c3 d73e 3c6c c93d 71bf 1abe
00000170: c951 2dbe 6c78 8a3e a8e8 d13e 46fd da3e
00000180: f587 903e 9762 c5be 5c2d 78be 6087 b73e
00000190: e219 68ba 5dc9 acbe 1a1f a43e dfa2 a03e
000001a0: 3076 66be 6879 e23e 12b4 183e dfe0 fc3e
000001b0: 86c2 9ebe 147d 2c3e 08e1 213e 741a f73e
000001c0: 387a e43d 9c85 ca3e 86ae e53e cef0 953e
000001d0: 27dc a7be 9436 bcbd bab0 f23d b1ae babd
000001e0: db1a 043f 9cd2 75bc efc3 493e b248 80be
000001f0: cf66 033f aea0 53bc ac54 b2be 35de 0c3a
00000200: e0d0 db3e 8dd4 ca3e c9fb 823e cf26 173e
00000210: 8af5 8abd e20a 8b3e 17e7 c2be 1678 9abe
00000220: 94c4 4a3e 8a36 8f3e 2f7d d93e 153b f93e
00000230: 08ac b93e da8a 823d 706b 87be e9a4 643e
00000240: 13db 40be c7bf fb3e d600 42bd a1c7 c73e
00000250: 6072 343c e060 0ebf b259 b5bd a2d9 9dbe
00000260: b3d7 a33e 880c 1c3e b2c1 9b3e c308 85be
00000270: 1d7f 21bf 5c8b 793b 28d2 893e 8557 f83d
00000280: 0589 883e 9014 5bbe 14d1 7e3e 86aa 003e
00000290: b920 2e3e 250a 92bb 7203 c1be 45a2 133f
000002a0: 4c29 6bbe 68b7 4d3e fc61 9e3e beca 62bd
000002b0: d659 3bbf 8ba6 b2be 9e42 013e accf 583d
000002c0: e5ec 493e 4cd3 633d 7949 cf3e 396b b13e
000002d0: e4ea 803e b41b a83e e19b 9d3e 48c0 c2be
000002e0: 6bfa 043f 7742 aa3c b7cc a53d a741 84be
000002f0: 6775 c33e cf27 ffbd 0e85 e4be 818a 893d
00000300: 4f77 e1bb 0bdf d23e 713d 413e b3a5 a6be
00000310: cbdb c43e ab74 943e 4d30 96be 778f 95be
00000320: 7bc8 96be 6fec 473d 6c41 c83d 80fd 8ebe
00000330: 0104 d43d e94b 833e d345 823d c43b 933d
00000340: 78b2 183e f48d ae3e 5b92 e03d 2d23 d33d
00000350: e6e3 813e 9085 63be 47ed 53be 9e28 5f3d
00000360: db0d c53e 7a29 56be 5689 9b3e ac44 383d
00000370: 063f d7be 2aee 8ebd c8e8 bc3e 19cc 54be
00000380: b6a2 093f 15e8 01be 6e72 20bb 5288 cfbd
00000390: 960d e1be bca4 ed3d c89d bb3e 68ec 05bd
000003a0: 1b1d 8a3e 9d20 19bd f264 a9be 7bf1 fabe
000003b0: 3f1f 923d 7c8c 96be 5dc6 24bf 9987 623e
000003c0: 5510 e93e 4e49 a1be 2a94 d33e 182c a1be
000003d0: 26bd 5bbe ee33 143e 97ec 8a3d f7da 7abe
000003e0: 1843 d83e 6cac 78be 7fa4 673e 1d57 3ebe
000003f0: d366 133f eba2 023e f2b1 503d 8676 0abe
0.32132193 0.32591978 0.41789696 0.07508699 -0.09814531 0.18855622 0.11913488 0.31736434
-0.30219153 0.4312789 0.25749385 -0.113663115 0.40375224 -0.28951287 0.17488697 -0.19409738
-0.299988 0.362646 -0.10933976 -0.031491395 -0.07704797 0.38827306 0.4933452 0.5670759
0.176531 -0.803845 0.33598077 -0.07645386 0.15532894 -0.47517392 0.5571548 -0.4462756
-0.29253924 0.38850114 -0.13111278 0.3548743 0.09619926 0.49877942 0.3881722 0.09370983
0.32344937 0.008779109 0.33454922 0.086356424 -0.011291338 -0.09976377 -0.23142369 -0.30943644
-0.26000577 0.033328407 0.1454959 -0.155624 0.22243549 0.2333242 0.31356344 0.68040276
0.31075698 0.44477832 -0.3446808 -0.3862393 -0.36378956 -0.041354775 0.47178218 0.04460383
-0.48439866 0.2831112 -0.12208231 0.037868463 0.37365493 0.1604878 0.20100048 0.43169823
0.30061802 -0.27957132 0.4206979 0.25908503 0.12640737 -0.11038574 -0.5628874 0.48113728
0.03693965 0.2535302 0.5064186 0.32434803 0.2850669 0.39676675 -0.14254348 -0.25406474
-0.3454678 0.42140967 0.09835097 -0.15112092 -0.1692573 0.27045 0.40997815 0.42771357
0.28228727 -0.3855178 -0.24236053 0.3584547 -0.00088539545 -0.33747378 0.3205498 0.3137426
-0.22506022 0.4423325 0.14912441 0.49390313 -0.31007785 0.16844589 0.15808499 0.4826237
0.11156124 0.3955506 0.44859713 0.29285282 -0.3278515 -0.091900975 0.11850114 -0.09115351
0.5160348 -0.0150038265 0.19703649 -0.25055462 0.5132875 -0.012916727 -0.34830225 0.00053736876
0.42932796 0.39615288 0.25582722 0.14760898 -0.06785114 0.2715674 -0.38066933 -0.30169743
0.19801551 0.27971298 0.4247832 0.4867789 0.36264062 0.0637414 -0.26449156 0.22328533
-0.1883357 0.49169752 -0.04736408 0.39019492 0.011013597 -0.5561657 -0.08854999 -0.30830103
0.32000503 0.15239155 0.30421215 -0.25983247 -0.63084584 0.003807745 0.2691815 0.12126068
0.26667038 -0.21394563 0.24884444 0.1256505 0.1700467 -0.0044567757 -0.3769794 0.5766948
-0.22964972 0.20089495 0.3093413 -0.05536913 -0.73183954 -0.34892687 0.12623069 0.052932426
0.19719274 0.05562143 0.40485743 0.34652117 0.25179207 0.32833636 0.3078299 -0.38037324
0.5194461 0.020783646 0.08095687 -0.2583134 0.38175508 -0.12458765 -0.44632763 0.06715871
-0.006880678 0.41185793 0.18871094 -0.32548293 0.3844894 0.2899526 -0.29333726 -0.29211017
-0.2944983 0.048809465 0.09778103 -0.2792778 0.10352326 0.25643852 0.06360974 0.07189134
0.1491183 0.34092677 0.10965415 0.103094436 0.25369185 -0.22218919 -0.20695983 0.054482095
0.38487133 -0.2091426 0.30378217 0.044987366 -0.4204027 -0.0697902 0.36896348 -0.20780982
0.537639 -0.12686189 -0.0024482268 -0.10133423 -0.43955678 0.11603686 0.36643815 -0.032696158
0.2697533 -0.037384618 -0.33084828 -0.4901236 0.07134866 -0.29404056 -0.6436518 0.22122039
0.45520273 -0.3150124 0.41323978 -0.31478953 -0.21458873 0.14472935 0.06783407 -0.24497591
0.42238688 -0.24284524 0.22621344 -0.18587919 0.5757877 0.12757461 0.050950952 -0.13521776

network.0.bias f4 [128]
00000000: c898 a83e d990 b53e 0ef4 7bbe 5fbd 38be
00000010: e74e 8ebe 688b 073f 2fd3 a1be 1672 b43e
00000020: c341 d53d 4263 3c3e 2d74 eb3e 4ab7 68be
00000030: 071c 12bd 0b5e 723e b5a4 bc3d 1a62 e3be
00000040: 9539 59be f2a8 6e3d 23a0 cb3e ad29 8fbc
00000050: 5e55 153e 866f 363e 63dd 40be 2945 76be
00000060: 5ec2 763e e389 d83e 6bde 003f fc6f d5bd
00000070: 1ed9 203e cfd4 143e b49e 563e 38a1 90be
00000080: eabb 81be bc4e db3d 123d bbbe b645 b23e
00000090: a71a 773e f745 c9bd d6a4 8abe c581 a3be
000000a0: b535 1f3f 3c4f 07be 8381 8d3b ae8a a73d
000000b0: 1b6c 56be 121b ae3e 9dc5 af3e 818b 3d3e
000000c0: 4c68 c0bc b5ab e73c b3e8 89be 2937 303e
000000d0: 2cdd 8b3e d0c3 b43e 0aad 1a3f 7314 d23e
000000e0: 922a 16bd 750b fb3e d42e ee3e de78 06be
000000f0: 23cd f13e 4f6b 003e d101 86bd 5902 2fbb
00000100: a3a0 a03e 8e00 123f 171a a13e 0bc9 c23e
00000110: e195 acbb 65f8 8c3e 154b 0ebe 127d 0dbe
00000120: 8a0a c83e 8883 b0be f84d 023e 6c1b 593e
00000130: 716f 93be 5beb 60be f83b ff3e 5d86 923a
00000140: 7dc3 8f3e 91fd b13e 16f9 a2be 99de 703e
00000150: f244 783e c133 bc3d 1f35 cfbc 9ce1 2dbc
00000160: 31cd fa3e 3f36 a33e b2f0 c5be efa7 523a
00000170: 4ffc ac3e 1461 34be 81b6 e63d 265a d7bc
00000180: 20ba a2be 8ca6 7e3e 58d0 cf3c bd26 c33e
00000190: c709 7b3a eda6 db3e 8adc 863e 803b 33be
000001a0: 4811 a73e 8fbc ab3b 19cc f73e 0877 8fbd
000001b0: 2e08 c6bd 05d1 fabc eadb 1e3e d591 873e
000001c0: 21ac a33d 506a b0bd 17c6 9d3e a4df 703d
000001d0: 2112 913e 07e6 d4bd 79af 3d3e 873f 113d
000001e0: afad e73d f073 e2bd e348 1fbe 6625 043f
000001f0: 8b34 513d b0ae 553e 210d 123f 2699 afbe
0.32929063 0.35462072 -0.24604818 -0.1804099 -0.27794573 0.5294709 -0.31606433 0.3524329
0.10412934 0.18397239 0.45987073 -0.22726169 -0.03567126 0.23668687 0.09211103 -0.44410783
-0.21213372 0.058266588 0.39770612 -0.017475927 0.14583346 0.1781598 -0.18834452 -0.2404982
0.24097583 0.422927 0.5033938 -0.1042175 0.15707824 0.14534305 0.20958978 -0.28248
-0.2533868 0.10708377 -0.3657003 0.3481881 0.24131261 -0.09827798 -0.27078885 -0.31934944
0.62191325 -0.1321382 0.0043184175 0.08180748 -0.20939676 0.34005028 0.34330454 0.18510248
-0.023487233 0.028280118 -0.26935348 0.17208542 0.27317178 0.35305643 0.60420287 0.41031227
-0.036661692 0.4903218 0.46520102 -0.13132045 0.4722682 0.12540935 -0.06543315 -0.002670428
0.31372556 0.57032096 0.31465217 0.3804401 -0.0052668904 0.2753326 -0.13895829 -0.13817242
0.3907054 -0.3447535 0.12725055 0.21201867 -0.2879596 -0.21964781 0.4985044 0.0011178959
0.28078833 0.34763768 -0.31830662 0.23522414 0.2424505 0.09189559 -0.025293885 -0.0106128715
0.48984674 0.31877324 -0.38660198 0.00080358883 0.33786246 -0.17615157 0.112652786 -0.026288103
-0.31782627 0.2486822 0.0253679 0.38115492 0.0009576347 0.42900792 0.26340133 -0.17503166
0.32630372 0.005240984 0.48397902 -0.07005125 -0.09669529 -0.030617246 0.15513578 0.2647845
0.07991815 -0.086140275 0.30815193 0.05880703 0.28334144 -0.10395437 0.18523969 0.035460975
0.113124244 -0.110572696 -0.15555148 0.51619565 0.0510755 0.20867419 0.57051283 -0.3429653

network.2.weight f4 [128, 128]
00000000: 4eed 203d 26f6 213d 9aa1 103d dc43 7ebd
00000010: 62fb d2bc 5fcb 28bc 6a0a 2bbd 1f5f a0bc
00000020: 3850 bfbd 42c3 5fbd 97e2 a4bd 96b4 48bc
00000030: c333 793d 20ad 453d 0e60 91bd 45ae 88bd
00000040: a542 8fbd 3b60 ff3b 2cb9 72bd 9c9e 8b3c
00000050: 6f0f b93c 097c 523c 30ac bbbd d166 98bd
00000060: e656 15bd c12b 40ba 3b18 723d d121 44bd
00000070: 4030 b9bc 6fea 473d 45e5 9c3d c8a8 3dbd
00000080: 9f3b a8bc 7c69 8b3d 64f1 0e3d d9b3 4abd
00000090: a5c7 163d 4b23 66bc 663d 933b 7089 a53b
000000a0: d3ba 69bc 21df c5bc 1c6c 893a e90a 43bd
000000b0: c418 8a3d cf66 acbd 262a 2a3d d05c b6bc
000000c0: 9e09 283d d9d4 513d e1f8 48bd 191b 583d
000000d0: a34a e4bc 0c06 c7bc 8887 4e3c 2f7e b23c
000000e0: 0654 96bd fe09 9dbc ed72 85bd 48ee 403d
000000f0: 501e 36bb 2975 c3bd 0e32 213c 5f4b 353d
00000100: a323 f73c 4775 b73c 5616 13bd 7a8a 803d
00000110: ba5c 58bd ac34 863c cdc1 88bd d57a 153d
00000120: 3066 9cbd aae0 473d 843d 873d 9ac3 57bd
00000130: c151 c2bd 319e 8fbd cdf4 0cbc 1f21 3b3d
00000140: 71cb 543d 3d75 88bc f95d 5d3d deb3 95bd
00000150: d99a 4abd 3414 cd3c 6564 993c 4e54 ad3c
00000160: ea09 d8bd 0cfa 883c de96 8d3c dba9 6dbc
00000170: 16c1 22bd fa5a ea3c c208 633c a22f dcbb
00000180: 4c6a eebc e02a 493b 0c20 0b3d b140 4fbd
00000190: 8939 a83d 36f7 9fbd 08fa bdbd cca9 0c3d
000001a0: 5d19 03bd 385b b9bd 61fa cebd 38d8 39bc
000001b0: b569 8fbc 2e51 94bd ac40 843d 6f91 343d
000001c0: bb45 00bd fefa 92ba 2be1 e3bc 7920 c8bc
000001d0: 10ec b4bc 6c40 033d 8271 5dbd 654a 953d
000001e0: 4a24 ea3c 89e3 c7bc d868 ca3b 8a69 6c3b
000001f0: 8d09 953d b0ff 443d a5b8 0cbd f2f9 94bd
00000200: ced5 e73d 97b3 f5bd a3df df3e d06e 8ebe
00000210: af63 d23e 62f9 7cbe 48fd 1d3f d650 27be
00000220: 48cf c23d ada0 7e3e fce3 52bd 2e36 8f3e
00000230: 156c 013e 838d 1e3e 2f6a 82bd 3d5c fd3d
00000240: 91d2 cebd 463b 553d 91b8 3cbe 3624 a63d
00000250: 16a6 8b3e 0637 10be 0e74 2ebe 79c6 52bd
00000260: 765b 7bbe 4140 0bbe 8add 83bd f9cd f3be
00000270: 3352 243e a2db 103e c539 b23d 41a9 f1be
00000280: 2398 8b3e 6314 0ebe 42e5 a6be b8ee 62bd
00000290: 14df d2bc ec8a 453e 5ac4 3cbd 5d9c 303c
000002a0: f756 c4bd ff03 37be 78e0 80bd d841 b53e
000002b0: cef0 1f3e dc7a 0c3e 9dbc 483e 7ff7 ca3d
000002c0: 53ca 9fbd f2c6 c9be 0eed 05be 20c6 34be
000002d0: 0289 e83d e2e5 203f 365f c6bd ecb0 493d
000002e0: 9e15 2e3e 22ab b93d 6e5b c5bd a6b3 f5be
000002f0: f9ce 7a3c 3c2e debe 72a6 3bbf ac1a 3c3e
00000300: a335 9dbe b01b b9bd 2781 16bf 7c61 243e
00000310: 84a5 37be 142f 793e e5f3 4fbe 68af 9bbe
00000320: 7c0c 30be f907 36bd 6fa4 aa3d 2c8c 05bf
00000330: 9eda b63e 33f8 623d c564 f7ba 8548 393e
00000340: 2a52 d8be 638b 85bc f0bb 27bf defe b13b
00000350: 547d 9abe 37ca 9cbe d98b 87be 4cd2 9f3d
00000360: 3557 fabd 4dc3 a33d 4a16 2e3f ce90 073e
00000370: 4c42 36be 76e2 1dbc 2a62 a13e f7b9 513e
00000380: c13c 8b3d 648a ba3d 3768 35be 4495 69be
00000390: b601 3d3d 8e9f 81be fdd8 12be ef77 eabe
000003a0: 0275 6bbd 3ab0 0fbe d55f 09bd 365f e63d
000003b0: 6162 473e 13f2 933e b311 f8be 38ab 5d3e
000003c0: 6236 503e 3997 2cbf 3ece 53be eb5e c4bd
000003d0: 9a0e 013e 6e4f 1f3a 1fff b93d f4be 383e
000003e0: 48e5 bfbd 319d 8dbd 28fc 60bd cdb0 e4bc
000003f0: f0e4 833e b879 a53e ef4e 4ebc 077f af3d
0.03928881 0.039541386 0.035310365 -0.062076434 -0.025754634 -0.010302394 -0.04175798 -0.019576607
-0.093414724 -0.05462957 -0.08051031 -0.012250086 0.06084038 0.048260808 -0.07098399 -0.06673864
-0.06995133 0.007793454 -0.059258625 0.017043404 0.022590367 0.012846955 -0.091637015 -0.07441486
-0.036459826 -0.00073307386 0.05910514 -0.047883812 -0.022606015 0.048807558 0.07660917 -0.04630354
-0.020536242 0.06807229 0.034898177 -0.049487922 0.03681149 -0.0140465 0.0044934032 0.005051784
-0.014265734 -0.024154248 0.001048449 -0.047617827 0.06743005 -0.08418047 0.041544102 -0.022261053
0.041024797 0.051228378 -0.049065474 0.052760217 -0.02786762 -0.024294876 0.012605555 0.021788685
-0.07340245 -0.019169804 -0.06516061 0.047102243 -0.0027789064 -0.09543831 0.009838594 0.044261333
0.03016836 0.02239479 -0.035909973 0.06276412 -0.052822806 0.016382538 -0.066775896 0.036494095
-0.07636678 0.04879824 0.0660353 -0.052676775 -0.094882496 -0.070125945 -0.008603287 0.045685884
0.05195183 -0.016657466 0.054044697 -0.073096976 -0.04946408 0.025034048 0.01872463 0.021158364
-0.10548766 0.016720794 0.017283853 -0.014505829 -0.039734922 0.028607834 0.0138570685 -0.0067195455
-0.02910342 0.0030695722 0.03396611 -0.050598804 0.08214099 -0.078108236 -0.09276205 0.03434162
-0.03200661 -0.09050602 -0.1010635 -0.0113430545 -0.01750646 -0.07242046 0.06457648 0.04408401
-0.0313165 -0.0011213718 -0.02781733 -0.024429547 -0.02208522 0.03204386 -0.054063328 0.0728958
0.028581757 -0.02440049 0.006177049 0.0036073648 0.07277212 0.048095405 -0.03435578 -0.07274236
0.11320077 -0.11997145 0.4372531 -0.27818918 0.41091678 -0.24704507 0.617146 -0.1633943
0.09512192 0.2486598 -0.051486954 0.27971023 0.12638886 0.1548367 -0.06367909 0.12371109
-0.10098756 0.05205848 -0.18429781 0.081123754 0.2727515 -0.1408349 -0.17036459 -0.05145881
-0.24546608 -0.1359873 -0.064387396 -0.47618082 0.16046982 0.14146283 0.08702425 -0.47199443
0.2726451 -0.13874964 -0.32596785 -0.05540344 -0.025741138 0.19291276 -0.046085693 0.010779467
-0.095869 -0.17872618 -0.06292814 0.35401797 0.15619203 0.13718742 0.196032 0.099104874
-0.07802262 -0.39409596 -0.1307871 -0.17653704 0.11354257 0.62850773 -0.09686129 0.04924099
0.17000434 0.09065844 -0.096365795 -0.47988623 0.015308135 -0.4339465 -0.7330085 0.1836955
-0.30704984 -0.09038484 -0.5879082 0.16052812 -0.17934233 0.24334365 -0.20307882 -0.30407262
-0.17192262 -0.044441197 0.083321445 -0.5216701 0.35713667 0.055412482 -0.0018874636 0.1809407
-0.42250186 -0.016301816 -0.65521145 0.005431994 -0.30173743 -0.30623028 -0.26473883 0.07803783
-0.12223665 0.07996235 0.6800276 0.13238832 -0.17798728 -0.009636512 0.31520206 0.20481096
0.06798697 0.09108427 -0.17715536 -0.22810847 0.04614421 -0.25317043 -0.14340587 -0.45794627
-0.057484634 -0.14032069 -0.03353866 0.11248629 0.19471122 0.28895625 -0.48451003 0.21647346
0.20333245 -0.6741825 -0.20684144 -0.09588417 0.12603226 0.00060772046 0.090818636 0.18041593
-0.09369904 -0.069147475 -0.054927975 -0.027916336 0.25760603 0.32319427 -0.012592061 0.085691504

network.2.bias f4 [128]
00000000: 5a15 dab9 0343 93bc 0024 b33c 39f8 38bd
00000010: 4d68 5b3e 48f0 98bd 5364 edbc b618 813e
00000020: 2db0 80bb a142 c4bc b6ea aa3c 5dc1 193d
00000030: c621 2e3d 9d96 9d3c 74ee abbd 8d87 3b3e
00000040: 3e5c 393e 9a02 5abd 07a6 753d c79c db3b
00000050: a4c7 80bd 450b 103e 7be6 953d 1df6 8bbd
00000060: 1d7a 8fbc 0a1c 623d 630e 063e ca85 603c
00000070: 3df2 b33b 79dd d4bd ee88 92bd 158c c73c
00000080: 10f9 4f3d 0b1c e2bb 2b56 803d dce3 a3bc
00000090: a141 393e 90f5 973e 6668 90bd ba1d d6bc
000000a0: b8d0 e1bc 14e9 6bbb 052f 08be 4787 c83d
000000b0: 1bbc 713e 4285 613d 4863 973c c90b bbbd
000000c0: 22ce 203e b46a 84bc 7eff 3cbc 3d88 89bd
000000d0: 3461 863d 3578 463e 813a 49bc 73a5 14bd
000000e0: 131a 55bd 6e65 b1bd 39c7 40bd e2bc 833d
000000f0: 34e6 743d 2681 9e3e 428b 603d 22f8 78bc
00000100: 67e4 3e3d e239 6dbc cf5d 21bd b16b a7bd
00000110: c0d6 b0bd 503a 2a3e e7bd 1cbe 9625 76bd
00000120: de8d b2bd 2329 113c 0c0a ecb8 a191 22bd
00000130: 6e74 a43b a814 92bd 2918 b8bd 4c61 70bd
00000140: b6d4 92bb d531 9d3c 2e44 98bc a976 49bd
00000150: 8978 44bd 2f89 663d c28c 663d 0cc7 843d
00000160: 6b30 cc3d cf7e 28bd 5882 bfbc b077 b1bd
00000170: 07c3 7d3d 76f7 58bd 59cb 483e 191a 0f3e
00000180: c43c 843c e656 95bd 0322 c9bb 755d 903d
00000190: 9022 963d 3cfa 76bd ee09 3b3b 2f25 563d
000001a0: fe0b ed3d bbb7 bfbd 3113 6f3e b729 82bd
000001b0: ed3c aa3c cd1b 933d 1994 c8bc 7aea 693d
000001c0: acc7 3dbc ce7f d3bd a71c 3f3c f7cd 83bd
000001d0: d600 7a3e c594 0fbd ac78 57bd c724 6b3d
000001e0: 0a19 56bc c81f 07be 5be2 21be cce2 0f3d
000001f0: e63b 63bd a549 483d d215 5fbd 9f32 9cbd
-0.00041596108 -0.01797629 0.021867752 -0.0451586 0.21426506 -0.07467705 -0.028978502 0.25214165
-0.003927252 -0.023957552 0.020863872 0.03753792 0.042512678 0.019236857 -0.08395091 0.18313427
0.18101594 -0.053225137 0.05997279 0.006702039 -0.062880784 0.14066799 0.07319351 -0.06834052
-0.017514283 0.05520252 0.13091426 0.013703773 0.0054915235 -0.10393805 -0.071550235 0.024358789
0.050774634 -0.0069003156 0.06266435 -0.020006113 0.18091442 0.29679537 -0.070511624 -0.026137222
-0.027565345 -0.003599708 -0.13299187 0.09791427 0.23606913 0.055058725 0.018479958 -0.09133107
0.15703633 -0.016164161 -0.011535523 -0.067154385 0.06561509 0.19381793 -0.012282015 -0.036290597
-0.05202682 -0.08661924 -0.047064994 0.06432511 0.05978985 0.30957907 0.054820307 -0.015195878
0.04660454 -0.014479132 -0.039396103 -0.081748374 -0.0863471 0.16623807 -0.15306817 -0.06009444
-0.08718465 0.008859905 -0.00011255228 -0.039689664 0.0050187623 -0.07132846 -0.08988983 -0.05868654
-0.0044809235 0.0191888 -0.018587198 -0.04918543 -0.047966514 0.056283172 0.05628658 0.06483278
0.099701725 -0.04113656 -0.023377582 -0.08665407 0.06195357 -0.052970372 0.19608821 0.13974799
0.016142257 -0.07291965 -0.0061380877 0.070490755 0.07330811 -0.060297236 0.0028539854 0.052281555
0.11574553 -0.09361216 0.23347165 -0.06355613 0.020781005 0.07183037 -0.024484681 0.05710838
-0.01158325 -0.10327111 0.011664546 -0.06435769 0.24414381 -0.035053987 -0.052605316 0.05740812
-0.013067493 -0.13195717 -0.15809004 0.0351284 -0.055477045 0.048898358 -0.05446417 -0.07626843

network.4.weight f4 [3, 128]
00000000: 8e79 2cbd 952d 74be 88cf 3c3c 6105 40bd
00000010: 2520 8d3e afc3 30bf d4e0 84bd 61d3 9f3e
00000020: 7e82 24bd 171f b6bc a263 753e a71c 3fbd
00000030: 4e4d aa3c 41cb 4d3c 2fbd b4bc 6e87 bd3e
00000040: d3b6 b53e b038 48bd 033b 0ebe 0c49 063e
00000050: 5374 a13c 6360 933e 11e4 a23e 7bd2 a8bd
00000060: 54be 38bd 1bd9 4e3d 1eb9 b63e 25a8 15bd
00000070: 37c1 ad3c 6181 613e cf2a 36bc 9eb0 6d3e
00000080: a54f 91bd a5a2 98bd 8fd7 653d ddec 303e
00000090: d885 953e 6975 b73e 214d 55bc 1af2 e2bc
000000a0: 60c1 b03c dabd 9bbe cba5 293e 90db 973e
000000b0: 912d 903e a631 963b 9b27 9d3e b4be 23be
000000c0: e4e2 9c3e 6446 19be 5ab5 26bf 321f a33d
000000d0: 249e 06bd 3dfd 603e 2e41 1f3d 5cf7 23be
000000e0: b964 7cbd 2ec7 1abd cafe 69bd 338b 663c
000000f0: d4db 91bd 6b9a be3e 9cf1 f0bc 7816 253e
00000100: 4b89 5cbd c999 653e 2f95 23bd e9f2 af3d
00000110: 320d 06bd 1b5b b73e 598b 32bd 10d5 99bd
00000120: b83e 3bbe c87e 85bc 6c6b 17bf 12ed d1bc
00000130: 3cb4 8abd 0af5 32bd d849 fa3d 6803 3f3b
00000140: a8d0 ad3d 49d3 51bc 832e 5cbe b88c 41bd
00000150: 4e86 2dbc 35c6 643e 4510 813d e9af 4d3c
00000160: 86e7 58be d960 5cbd 3d37 68bd c9cd f1bc
00000170: d1e4 3bbc c2f4 16be 6293 d43e 8286 b73e
00000180: fcac 86bd c713 97bd 73aa 28bd 12d4 eabc
00000190: fa21 66be 7ad0 65bd 1c38 adbe cd87 1bbe
000001a0: e5e4 be3e 166d 74bd c668 aa3e 599a 483c
000001b0: 396a 91be 8c77 f23b 30e1 47bd c51b a43e
000001c0: 2ee3 b93c d042 d13d 87d6 ac3d f6b6 953d
000001d0: ff26 943e b20e 963b 8849 233e 1695 3a3e
000001e0: cd49 1cbd 11d7 493d a728 29bd 6ce9 84bd
000001f0: cf45 87be 3d07 903e e3ba fcbc f2fd 393e
00000200: b415 843d d901 b6be 39d8 eb3c 9798 edbe
00000210: 6a3b c43e adad 37be 7006 473d 2ec3 523e
00000220: f3ce e2bc 7dd6 963d 7383 a6bc fef7 9fbd
00000230: f3b5 37bd 89b0 5c3d 12b6 6f3d fb13 b43e
00000240: 7f56 2d3e 2adb 643d 6627 c8bd 45dc 99bb
00000250: 540c ecbc b315 893e 7dbc b43d d05d 913c
00000260: efdc 92bd c725 3ebd 8961 7e3e 6e19 af3c
00000270: 3d94 353d f241 4fbe 7d96 103d c230 553e
00000280: d2ee d8bc 982f 463c 5bad 1dbd deb0 9abd
00000290: de0d 003f 318d cd3e d4e0 043d f1f7 573c
000002a0: a52a 033d 3040 a9be 24a4 debe 87a4 5b3e
000002b0: 9c2c 2c3e e6cc 2b3d c2df 473e b64b 12bf
000002c0: d43c e83e fe0c 81be 4f5d 46be e153 573d
000002d0: d31c fb3c f560 993e 7d8f 8dbd 86e9 7dbe
000002e0: 5632 1bbe 26c0 1dbd 14e8 883d e2a9 a83c
000002f0: 302d 7f3d 26b0 c33e 0568 1b3d a5c5 57be
00000300: 4c9d 403d e116 123d 4e2e 12bc be89 a63d
00000310: 3614 173d deb5 c03e 49a9 30be 2950 bf3c
00000320: f8bf 98be 89d9 1d3b 197f d2be d1c1 acbb
00000330: df57 353d dd15 e2be 2d4d 73bd 6c81 e9be
00000340: 147c 813c ecf6 883d b61b 90be 30e7 463d
00000350: 45b1 143d 720f 693e 59aa 563d 5fc8 b53b
00000360: 5554 74be 2194 45bd a5cb 0d3d 69f7 d8bc
00000370: b982 0fbe a466 dbbe 2115 e93e 8299 0b3e
00000380: 8ca3 8c3d 93b2 7a3d 0c5c 373c cef6 ad3c
00000390: e179 54be 9094 34bd d038 00bf f67f 90be
000003a0: 18b9 c73e 93da 35be 07b2 bb3e c72e 5dbd
000003b0: 1f0d 853d ee10 263d bef7 1ebd de24 683e
000003c0: 59a2 823b 6fe5 10be ac4e 8a3d f8d2 26be
000003d0: 88f7 3a3e 494a d1be 8ed8 88be d97f 243d
000003e0: d52f 953c 06fa 41be cef7 babe 6e1e 91bb
000003f0: 98d6 60be 6a44 a6bd f91d 573b ae71 66bd
-0.04210811 -0.23845513 0.011524089 -0.04688013 0.27563587 -0.6904859 -0.06488195 0.31215957
-0.04016351 -0.022231622 0.23963788 -0.046658184 0.020788815 0.012560667 -0.022062866 0.37017387
0.35491046 -0.048882186 -0.13889699 0.13113803 0.019708788 0.28784475 0.31814626 -0.08243271
-0.045103386 0.050500017 0.35688108 -0.03653731 0.021210296 0.2202201 -0.011118605 0.23211905
-0.07095269 -0.07452897 0.056113776 0.17277856 0.29203677 0.35831764 -0.013018877 -0.027703334
0.021576583 -0.30418283 0.16567151 0.296597 0.28159764 0.0045835553 0.3069428 -0.15990716
0.30641854 -0.14968258 -0.6512047 0.079649344 -0.03286566 0.21971603 0.03888052 -0.16012329
-0.061619494 -0.03778761 -0.05712775 0.014071274 -0.07122007 0.37227187 -0.029412083 0.16121852
-0.05384187 0.22421946 -0.039937194 0.08591253 -0.032727428 0.35811695 -0.043589924 -0.075113416
-0.18285644 -0.016295806 -0.5914829 -0.02562574 -0.06772658 -0.04369072 0.12221116 0.0029146317
0.08487064 -0.012806722 -0.21502118 -0.04725334 -0.010591103 0.22341235 0.06301931 0.012554147
-0.21182069 -0.0538033 -0.056693304 -0.029517071 -0.011468128 -0.14741805 0.41518694 0.3584481
-0.06575963 -0.07376819 -0.041178178 -0.028665576 -0.22473899 -0.056107022 -0.3383187 -0.15188523
0.37284008 -0.059674345 0.3328306 0.012243831 -0.28401354 0.007399505 -0.04879874 0.32052436
0.022691336 0.102178216 0.08439355 0.07310288 0.28936002 0.0045793885 0.15946019 0.18220934
-0.03815632 0.04927737 -0.041298535 -0.06489834 -0.26420447 0.28130522 -0.030850833 0.18163279
0.06449452 -0.35548285 0.028789626 -0.4640548 0.3832658 -0.17937346 0.048590124 0.20582268
-0.027686572 0.07365129 -0.020326352 -0.07810973 -0.044851255 0.053879295 0.058523245 0.35171494
0.16927527 0.055873074 -0.0977314 -0.0046954476 -0.028814472 0.26774368 0.08825014 0.017744929
-0.07171046 -0.046422746 0.24841894 0.02137443 0.044330824 -0.2024 0.035299767 0.20819381
-0.026481066 0.012096308 -0.038495403 -0.07553266 0.5002116 0.40146783 0.032440975 0.013181672
0.03202309 -0.33056784 -0.43484604 0.21449481 0.16813892 0.041943453 0.1951895 -0.57146776
0.45358908 -0.25205225 -0.19371532 0.052570228 0.030653393 0.29956785 -0.06912134 -0.24796113
-0.1515592 -0.038513325 0.066848904 0.020588819 0.062298954 0.38220328 0.037940998 -0.21071489
0.04702501 0.03566635 -0.008922173 0.08131741 0.03688451 0.37638754 -0.17252077 0.023353653
-0.2983396 0.002408596 -0.41112593 -0.005272128 0.044273254 -0.44157305 -0.059399772 -0.45606554
0.015806235 0.066877216 -0.28146142 0.04856032 0.03630187 0.22759798 0.05240855 0.0055475677
-0.23860295 -0.04823697 0.03461804 -0.026485162 -0.1401471 -0.42851746 0.45523933 0.13632777
0.068671316 0.061205458 0.011191379 0.02123585 -0.20749618 -0.044086993 -0.5008669 -0.28222626
0.39008403 -0.1775916 0.36659262 -0.05399969 0.06496643 0.04054349 -0.038810484 0.22670314
0.0039866385 -0.14150022 0.06753287 -0.16291416 0.18258488 -0.40876988 -0.26727718 0.040160988
0.018211285 -0.18943033 -0.36517185 -0.0044286763 -0.21956861 -0.08118518 0.0032824262 -0.056260757

network.4.bias f4 [3]
00000000: d7af b03c 5579 ce3d 2c89 1bbc
0.021568222 0.10081736 -0.009493154
