DQN/DQN_checkpoints/dqn_checkpoint_100.pt (torch, 298901 bytes, 24 tensors)

network.0.weight f4 [128, 8]
000000 13 6f 8b 3e 44 95 8e 3e aa c1 de 3e be 6b 75 3e
       0.2723318 0.27848256 0.4350713 0.23966882
000010 d7 df 19 be f4 eb 88 3e 10 d8 36 3e 21 b9 9e 3e
       -0.15026794 0.26742518 0.17855859 0.31000617
000020 96 1b ac be 50 1c d6 3e 0b b7 80 3e 89 fd 14 3d
       -0.33614796 0.41818476 0.2513965 0.036374602
000030 0b c6 fb 3e 41 8d cc be 55 73 95 3e c9 a7 1f be
       0.49174532 -0.39951518 0.29189554 -0.15591349
000040 78 55 db be e8 88 ea 3e 54 ad 30 bd f4 66 7b be
       -0.42838645 0.45807576 -0.04313405 -0.24550992
000050 60 4c 1a 3e 86 ba da 3e 49 06 f3 3e df b5 06 3f
       0.15068197 0.4272043 0.47465733 0.52621263
000060 0f e6 90 3e 55 93 5c bf 0b d2 b2 3e 5d b1 64 3d
       0.2830052 -0.8616231 0.34925875 0.05583321
000070 79 e9 bb 3d a6 9a 1b bf 05 3d 01 3f be 9d 3a bf
       0.09175391 -0.6078285 0.50483733 -0.72896945
000080 b4 3f da be da 0c ff 3e 06 38 c7 bc f3 1e 02 3f
       -0.42626727 0.49814492 -0.024318706 0.50828475
000090 0f e4 07 ba ad 44 02 3f 65 8e df 3e 97 0e 0b 3e
       -0.00051838247 0.5088604 0.43663326 0.13579784
0000a0 92 38 93 3e dd c2 44 bd bb 7d b9 3e 16 7a 5b 3e
       0.28754097 -0.0480374 0.36228737 0.21433291
0000b0 f0 97 7c bc 36 b0 57 bd 6c 0f 13 be 53 0f ac be
       -0.015417084 -0.052658282 -0.14361352 -0.3360544
0000c0 42 bb 24 be 28 70 15 3e a5 a1 25 3e 39 23 ae be
       -0.16087058 0.14593565 0.16174944 -0.34011248
0000d0 8c 25 67 3e df 78 b6 3e 29 36 b6 3e 8a 82 21 3f
       0.22572917 0.35639092 0.35588196 0.6308981
0000e0 48 e2 4d 3e 96 f6 20 3f 42 87 b2 be 8d 43 d3 be
       0.2010585 0.6287626 -0.3486882 -0.41262475
0000f0 0e 5d 7e be 3c 04 59 be 00 fc 0f 3f 1c 13 43 bc
       -0.24840185 -0.21193022 0.56243896 -0.0119064115
000100 4d 71 fa be fc 8b 52 3e 59 15 9c be b9 4e 02 be
       -0.48914567 0.20561212 -0.30485037 -0.12725343
000110 65 34 dc 3e 0d 31 a0 3e 39 70 8e 3e 6a 6e d0 3e
       0.43008724 0.31287423 0.27819994 0.4070924
000120 fd 37 8b 3e a6 f4 d8 be c4 b6 d4 3e 5c 7f d6 3e
       0.27191153 -0.42374152 0.4154569 0.41894042
000130 f6 37 9f 3d e0 7e 45 bd 37 fa 19 bf 97 e9 e7 3e
       0.077743456 -0.0482167 -0.6014742 0.45295402
000140 e4 1a 08 3a fe be 54 3e 03 bb 02 3f 73 ec f0 3e
       0.00051919953 0.20775983 0.5106661 0.47055396
000150 f3 05 95 3e 48 76 f9 3e cf 2f 92 bc bc 6e 96 be
       0.291061 0.48723054 -0.017845063 -0.2938136
000160 42 b5 d8 be a7 26 e6 3e 26 e7 ae 3d 57 64 ca be
       -0.4232579 0.44951364 0.08540182 -0.39529678
000170 7e e5 11 3e 5a 65 e5 3e 50 0c c7 3e 72 ab c9 3e
       0.142477 0.44803888 0.3887658 0.39388615
000180 31 eb 7e 3e eb c4 d9 be 33 65 fd be 4e 01 12 3f
       0.24894406 -0.4253305 -0.4949127 0.5703324
000190 18 e1 37 3d 51 c5 b4 be a8 c2 2d bb 62 89 b7 3e
       0.0448924 -0.3530679 -0.002651373 0.35847002
0001a0 a9 7a 86 be 5f 4d d2 3e 23 de 0b 3e d4 6e 2b 3f
       -0.26265457 0.41074654 0.13658957 0.66965985
0001b0 49 d4 c8 be 43 cf 8b 3e af e9 54 3e b8 9b fd 3e
       -0.3922446 0.27306566 0.20792268 0.49532866
0001c0 07 44 a7 3d b4 5c e5 3e 35 47 06 3f 91 5f 24 3f
       0.08167272 0.4479729 0.52452403 0.6420832
0001d0 2c 9d 39 bf 34 84 87 bd 9a bd df bc 87 4b ae bd
       -0.7250545 -0.066170126 -0.027312089 -0.085104994
0001e0 1f 07 11 3f 07 52 3a 3d 52 05 72 3e ec 6f 69 be
       0.5665149 0.045488384 0.23634842 -0.22796601
0001f0 d1 59 01 3f 73 df d5 3c 11 f8 cf bd 1b 86 8d bc
       0.50527674 0.026107525 -0.10154737 -0.01727586
000200 2f 8f e0 3e 25 cd 9a 3e 64 d0 f2 3e ba a7 98 3e
       0.4385924 0.30234638 0.47424614 0.29815465
000210 01 b8 e2 be 59 f1 dd 3e 4c f4 7f be 38 69 bb be
       -0.4428101 0.43348196 -0.24995536 -0.36603713
000220 1b e1 2a 3e a7 73 71 3e d4 de ca 3e 62 69 29 3f
       0.16687433 0.23579274 0.3962313 0.66176426
000230 c0 d1 b0 3e 43 a4 05 3e 38 8a 39 be dc 01 4b 3e
       0.34535027 0.13050942 -0.18119133 0.19824928
000240 29 79 bd be 7b f3 09 3f 96 44 cd bb cb f7 2a 3f
       -0.370065 0.53887147 -0.0062642796 0.6678435
000250 b6 4e 55 bd 35 63 1a bf 1c 58 88 bd a8 8e c3 be
       -0.052077018 -0.6030763 -0.066574305 -0.38194776
000260 7f e6 4b 3e 7d ad bf 3c 36 2d bf 3e 23 9e 3b be
       0.19912146 0.023398155 0.3733918 -0.18322043
000270 62 f4 8e bf 62 78 45 be 74 97 a0 3e f3 2a da 3c
       -1.116833 -0.19284204 0.3136555 0.026631808
000280 41 d9 6d 3e b3 bc 91 be bf 2b 70 3e ea c0 77 3e
       0.23227407 -0.2846428 0.23454188 0.24194685
000290 34 11 10 3e ac ee 9f 3c 41 ab cb be 27 88 10 3f
       0.14069062 0.019522987 -0.39779094 0.5645775
0002a0 f1 7a 8f be 99 84 d3 3d 03 ec a3 3e 48 af 7e bd
       -0.28023484 0.10328025 0.32016 -0.06217888
0002b0 d4 09 fa bf fa c7 fb bc 51 1d 0a 3e 15 25 3d bd
       -1.9534249 -0.030735005 0.13487746 -0.046177942
0002c0 ee 3e 44 3e 2f 67 85 be 3c d4 ed 3e 16 62 02 3f
       0.19164631 -0.26055285 0.46450984 0.5093092
0002d0 ec c4 87 3e a7 00 dd 3e 64 55 01 3f b5 26 a3 be
       0.26517427 0.4316456 0.5052092 -0.3186547
0002e0 5b 90 03 3f 9c 63 58 bc 91 e2 ca 3d 24 69 6b be
       0.51392144 -0.0132073425 0.09906495 -0.22989327
0002f0 1b d3 02 3f 75 04 6d bd c7 41 50 be 01 70 be 3d
       0.5110337 -0.05786558 -0.20337592 0.09298707
000300 fa b0 b7 bd 12 bf c7 3e ad 9f 81 3e 0d cc d0 be
       -0.089693025 0.39012963 0.25317135 -0.40780678
000310 f4 a0 d9 3e 38 a3 ad 3e c6 fa 89 be 1a 1f 8b be
       0.4250561 0.3391359 -0.26949137 -0.27172166
000320 d8 d6 91 be 16 04 42 3d ec ad fb 3d 66 77 9c be
       -0.28484225 0.047367178 0.12289032 -0.30559844
000330 56 3e 3f 3e 10 d9 8f 3e 44 dd 42 3e c2 5d 93 3d
       0.18676123 0.28095293 0.19029719 0.07195617
000340 a7 4f f4 3d c2 fd 97 3e 3f 49 f4 3d 39 15 54 3e
       0.11929255 0.2968579 0.11928033 0.20711221
000350 7a 13 75 3e c9 30 26 be 72 56 08 be f8 7c 11 3d
       0.23933211 -0.16229548 -0.13314226 0.03551957
000360 f9 3d c6 3e bf 53 6f be e6 8c 91 3e ec 3a 47 3e
       0.38719156 -0.2337179 0.2842781 0.1945607
000370 37 69 63 bf 4f 29 97 be 0c 7b 8c 3e 3d 12 67 be
       -0.8883242 -0.29523703 0.27437627 -0.22565551
000380 de df 1f 3f f1 c0 e1 bd 30 2d 79 be aa 68 04 be
       0.6245097 -0.11023129 -0.24333644 -0.12930551
000390 98 f3 ac bd 8b aa c8 3c 8f 26 1a bd 76 15 35 bd
       -0.08444899 0.024495384 -0.03763443 -0.04420992
0003a0 43 a2 ac 3e d4 a3 8e bb 81 c4 81 be 35 ac 33 bf
       0.33717546 -0.004353026 -0.25345233 -0.7018464
0003b0 22 8d a4 3e f2 12 0c bf a7 bc 82 bf 85 0c 76 3e
       0.32138926 -0.5471641 -1.0213822 0.24028213
0003c0 cf db 24 3f 65 c7 c7 be 90 ad e0 3e 49 05 a9 be
       0.643979 -0.39019313 0.43882418 -0.33011845
0003d0 7a 05 3f be bb 5b ad 3d 92 9a b8 be 28 aa 80 be
       -0.18654433 0.08464762 -0.36055428 -0.2512982
0003e0 32 4d b7 3e 04 fc b8 be cf 14 c7 3e 90 9f d4 3b
       0.35801083 -0.36129773 0.38883063 0.006488748
0003f0 6a 19 0d 3f 6f d4 4f 3e 71 8a 5a 3e 3c 39 da bd
       0.55116904 0.2029588 0.21341874 -0.10655448

network.0.bias f4 [128]
000000 30 31 c0 3e 58 75 d5 3e 38 0b 98 be 53 3b df bd
       0.37537527 0.4169109 -0.2969606 -0.10899987
000010 38 84 85 bd d9 dc 19 3f e1 92 ad be b2 90 d3 3e
       -0.06519359 0.6010261 -0.33901122 0.4132133
000020 98 56 ab 3d 88 37 76 3e 3e bf 06 3f b4 7d 8e be
       0.08366126 0.24044621 0.5263556 -0.2783028
000030 0c a5 43 3d c7 ce 8f 3e f2 b7 a0 3d 25 eb c7 be
       0.047764823 0.28087446 0.07847585 -0.3904659
000040 43 49 88 be 72 89 fb 3d 51 db c7 3e a0 06 eb bc
       -0.26618394 0.12282075 0.39034513 -0.028689682
000050 0f 8f 5d 3e 37 ef af 3d 5f d5 d3 bd 7b 35 29 be
       0.21636604 0.085905485 -0.10343432 -0.16524307
000060 ed 12 73 3e 00 8f fa 3e cf 5e 12 3f 37 e6 73 bd
       0.23737688 0.48937225 0.57175916 -0.05954572
000070 b4 3c 3d 3e 64 81 f8 3d f5 79 70 3e f7 b0 91 be
       0.18480188 0.12134054 0.23484023 -0.28455326
000080 66 01 e3 bd 2b 70 93 3d 65 6c ce be b5 f0 92 3e
       -0.11084251 0.07199129 -0.40317073 0.2869927
000090 38 75 5a 3e 7a d8 e5 bd d6 a4 8a be c5 81 a3 be
       0.21333778 -0.1122293 -0.27078885 -0.31934944
0000a0 ac f4 30 3f 34 2e 8a bd 54 47 c6 3d 2f b5 8d 3d
       0.6912334 -0.06747094 0.096815735 0.06919324
0000b0 17 ee 0e be a0 b6 cc 3e f9 77 d9 3e af a7 35 3e
       -0.13958012 0.39983082 0.42474344 0.17739747
0000c0 d3 85 85 3d 7c 7a db 3d dc ea b2 be f3 e5 d3 3d
       0.065196656 0.107167214 -0.34944808 0.10346594
0000d0 ae df ad 3e fe 72 01 3f 20 ac 2b 3f 26 b4 ea 3e
       0.33959717 0.5056609 0.67059517 0.45840567
0000e0 01 5b 1b bd b7 97 0f 3f 2e f2 06 3f b1 d5 28 be
       -0.037928585 0.56090873 0.52713287 -0.16487767
0000f0 0a 7e 0a 3f 66 20 4d bc 4c 5f dd 3c 83 82 33 bd
       0.5409857 -0.012519931 0.02702298 -0.043825638
000100 1c b1 6e 3e ce 19 23 3f a1 7f a9 3e 7b 89 e3 3e
       0.2330975 0.6371125 0.33105186 0.44440827
000110 41 1c 03 bc 5e cd a4 3e 88 61 0f be 34 55 50 be
       -0.008002342 0.32187933 -0.14002049 -0.20345002
000120 74 85 b5 3e 88 83 b0 be f4 eb ed 3d 2b 26 13 3e
       0.3545338 -0.3447535 0.1161727 0.14370029
000130 50 20 99 be 13 ec 60 be 65 32 10 3f 03 8c 87 3d
       -0.29907465 -0.21965055 0.56326896 0.06618502
000140 04 3e 91 3e 7f b9 b3 3e 66 2b 7b be 3c 70 93 3e
       0.28367627 0.3510246 -0.24528274 0.28796566
000150 aa db 5e 3e 97 7d dc 3d 7b a3 4f be 02 5b b4 bd
       0.21763483 0.10766142 -0.20277207 -0.08806421
000160 f2 ce 05 3f 70 10 c5 3e 3c be d5 be ca 76 82 3d
       0.522689 0.38489103 -0.417467 0.063703135
000170 fa d0 da 3e 5a ad ad be ca d3 4b 3e 87 dc eb 3c
       0.4273756 -0.3392132 0.1990501 0.02879168
000180 20 ba a2 be 8c 55 9b 3e 85 85 cb 3d ad d2 be 3e
       -0.31782627 0.30338705 0.09937576 0.37270108
000190 1d 64 97 bc 2b 78 b7 3e d5 e2 81 3e f1 98 c6 be
       -0.018480355 0.35833868 0.25368372 -0.3878856
0001a0 d1 f9 cb 3e 41 03 42 3c 33 d7 07 3f 0e fb 0a be
       0.39839032 0.011841596 0.5306274 -0.13572332
0001b0 7a 62 35 bd 2c fb bb 3d e9 8a 7f 3e 30 5b 9e 3e
       -0.044283368 0.091787666 0.24955334 0.30928946
0001c0 48 a8 83 3d 13 cb cf bd 49 9b a1 3e 1d f1 32 bd
       0.064285815 -0.10146155 0.31563786 -0.043686975
0001d0 eb 6a ae 3e 43 bd c9 bd 27 8d 83 3e 30 70 cc 3d
       0.34065947 -0.09850552 0.25693628 0.099823356
0001e0 b4 bb 41 3e 3e 39 a4 be e7 be 1e bd 7b 54 17 3f
       0.1891926 -0.32074922 -0.038756277 0.5911328
0001f0 14 12 97 3d da 68 65 3e d4 af 24 3f 60 65 af be
       0.07376495 0.22403279 0.6433079 -0.3425703

network.2.weight f4 [128, 128]
000000 cb ec 20 3d 55 f5 21 3d 9a a1 10 3d dd 43 7e bd
       0.039288323 0.039540607 0.035310365 -0.06207644
000010 1c fc d2 bc 05 cc 28 bc 6a 0a 2b bd d3 5f a0 bc
       -0.02575498 -0.010302548 -0.04175798 -0.019576943
000020 a0 50 bf bd bf c3 5f bd 2f e3 a4 bd 96 b4 48 bc
       -0.0934155 -0.054630037 -0.08051144 -0.012250086
000030 2d 33 79 3d 7d ac 45 3d 7b 60 91 bd 7f ae 88 bd
       0.06083982 0.0482602 -0.0709848 -0.066739075
000040 c0 42 8f bd 7b 5f ff 3b 40 b9 72 bd 14 9e 8b 3c
       -0.069951534 0.0077933646 -0.0592587 0.017043151
000050 5c 0f b9 3c 4a 7b 52 3c b9 ac bb bd d1 66 98 bd
       0.022590332 0.012846777 -0.091638036 -0.07441486
000060 1e 57 15 bd ce 2b 40 ba d7 17 72 3d 5c 22 44 bd
       -0.036460035 -0.0007330746 0.059104767 -0.04788433
000070 4f 30 b9 bc 6f ea 47 3d 11 e5 9c 3d be a8 3d bd
       -0.022606043 0.048807558 0.076608784 -0.046303503
000080 3b 3c a8 bc 5a 69 8b 3d 22 f1 0e 3d 1d b4 4a bd
       -0.020536533 0.068072036 0.03489793 -0.049488176
000090 49 c7 16 3d 90 23 66 bc 63 3d 93 3b 70 89 a5 3b
       0.036811147 -0.014046565 0.004493402 0.005051784
0000a0 d4 ba 69 bc 70 df c5 bc 7c 6b 89 3a 1b 0b 43 bd
       -0.014265735 -0.024154395 0.0010484303 -0.047618013
0000b0 02 18 8a 3d cf 66 ac bd 10 2a 2a 3d 45 5d b6 bc
       0.067428604 -0.08418047 0.04154402 -0.022261271
0000c0 ff 08 28 3d 2d d4 51 3d 59 f9 48 bd d4 1a 58 3d
       0.041024204 0.051227737 -0.04906592 0.05275996
0000d0 de 4a e4 bc 0c 06 c7 bc 19 87 4e 3c 95 7d b2 3c
       -0.02786773 -0.024294876 0.012605452 0.021788398
0000e0 38 54 96 bd 31 0a 9d bc 16 73 85 bd 29 ee 40 3d
       -0.07340282 -0.019169899 -0.065160915 0.047102127
0000f0 7a 1e 36 bb c2 75 c3 bd 76 31 21 3c 12 4b 35 3d
       -0.0027789162 -0.09543945 0.009838453 0.044261046
000100 0f 23 f7 3c 0d 75 b7 3c e5 16 13 bd f6 89 80 3d
       0.030168084 0.022394681 -0.035910506 0.06276314
000110 c6 5c 58 bd 4a 34 86 3c f9 c1 88 bd 3e 7a 15 3d
       -0.05282285 0.016382355 -0.06677622 0.036493532
000120 30 66 9c bd aa e0 47 3d c5 3c 87 3d bc c3 57 bd
       -0.07636678 0.04879824 0.06603388 -0.0526769
000130 5d 52 c2 bd 31 9e 8f bd 29 f5 0c bc 92 20 3b 3d
       -0.09488366 -0.070125945 -0.008603373 0.04568536
000140 e3 ca 54 3d 53 75 88 bc ba 5d 5d 3d f7 b3 95 bd
       0.0519513 -0.016657507 0.054044463 -0.07309716
000150 11 9b 4a bd 34 14 cd 3c 48 64 99 3c d2 53 ad 3c
       -0.04946429 0.025034048 0.018724576 0.021158133
000160 f2 09 d8 bd 6e f9 88 3c de 96 8d 3c 09 aa 6d bc
       -0.10548772 0.0167205 0.017283853 -0.014505872
000170 16 c1 22 bd c4 5a ea 3c 0f 08 63 3c db 2f dc bb
       -0.039734922 0.028607734 0.013856902 -0.006719572
000180 4c 6a ee bc 2b 2a 49 3b 6e 1f 0b 3d 37 41 4f bd
       -0.02910342 0.00306953 0.03396552 -0.050599303
000190 89 39 a8 3d c8 f7 9f bd 6d fa bd bd 56 a9 0c 3d
       0.08214099 -0.078109324 -0.092762806 0.03434118
0001a0 7f 19 03 bd bf 5b b9 bd 83 fa ce bd e1 d8 39 bc
       -0.032006737 -0.09050702 -0.10106375 -0.011343212
0001b0 47 6a 8f bc 3a 51 94 bd 79 40 84 3d 25 91 34 3d
       -0.017506732 -0.07242055 0.0645761 0.044083733
0001c0 2a 46 00 bd b4 fb 92 ba 7a e1 e3 bc 8c 20 c8 bc
       -0.031316914 -0.0011213929 -0.027817477 -0.024429582
0001d0 31 ec b4 bc 43 40 03 3d 7a 71 5d bd 3c 4a 95 3d
       -0.022085281 0.032043707 -0.054063298 0.0728955
0001e0 a6 23 ea 3c 3c e4 c7 bc 14 68 ca 3b f4 68 6c 3b
       0.028581452 -0.024400823 0.006176958 0.00360733
0001f0 12 09 95 3d 35 ff 44 3d 26 b9 0c bd f2 f9 94 bd
       0.07277121 0.048094947 -0.03435626 -0.07274236
000200 0f 71 ec 3d fe 5d d9 bd 04 96 b9 3e 4c ef b8 be
       0.11545002 -0.10613631 0.36247265 -0.3612007
000210 c2 52 cd 3e 27 0f 57 be 37 38 15 3f c3 a5 7d be
       0.40102202 -0.21001874 0.582889 -0.24770264
000220 24 ea 9a 3d 22 19 99 3e e8 45 46 bd db 99 6c 3e
       0.0756419 0.29901987 -0.04840651 0.23105566
000230 d1 22 ad 3e a8 53 49 3e 49 f1 8e bc 19 74 5e 3e
       0.33815625 0.19660819 -0.017449038 0.21723975
000240 de 90 67 bc 7d 0c 82 3d 92 e6 e2 bd 87 2c 17 3e
       -0.01413366 0.06350038 -0.11079134 0.1476308
000250 1e 70 9c 3e 1a 3a 4e bb 2a 35 c3 be 08 ca 59 bd
       0.3055429 -0.0031467737 -0.38126498 -0.053171188
000260 2c 7d b1 be 90 07 16 be c5 32 f3 bc a9 ad c3 be
       -0.3466581 -0.14651322 -0.029687295 -0.3821843
000270 24 6a 0f be 1f 4f f0 bb a5 f9 05 3e 80 bc 1b bf
       -0.14005333 -0.0073336507 0.13083513 -0.60834503
000280 c2 76 b7 3e 3e f0 34 3d 20 4b 76 be 76 8d 00 3d
       0.35832793 0.044174425 -0.24052095 0.031384908
000290 31 5c 45 be 2f d9 19 3d 5a c4 3c bd 5d 9c 30 3c
       -0.1927345 0.037560638 -0.046085693 0.010779467
0002a0 ca ff 82 bd 29 1a fa bd 15 2c f3 bd 24 71 c5 3e
       -0.06396444 -0.12212021 -0.11873642 0.38562882
0002b0 de 5a 0d 3e 25 3c 34 3e 1f 86 7b 3e fb 4d e3 3d
       0.13804194 0.17601068 0.24562882 0.11098858
0002c0 8b f6 d2 bc 21 30 c2 be f4 58 c1 be 43 8a bf bd
       -0.025752326 -0.37927344 -0.37763178 -0.09352543
0002d0 73 87 d8 3d 3b 99 ba 3e 55 40 d6 bd 2f 03 9f 3d
       0.1057271 0.3644503 -0.10461489 0.07764279
0002e0 80 f5 24 3e 69 53 ec 3d 73 e6 60 bd ea d0 01 bf
       0.16109276 0.11539347 -0.054907274 -0.507094
0002f0 8b 8f 67 3d ca 02 ce be 39 b2 9b bf 65 3d 21 3e
       0.056533378 -0.40236503 -1.2163764 0.15746076
000300 4f 94 c5 be 7b 9d 47 bd 25 11 01 bf 8d bf 61 3e
       -0.38589713 -0.04873417 -0.50416785 0.22045727
000310 8c 47 23 be a3 0b c4 3e 23 22 ae be 9b c6 de be
       -0.15945262 0.38290128 -0.3401042 -0.435109
000320 aa 60 15 bf f9 07 36 bd 2f 9d 73 bd 7c 18 1c bf
       -0.5835062 -0.044441197 -0.059476074 -0.6097486
000330 b7 7b 58 3e 33 f8 62 3d 25 3c aa 3c 28 d3 62 3e
       0.21140943 0.055412482 0.020780632 0.22150862
000340 fc 3c 02 bf 5f 78 8d 3d 6c ec 7f bf 6b 9d 57 bc
       -0.50874305 0.069077246 -0.99970126 -0.01316009
000350 ad a2 a4 bd 73 91 45 be 06 34 9f be 54 eb 03 be
       -0.080388404 -0.19293766 -0.31094378 -0.1288274
000360 8a 8c 8c be 31 37 cf 3d 74 c8 6c 3f e1 73 c2 3d
       -0.27450973 0.10117949 0.9249337 0.094947584
000370 5e 15 a0 be ca f2 c8 bd 3d 44 91 3e da f5 3c 3e
       -0.31266302 -0.09811933 0.28372374 0.1845316
000380 c1 3c 8b 3d 77 6b c6 3d b8 b6 d7 3d c0 b8 59 be
       0.06798697 0.09688466 0.10532898 -0.21261883
000390 01 cf 2a be 4c ed 26 be ad 44 37 3d 3b e2 78 bf
       -0.16680528 -0.16301459 0.04474323 -0.972202
0003a0 44 41 8e bc ca ba ce bd 3e 0a 35 3c 37 4f 30 3e
       -0.017365105 -0.10094221 0.011049805 0.17217718
0003b0 c4 8c 89 3e 3f f3 0a 3f fd b5 8c bf 09 cd 74 3e
       0.26865208 0.54277414 -1.0993038 0.2390634
0003c0 81 75 a5 3e fe f1 79 bf 1e d2 d2 bd 0e 8f 9c be
       0.3231621 -0.97634876 -0.10293983 -0.30577892
0003d0 9f df 03 3e 36 2f bf 3b f8 1c d2 3d 56 03 2b 3e
       0.12878273 0.0058344854 0.102594316 0.16700491
0003e0 6f 70 6d 3d 39 39 ab be 53 f9 d7 3c 65 c5 e2 bc
       0.057968553 -0.33442095 0.026364004 -0.027682016
0003f0 76 c8 8e 3e bc 99 e2 3e e2 a4 27 3d b9 dd be 3d
       0.27887315 0.44257915 0.04092873 0.09319634

network.2.bias f4 [128]
000000 0e 16 da b9 55 90 10 3d 4a 6a 8d bd 1b 4a cd bd
       -0.00041596632 0.035293896 -0.06905039 -0.100239
000010 81 f6 aa 3e 28 fd c5 bd fc 64 ed bc 3c 2c b2 3e
       0.33391193 -0.09667426 -0.028978817 0.34799373
000020 8b b0 80 bb e8 42 c4 bc 73 50 bc 3d e6 c0 19 3d
       -0.0039272956 -0.023957685 0.09195032 0.037537478
000030 30 21 2e 3d 03 96 9d 3c ec f0 ab bd 30 c9 29 3e
       0.04251212 0.01923657 -0.083955616 0.16580653
000040 49 c4 8d 3e c3 02 5a bd e1 cd 4b bc 18 5b d7 bd
       0.27688816 -0.05322529 -0.012439222 -0.10515422
000050 b3 8c 11 be 05 28 1b 3e 73 84 01 3e 30 f6 8b bd
       -0.14213829 0.15151985 0.12648182 -0.06834066
000060 5a 46 49 bd 51 1b 62 3d 0a 90 0b 3e 45 85 60 3c
       -0.049139358 0.055201832 0.13629165 0.013703649
000070 3d f2 b3 3b 05 83 20 be 78 7e 9f bd 8c f6 b5 3c
       0.0054915235 -0.1567498 -0.07787794 0.02221229
000080 46 f8 4f 3d 0e 1c e2 bb 2b 56 80 3d 5b e0 17 be
       0.05077388 -0.006900317 0.06266435 -0.14831679
000090 28 79 9f 3e fc d5 c3 3e 99 68 90 bd c9 1d d6 bc
       0.31147122 0.38249195 -0.070512004 -0.02613725
0000a0 b8 d0 e1 bc 8c 12 26 bd 10 b5 0c be 3c 2b 72 3d
       -0.027565345 -0.04054503 -0.13740945 0.059123263
0000b0 d7 93 af 3e e5 84 61 3d 3e e9 0f bd c1 cb 08 3e
       0.3429248 0.05505838 -0.035134546 0.13358976
0000c0 d7 77 93 3e e2 e5 b9 bd 50 a2 41 bd 53 88 89 bd
       0.28802368 -0.0907705 -0.047273934 -0.06715455
0000d0 e4 60 86 3d c5 2f 4b 3e 33 0a 03 bd 8d 13 da bd
       0.06561449 0.19842441 -0.03199215 -0.1064826
0000e0 a3 c4 1c 3d 6e 65 b1 bd 60 c7 40 bd e2 bc 83 3d
       0.038273465 -0.08661924 -0.04706514 0.06432511
0000f0 32 e6 74 3d e5 83 d2 3e df 8a 60 3d fd c7 8b bc
       0.059789844 0.41116253 0.054819938 -0.017063135
000100 55 e4 3e 3d a0 98 8e 3d 0a 5e 21 bd b1 6b a7 bd
       0.046604473 0.06962705 -0.039396323 -0.081748374
000110 0a d7 b0 bd 9f a3 74 3e 89 e8 8a be 96 25 76 bd
       -0.086347654 0.23890541 -0.27130535 -0.06009444
000120 26 5c 19 be cc 2b a3 bd d1 4d bc bc a1 91 22 bd
       -0.14976558 -0.07967338 -0.022986325 -0.039689664
000130 9f 73 a4 3b 28 7a 07 be 36 f7 4e be cd 09 6b bd
       0.005018666 -0.13230193 -0.20211491 -0.057382394
000140 cb d4 92 bb a0 31 9d 3c 35 ea 8b bd 43 77 49 bd
       -0.0044809333 0.019188702 -0.06831781 -0.049186002
000150 e9 78 44 bd 19 ad 09 3c 12 8c 66 3d b2 c6 84 3d
       -0.04796687 0.008403086 0.056285925 0.064832106
000160 74 f4 4f 3d fd 7e 28 bd 58 82 bf bc bd 77 b1 bd
       0.050770238 -0.04113673 -0.023377582 -0.086654164
000170 03 e5 0e bd 52 bb 1c bb 2e 04 97 3e 2a 6f 63 3e
       -0.03488637 -0.0023915363 0.29495376 0.22210374
000180 06 3c 84 3c 63 57 95 bd 03 22 c9 bb 58 5d 90 3d
       0.016141903 -0.07292058 -0.0061380877 0.07049054
000190 d4 60 e3 3c 40 fa 76 bd 69 45 d9 bd 24 e1 6f bc
       0.027756132 -0.06029725 -0.10608942 -0.01464108
0001a0 de 47 25 3e c9 a2 2b be c3 5e b5 3e b7 29 82 bd
       0.16140696 -0.16761316 0.3542386 -0.06355613
0001b0 f8 04 d7 bb 43 1b 93 3d 4b 94 c8 bc 0c 7d c5 3c
       -0.0065618716 0.07182934 -0.024484774 0.024107479
0001c0 ac c7 3d bc 54 50 45 be 75 1c 3f 3c a7 b3 f1 bd
       -0.01158325 -0.19268924 0.0116644995 -0.11801844
0001d0 61 e0 b3 3e f8 ca fd bc b2 0a 04 be c3 ee 31 3c
       0.35132125 -0.030980572 -0.12894705 0.010860148
0001e0 b2 19 56 bc 53 09 6c be 47 56 71 be 81 e2 0f 3d
       -0.01306765 -0.23050432 -0.23568068 0.03512812
0001f0 ae 65 ed bd 95 b6 9d 3d f4 15 5f bd a9 6d 01 be
       -0.115916595 0.077008404 -0.054464296 -0.12639488

network.4.weight f4 [3, 128]
000000 41 79 2c bd fb 3a 9b bd a8 6a 29 be a6 8f 89 be
       -0.042107824 -0.07579609 -0.16544592 -0.26867408
000010 9b 95 b1 3e 61 85 6c bf b1 e0 84 bd 69 b6 c9 3e
       0.34684452 -0.9239102 -0.06488169 0.3939698
000020 07 82 24 bd 7b 1e b6 bc 90 48 a5 3e 33 1c 3f bd
       -0.040163066 -0.022231331 0.32281923 -0.046657752
000030 24 4d aa 3c b8 cb 4d 3c 62 bc b4 bc b2 e6 d5 3e
       0.020788737 0.012560777 -0.022062484 0.4177757
000040 62 dc e1 3e 53 38 48 bd 0b 18 bd be 8f 37 4c 3b
       0.4411345 -0.04888184 -0.36932406 0.0031161045
000050 ff 9f 3f be c6 99 af 3e 1f 03 fb 3e 7b d2 a8 bd
       -0.18713377 0.34297007 0.4902582 -0.08243271
000060 54 be 38 bd 1b d9 4e 3d 2b c3 f6 3e 96 a7 15 bd
       -0.045103386 0.050500017 0.48195776 -0.036536776
000070 37 c1 ad 3c 24 b8 8c 3d 5b 2a 36 bc a6 e8 93 3e
       0.021210296 0.068710595 -0.011118497 0.28888434
000080 03 4f 91 bd 18 a2 98 bd 8f d7 65 3d 72 74 a6 3d
       -0.070951484 -0.07452792 0.056113776 0.08127679
000090 ca fe bb 3e e9 8d dd 3e 02 4d 55 bc e7 f1 e2 bc
       0.36717826 0.4327233 -0.013018848 -0.027703239
0000a0 60 c1 b0 3c 14 6d 17 bf dd 71 ed 3c bd 65 b5 3e
       0.021576583 -0.59150815 0.028984958 0.35429183
0000b0 15 ca b7 3e 49 32 96 3b de 5a c3 3e 20 73 3a be
       0.35896364 0.004583631 0.38155264 -0.18207979
0000c0 fa dc c4 3e c5 3d 01 bf 35 91 61 bf 32 1f a3 3d
       0.38449842 -0.5048488 -0.88112193 0.079649344
0000d0 e9 9d 06 bd 77 3b 63 3e d4 80 e8 3c 7d 5e 09 bf
       -0.03286544 0.22190653 0.028381743 -0.536598
0000e0 e2 22 22 3e 2e c7 1a bd 5a fe 69 bd 32 8b 66 3c
       0.15833619 -0.03778761 -0.057127334 0.014071273
0000f0 d4 db 91 bd a3 00 e6 3e 9c f1 f0 bc ab ba 84 3e
       -0.07122007 0.4492236 -0.029412083 0.25923666
000100 4b 89 5c bd 1c 11 97 3e 2f 95 23 bd e9 f2 af 3d
       -0.05384187 0.2950524 -0.039937194 0.08591253
000110 32 0d 06 bd cc 70 df 3e 7a 33 89 be 10 d5 99 bd
       -0.032727428 0.43640745 -0.26797086 -0.075113416
000120 c7 e6 e7 be 64 4f 2c be ba d8 69 bf 0b ed d1 bc
       -0.45293257 -0.1682716 -0.91346323 -0.025625726
000130 86 b3 8a bd 88 8f 8a be 0a 12 73 3d a4 c8 76 3e
       -0.06772523 -0.2706263 0.059343375 0.24099976
000140 a8 d0 ad 3d fc d2 51 bc 3c 54 19 bf b8 8c 41 bd
       0.08487064 -0.01280665 -0.59894156 -0.04725334
000150 da 85 2d bc 64 ff 76 3e ee 10 81 3d 63 b0 4d 3c
       -0.010590995 0.24120861 0.06302057 0.012554261
000160 c8 d6 0c bf 83 60 5c bd 3d 37 68 bd c9 cd f1 bc
       -0.5501523 -0.05380298 -0.056693304 -0.029517071
000170 26 85 88 be a9 80 17 be 9b 43 01 3f a9 83 e7 3e
       -0.26664084 -0.14795174 0.5049378 0.45217636
000180 bc ac 86 bd c7 13 97 bd 73 aa 28 bd 78 d3 ea bc
       -0.06575915 -0.07376819 -0.041178178 -0.02866529
000190 b0 75 10 bf 07 d0 65 bd c6 bd 66 bf 17 02 0b bf
       -0.56429577 -0.056106593 -0.9013332 -0.54300064
0001a0 71 77 e5 3e 49 5b 8e be 36 dc d3 3e 56 9a 48 3c
       0.4481769 -0.2780402 0.41378945 0.012243828
0001b0 3b e4 10 bf b2 77 f2 3b d3 e0 47 bd 20 15 d4 3e
       -0.5659825 0.0073995227 -0.048798393 0.41422367
0001c0 2e e3 b9 3c 89 85 46 bd e2 d6 ac 3d 19 14 8c bd
       0.022691336 -0.048467193 0.08439423 -0.06839771
0001d0 b0 8e bd 3e 66 2c eb 3d 0e 7d 8f bc 88 50 23 bd
       0.37022924 0.11483078 -0.017515685 -0.039871722
0001e0 56 49 1c bd e7 52 2e be e9 f7 8c be 42 e9 84 bd
       -0.038155876 -0.17023812 -0.2753289 -0.06489803
0001f0 4d 18 e0 be cd b7 ef 3e 18 ba fc bc b5 aa ef 3c
       -0.4376854 0.46819916 -0.030850455 0.029256204
000200 77 15 84 3d 16 bd 35 be 72 d4 0c be a9 15 51 bf
       0.064494066 -0.17747912 -0.13752916 -0.81673676
000210 d2 c8 f3 3e 02 98 50 bd be 05 47 3d cc ce a3 3e
       0.4761415 -0.050926216 0.04858946 0.3199371
000220 01 cf e2 bc c8 d5 96 3d 56 3a da 3d a8 f8 9f bd
       -0.027686598 0.07364994 0.10655658 -0.07811099
000230 f3 b5 37 bd 50 b0 5c 3d 9f b5 6f 3d fa 39 d7 3e
       -0.044851255 0.053879082 0.058522817 0.4203642
000240 64 ad 8e 3e b6 da 64 3d 17 47 86 be 43 88 1c be
       0.27866662 0.05587264 -0.26226112 -0.15286355
000250 7c 91 5e be 7f 97 c4 3e a3 ca 99 3e d0 5d 91 3c
       -0.21735185 0.38396832 0.30037412 0.017744929
000260 ef dc 92 bd 7b 25 3e bd b8 71 aa 3e 3d 19 af 3c
       -0.07171046 -0.046422463 0.33289886 0.02137434
000270 3d 94 35 3d 4f ae 02 bf 73 4f 10 3d de d3 9b 3e
       0.044330824 -0.51047224 0.03523202 0.3043508
000280 8b ef d8 bc 6b 2f 46 3c 5b ad 1d bd f4 36 67 be
       -0.02648141 0.012096266 -0.038495403 -0.22579557
000290 82 82 17 3f 94 0b fc 3e bf e0 04 3d 8b f7 57 3c
       0.59183514 0.49227583 0.032440897 0.013181577
0002a0 a5 2a 03 3d 49 5b 1b bf e1 f9 3c bf 67 85 8f 3e
       0.03202309 -0.60686165 -0.73818785 0.28031465
0002b0 28 94 8e 3e 33 cc 2b 3d 6a 46 70 3e 48 f7 95 bf
       0.2784741 0.041942786 0.23464361 -1.1716089
0002c0 42 6f 0c 3f 24 f6 03 bf af 52 3a be 5f 53 57 3d
       0.54857266 -0.51547456 -0.18195604 0.052569743
0002d0 1a 1c fb 3c 06 b2 db 3e 3c 5a d1 bd ac 1f 02 bf
       0.030653048 0.4290926 -0.10222289 -0.5082958
0002e0 3c 6e a6 3d 26 c0 1d bd 5d e7 88 3d e2 a9 a8 3c
       0.08126494 -0.038513325 0.06684754 0.020588819
0002f0 30 2d 7f 3d b6 77 f3 3e a0 67 1b 3d 0a 0d f0 bd
       0.062298954 0.4755227 0.03794062 -0.11721237
000300 4c 9d 40 3d 98 0b 5c 3e de 2e 12 bc be 89 a6 3d
       0.04702501 0.21488798 -0.008922307 0.08131741
000310 d4 14 17 3d 05 15 ec 3e e0 f2 d5 be 29 50 bf 3c
       0.036885098 0.46109787 -0.4178686 0.023353653
000320 82 6f 03 bf 63 42 04 be c0 04 1a bf d1 c1 ac bb
       -0.5134202 -0.1291595 -0.601635 -0.005272128
000330 14 57 35 3d 0b 5f 44 bf ca 58 00 be 03 2e ff be
       0.044272497 -0.76707524 -0.1253387 -0.49839792
000340 7e 7b 81 3c c4 f6 88 3d 48 06 0d bf bf e6 46 3d
       0.015805956 0.06687692 -0.5508771 0.0485599
000350 07 b1 14 3d 66 95 89 3e ca a9 56 3d aa c7 b5 3b
       0.03630164 0.26871794 0.052408017 0.0055474835
000360 ea fa e8 be 85 94 45 bd a0 cb 0d 3d 52 f7 d8 bc
       -0.45503932 -0.048237342 0.03461802 -0.026485119
000370 af ba c9 be 45 47 13 bf bf 7b 0f 3f 1c d8 80 3e
       -0.3940024 -0.57530624 0.56048197 0.25164878
000380 7e a3 8c 3d e1 b1 7a 3d 0c 5c 37 3c 40 f6 ad 3c
       0.06867121 0.061204795 0.011191379 0.021235585
000390 6c 44 bb be 02 95 34 bd a2 ab fe be b3 fc 17 bf
       -0.3657564 -0.044087417 -0.4974032 -0.59369963
0003a0 d8 78 f8 3e 78 17 b3 be 4e de e8 3e c7 2e 5d bd
       0.48529696 -0.34978843 0.45482105 -0.05399969
0003b0 3e 95 98 bc df 10 26 3d 10 f8 1e bd 74 f4 88 3e
       -0.018625852 0.040543433 -0.03881079 0.26749003
0003c0 59 a2 82 3b f2 51 cc be 2a 4e 8a 3d b9 64 16 bf
       0.0039866385 -0.3990627 0.0675319 -0.5874744
0003d0 15 b8 92 3e b1 65 34 bf b3 22 1c bf 39 13 fb 3d
       0.28656068 -0.7046767 -0.60990447 0.12259526
0003e0 3b 2f 95 3c 97 bc dd be ae f9 3a bf 8b 1e 91 bb
       0.018210998 -0.43307945 -0.7303723 -0.00442869
0003f0 89 1d e2 be 76 56 0b 3d 75 1d 57 3b 8d 30 f6 bd
       -0.4416316 0.034018002 0.0032823954 -0.12020979

network.4.bias f4 [3]
000000 b3 19 fc bc 92 fe 52 3e 50 f2 e6 3d
       -0.030773973 0.20604923 0.11276686

network.0.weight f4 [128, 8]
000000 97 65 8c 3e 87 57 8e 3e da cc df 3e dd fc 74 3e
       0.27421257 0.27801153 0.43710977 0.23924585
000010 35 0d 18 be 16 a7 87 3e 38 05 37 3e db 12 9e 3e
       -0.14848788 0.26494664 0.17873085 0.3087376
000020 3c 29 ab be f5 5b d6 3e 83 05 81 3e 2d 51 0e 3d
       -0.33429897 0.41867033 0.25199518 0.034745384
000030 40 70 fc 3e 39 d5 cd be 63 44 96 3e 48 0d 1f be
       0.4930439 -0.40201738 0.2934905 -0.1553241
000040 c7 8a dd be 72 6b e9 3e e6 90 1d bd 80 d6 75 be
       -0.4326994 0.45589787 -0.038468264 -0.24007607
000050 44 f3 16 3e af 1c e2 3e a5 b7 ef 3e 1a 16 06 3f
       0.14741236 0.4416251 0.46819797 0.52377474
000060 62 f6 93 3e 5d 4f 5f bf c5 b1 b3 3e 8f 3b 44 3d
       0.28898913 -0.87230474 0.35096565 0.047908362
000070 32 11 b3 3d 2b 0a 1e bf 6f ff fe 3e 36 d7 38 bf
       0.08743514 -0.61734265 0.49804255 -0.72203386
000080 0b a1 d8 be 35 3b 01 3f 93 c0 dc bc bd 0f 02 3f
       -0.42310366 0.5048097 -0.026947295 0.50805265
000090 f7 cb c9 3b 59 0c 02 3f 75 81 e0 3e 93 f6 06 3e
       0.0061583477 0.5080009 0.43848768 0.13179998
0000a0 ce 58 95 3e 74 c5 41 bd d0 35 ba 3e 1c f7 59 3e
       0.29169315 -0.047307447 0.3636918 0.21285671
0000b0 be eb 6b bc de 99 61 bd 4d 93 0e be 89 75 ab be
       -0.014399467 -0.05507838 -0.13923378 -0.3348811
0000c0 4e c5 28 be 5a b4 1c 3e af 45 2b 3e c0 28 a8 be
       -0.16481516 0.15303174 0.16725801 -0.3284359
0000d0 53 b1 6b 3e a3 e4 b6 3e 34 25 b5 3e f1 dd 20 3f
       0.23016863 0.3572131 0.35379946 0.62838656
0000e0 c9 b0 49 3e 81 4e 20 3f cc 67 b1 be 8b c4 d4 be
       0.19696344 0.6261979 -0.34649503 -0.415562
0000f0 ad 42 81 be f1 64 57 be 24 3b 10 3f 3e 53 72 bc
       -0.25246182 -0.210346 0.5634024 -0.014790354
000100 6a da f6 be 53 9b 5e 3e 2e 92 97 be 4b 15 e4 bd
       -0.48213512 0.21738939 -0.29603714 -0.11136874
000110 7f 0b de 3e bd d0 9c 3e 1c a4 8a 3e fe 05 d3 3e
       0.43368146 0.30628005 0.2707833 0.4121551
000120 45 44 8d 3e 27 f5 d7 be 3a 7c d5 3e 67 45 d6 3e
       0.27591148 -0.42179224 0.4169634 0.41849825
000130 d3 5b a5 3d 0f 9d 50 bd 28 88 18 bf a0 a0 e7 3e
       0.08074155 -0.050931033 -0.5958276 0.45239735
000140 ef 07 86 3b 33 f8 55 3e 3d 12 03 3f a0 72 f0 3e
       0.004090301 0.20895462 0.51199704 0.46962452
000150 fc d9 95 3e 10 68 f8 3e 9b e6 77 bc 09 79 96 be
       0.2926787 0.48516893 -0.015130664 -0.29389217
000160 89 ec d9 be 16 05 e8 3e ad c2 b5 3d 20 15 c7 be
       -0.42563275 0.4531638 0.08875022 -0.38883305
000170 e1 ef 0b 3e 8d b0 ea 3e 9d 21 c4 3e f0 05 c9 3e
       0.13665725 0.45837823 0.38306895 0.39262342
000180 89 5b 7e 3e f1 ad da be 1c 42 fb be ec ae 10 3f
       0.24839605 -0.42710832 -0.49073875 0.5651691
000190 f3 a1 25 3d 9a 70 bb be 98 c5 9b 3b 8f de b6 3e
       0.04043765 -0.36609346 0.0047537796 0.35716674
0001a0 10 d5 84 be f4 d2 d1 3e fa 4e 0e 3e 18 6c 2b 3f
       -0.25943804 0.40981257 0.13897315 0.6696181
0001b0 ce 87 c6 be f1 07 8b 3e fc 26 53 3e 7f b1 fc 3e
       -0.38775486 0.27154496 0.2062034 0.4935417
0001c0 aa 82 b0 3d 0a d6 e7 3e 0c f9 06 3f 50 69 23 3f
       0.08618672 0.45280486 0.52723765 0.6383257
0001d0 8f 62 37 bf d9 ba 87 bd 14 1e ae bc 78 51 ac bd
       -0.71634763 -0.06627435 -0.021254577 -0.084139764
0001e0 24 49 11 3f 40 b1 39 3d f8 ce 6f 3e e6 f4 6c be
       0.5675223 0.045335054 0.23418796 -0.23140296
0001f0 03 d6 00 3f f7 4c ba 3c 89 2b d5 bd 7f df 92 bc
       0.50326556 0.022741778 -0.10408694 -0.017928837
000200 68 e0 e1 3e e0 e2 9a 3e e3 1f f2 3e b1 74 97 3e
       0.4411652 0.30251217 0.47289953 0.29581216
000210 7f 45 df be 84 b3 dc 3e eb ed 7e be fc 05 bd be
       -0.4360771 0.4310571 -0.24895446 -0.36918628
000220 27 2e 2e 3e 6e ba 72 3e dc f0 cb 3e 77 14 29 3f
       0.17009793 0.2370393 0.398322 0.6604685
000230 e1 88 b1 3e 51 62 03 3e 23 de 38 be e5 ef 4a 3e
       0.34674743 0.12830473 -0.18053488 0.19818075
000240 ae c0 bc be ea 26 0a 3f 56 42 e8 bb d6 36 2a 3f
       -0.36865753 0.5396563 -0.007087986 0.66489923
000250 24 65 63 bd 8d ed 1a bf 47 28 7f bd ec ef c5 be
       -0.055516377 -0.60518724 -0.06229427 -0.38659608
000260 ed 41 4e 3e 1f 81 d5 3c 58 b1 bf 3e ec eb 3e be
       0.20142336 0.026062546 0.3743999 -0.18644685
000270 92 de 8b bf b3 78 45 be 85 8e a0 3e ef 04 fb 3c
       -1.0927298 -0.19284324 0.31358734 0.030642001
000280 5c ce 6e 3e 01 d1 90 be eb 4d 70 3e 65 d9 77 3e
       0.23320907 -0.28284457 0.23467223 0.24204023
000290 f5 a2 12 3e d9 c4 8d 3c 54 5b ca be 9b 1c 10 3f
       0.14319976 0.017305778 -0.39522803 0.5629365
0002a0 a9 0d 8f be fa 11 d5 3d 29 4f a4 3e 21 dc 84 bd
       -0.2794011 0.104038194 0.32091644 -0.06487299
0002b0 0e 14 f5 bf e9 e6 2f bd 74 1d 0a 3e 36 16 2a bd
       -1.9146745 -0.042944822 0.13487798 -0.04152509
0002c0 ee 4e 47 3e 99 8b 82 be 40 a1 ed 3e bd d2 01 3f
       0.19463703 -0.2549713 0.46412086 0.50712186
0002d0 fc cb 89 3e 24 f4 db 3e f5 bf 02 3f f5 2f a4 be
       0.2691344 0.42959702 0.51074153 -0.32067838
0002e0 4d ee 03 3f 2e d4 63 bc c0 57 c2 3d 52 64 6d be
       0.51535493 -0.013905568 0.09489393 -0.231828
0002f0 ed 30 02 3f 23 94 74 bd f0 3b 4f be cb aa bd 3d
       0.50855905 -0.059711587 -0.20237708 0.09261092
000300 d5 de af bd d1 e8 c6 3e 35 e4 81 3e fc d8 cf be
       -0.08587424 0.388495 0.2536942 -0.40595233
000310 2b 06 da 3e 86 2f ac 3e fd 18 86 be bc 5f 89 be
       0.4258283 0.33630008 -0.2619094 -0.26830852
000320 19 80 91 be 0d b1 46 3d 12 70 fa 3d 64 a0 9b be
       -0.28418043 0.048508693 0.12228407 -0.30395806
000330 16 72 3f 3e 4d 88 8f 3e 8b 72 48 3e 2b 0d 94 3d
       0.18695864 0.28033677 0.19574945 0.07229074
000340 ab b9 f8 3d 33 77 98 3e db 2c f6 3d 5d 43 53 3e
       0.12144788 0.29778442 0.12020274 0.20631166
000350 ab 0b 76 3e f1 ef 27 be 52 62 06 be 9c 41 12 3d
       0.24027888 -0.16400124 -0.13123444 0.0357071
000360 8c 60 c7 3e 67 df 6d be 79 01 92 3e 69 4e 46 3e
       0.38940847 -0.23229752 0.2851675 0.19365849
000370 42 59 60 bf 18 6a 95 be 5f 44 8d 3e df db 64 be
       -0.87636197 -0.29182506 0.27591226 -0.22349499
000380 ba 33 1f 3f 58 c6 e1 bd 21 15 78 be 2e bf f8 bd
       0.62188303 -0.11024159 -0.2422681 -0.1214584
000390 3b e0 bd bd e4 7f d7 3c b6 59 14 bd 99 14 2e bd
       -0.09271284 0.0263061 -0.036218368 -0.042500112
0003a0 de 43 ab 3e fe 04 4d ba 7b 4e 82 be 72 91 30 bf
       0.33450216 -0.0007820873 -0.254505 -0.6897193
0003b0 87 3c a4 3e b5 34 0c bf 65 bc 82 bf 97 7e 7d 3e
       0.3207743 -0.54767925 -1.0213743 0.24755321
0003c0 16 75 24 3f 39 2c ca be dd 66 de 3e fa 0d ae be
       0.6424116 -0.39486864 0.43437853 -0.33995038
0003d0 2a 21 3f be 22 d0 a1 3d 76 c5 ac be 68 e9 85 be
       -0.18664995 0.07901026 -0.337444 -0.26154637
0003e0 37 a5 b7 3e 0c e4 b7 be ed d9 c6 3e 6c 6a 9f 3b
       0.35868236 -0.35916173 0.3883814 0.0048649814
0003f0 d7 e4 0d 3f a3 81 4f 3e 8b 75 5d 3e 6c 1f dd bd
       0.55427307 0.20264296 0.2162687 -0.10797009

network.0.bias f4 [128]
000000 17 ef be 3e 57 87 d4 3e 64 c4 96 be f7 08 e0 bd
       0.37291786 0.41509506 -0.2944671 -0.1093921
000010 18 f8 94 bd c3 4d 19 3f bf dc aa be bd 8f d3 3e
       -0.07273883 0.5988428 -0.3337154 0.413206
000020 67 3e b5 3d f7 fc 73 3e e9 1b 06 3f e6 d7 8b be
       0.08849793 0.23826967 0.5238634 -0.27313155
000030 6f 6e 34 3d 05 ed 8e 3e da ff a3 3d 00 dd c8 be
       0.04405063 0.27915207 0.08007784 -0.3923111
000040 d3 20 88 be 09 a3 f6 3d 7c 9d c5 3e d5 6e d9 bc
       -0.26587543 0.12042815 0.38596714 -0.026542107
000050 6f 6e 5a 3e 51 94 b5 3d d5 94 d7 bd 22 d5 2c be
       0.2133119 0.0886618 -0.10526434 -0.16878179
000060 a0 dc 73 3e 8a 59 fa 3e 66 c5 11 3f d7 44 77 bd
       0.2381463 0.48896438 0.5694183 -0.060368385
000070 7c 16 40 3e 47 55 06 3e 0a 1c 6c 3e fe 8f 91 be
       0.18758577 0.13118468 0.23057571 -0.2843017
000080 44 59 e5 bd f2 b9 90 3d 41 4a cc be f4 04 94 3e
       -0.11198667 0.07066716 -0.399004 0.2891003
000090 5b 43 5d 3e d8 74 e7 bd d6 a4 8a be c5 81 a3 be
       0.21607725 -0.11301583 -0.27078885 -0.31934944
0000a0 4f 62 30 3f a0 27 8a bd c1 ea c3 3d 45 0a 8a 3d
       0.68900007 -0.06745839 0.0956626 0.0674024
0000b0 ca 71 12 be 9d 4e cb 3e 78 90 d8 3e 89 88 31 3e
       -0.1430122 0.39708415 0.4229772 0.1733724
0000c0 5d d5 83 3d b0 4b de 3d ec 7f b2 be 3b a0 ce 3d
       0.0643718 0.1085428 -0.34863222 0.10089155
0000d0 ac 60 ac 3e 1b 3d 00 3f df e5 2a 3f 9e f3 e9 3e
       0.33667505 0.5009324 0.66757005 0.45693678
0000e0 7a fa 24 bd f9 d3 0e 3f a5 66 06 3f ad c9 26 be
       -0.040277936 0.55792195 0.52500373 -0.1628787
0000f0 52 ce 09 3f 72 a2 3c bc f3 7b ed 3c e3 bd 28 bd
       0.53830445 -0.011513339 0.028989768 -0.041196715
000100 18 18 6d 3e f5 80 22 3f 23 3e aa 3e 51 f3 e1 3e
       0.23153722 0.6347802 0.33250532 0.44130948
000110 ea 86 dc bb 3e c5 a3 3e 01 79 0e be b4 c4 50 be
       -0.00672995 0.3198642 -0.13913347 -0.20387536
000120 d7 f8 b6 3e 88 83 b0 be b4 ec f2 3d 83 a9 16 3e
       0.35736725 -0.3447535 0.11861554 0.14713101
000130 6c 22 9a be 5b eb 60 be e9 89 0f 3f b3 e4 7e 3d
       -0.30104387 -0.21964781 0.5606981 0.062229823
000140 8b 64 8f 3e 5f 90 b2 3e c8 ce 7d be 35 9c 92 3e
       0.28006396 0.3487577 -0.24785912 0.28634802
000150 90 24 61 3e 56 96 e2 3d ec df 49 be 5c 00 be bd
       0.21986604 0.110638306 -0.19714326 -0.09277412
000160 53 42 03 3f d8 bf c3 3e 6d d4 d8 be 21 b7 7b 3d
       0.5127308 0.38232303 -0.42349568 0.061453942
000170 75 78 d7 3e f5 06 ad be 13 aa 3f 3e 70 1e d4 3c
       0.4208409 -0.3379437 0.18717222 0.02589342
000180 20 ba a2 be 1a 05 9a 3e e4 a7 d5 3d af 32 be 3e
       -0.31782627 0.30082017 0.10432413 0.37148044
000190 1f 9e 9e bc 1f 92 b8 3e 7b da 83 3e 70 08 c6 be
       -0.019362507 0.36048982 0.25752625 -0.38678312
0001a0 bb ca ca 3e 82 cc 2d 3c e6 42 07 3f 40 5f 0c be
       0.39607796 0.0106078405 0.52836454 -0.1370821
0001b0 f4 49 38 bd cc 3b aa 3d af b5 7f 3e 67 19 9d 3e
       -0.044992402 0.083121866 0.2497165 0.30683443
0001c0 9c 34 7e 3d 31 4f cb bd 7e ef a2 3e 92 e8 2d bd
       0.06206189 -0.09927214 0.31823343 -0.042458124
0001d0 42 26 ad 3e d6 6f cb bd 42 ed 81 3e e2 bb c5 3d
       0.3381825 -0.099334404 0.25376326 0.096549764
0001e0 fa 64 3b 3e 9d 7d a3 be 83 69 28 bd ad 83 16 3f
       0.18300238 -0.31931773 -0.04111625 0.5879467
0001f0 35 fc 98 3d 40 ea 5f 3e 73 04 24 3f 37 65 af be
       0.0746998 0.21866703 0.6406929 -0.34256908

network.2.weight f4 [128, 128]
000000 4e ed 20 3d 26 f6 21 3d 9a a1 10 3d dc 43 7e bd
       0.03928881 0.039541386 0.035310365 -0.062076434
000010 62 fb d2 bc 5f cb 28 bc 6a 0a 2b bd 1f 5f a0 bc
       -0.025754634 -0.010302394 -0.04175798 -0.019576607
000020 38 50 bf bd 42 c3 5f bd 97 e2 a4 bd 96 b4 48 bc
       -0.093414724 -0.05462957 -0.08051031 -0.012250086
000030 c3 33 79 3d 20 ad 45 3d 0e 60 91 bd 45 ae 88 bd
       0.06084038 0.048260808 -0.07098399 -0.06673864
000040 a5 42 8f bd 3b 60 ff 3b 2c b9 72 bd 9c 9e 8b 3c
       -0.06995133 0.007793454 -0.059258625 0.017043404
000050 6f 0f b9 3c 09 7c 52 3c 30 ac bb bd d1 66 98 bd
       0.022590367 0.012846955 -0.091637015 -0.07441486
000060 e6 56 15 bd c1 2b 40 ba 3b 18 72 3d d1 21 44 bd
       -0.036459826 -0.00073307386 0.05910514 -0.047883812
000070 40 30 b9 bc 6f ea 47 3d 45 e5 9c 3d c8 a8 3d bd
       -0.022606015 0.048807558 0.07660917 -0.04630354
000080 9f 3b a8 bc 7c 69 8b 3d 64 f1 0e 3d d9 b3 4a bd
       -0.020536242 0.06807229 0.034898177 -0.049487922
000090 a5 c7 16 3d 4b 23 66 bc 66 3d 93 3b 70 89 a5 3b
       0.03681149 -0.0140465 0.0044934032 0.005051784
0000a0 d3 ba 69 bc 21 df c5 bc 1c 6c 89 3a e9 0a 43 bd
       -0.014265734 -0.024154248 0.001048449 -0.047617827
0000b0 c4 18 8a 3d cf 66 ac bd 26 2a 2a 3d d0 5c b6 bc
       0.06743005 -0.08418047 0.041544102 -0.022261053
0000c0 9e 09 28 3d d9 d4 51 3d e1 f8 48 bd 19 1b 58 3d
       0.041024797 0.051228378 -0.049065474 0.052760217
0000d0 a3 4a e4 bc 0c 06 c7 bc 88 87 4e 3c 2f 7e b2 3c
       -0.02786762 -0.024294876 0.012605555 0.021788685
0000e0 06 54 96 bd fe 09 9d bc ed 72 85 bd 48 ee 40 3d
       -0.07340245 -0.019169804 -0.06516061 0.047102243
0000f0 50 1e 36 bb 29 75 c3 bd 0e 32 21 3c 5f 4b 35 3d
       -0.0027789064 -0.09543831 0.009838594 0.044261333
000100 a3 23 f7 3c 47 75 b7 3c 56 16 13 bd 7a 8a 80 3d
       0.03016836 0.02239479 -0.035909973 0.06276412
000110 ba 5c 58 bd ac 34 86 3c cd c1 88 bd d5 7a 15 3d
       -0.052822806 0.016382538 -0.066775896 0.036494095
000120 30 66 9c bd aa e0 47 3d 84 3d 87 3d 9a c3 57 bd
       -0.07636678 0.04879824 0.0660353 -0.052676775
000130 c1 51 c2 bd 31 9e 8f bd cd f4 0c bc 1f 21 3b 3d
       -0.094882496 -0.070125945 -0.008603287 0.045685884
000140 71 cb 54 3d 3d 75 88 bc f9 5d 5d 3d de b3 95 bd
       0.05195183 -0.016657466 0.054044697 -0.073096976
000150 d9 9a 4a bd 34 14 cd 3c 65 64 99 3c 4e 54 ad 3c
       -0.04946408 0.025034048 0.01872463 0.021158364
000160 ea 09 d8 bd 0c fa 88 3c de 96 8d 3c db a9 6d bc
       -0.10548766 0.016720794 0.017283853 -0.014505829
000170 16 c1 22 bd fa 5a ea 3c c2 08 63 3c a2 2f dc bb
       -0.039734922 0.028607834 0.0138570685 -0.0067195455
000180 4c 6a ee bc e0 2a 49 3b 0c 20 0b 3d b1 40 4f bd
       -0.02910342 0.0030695722 0.03396611 -0.050598804
000190 89 39 a8 3d 36 f7 9f bd 08 fa bd bd cc a9 0c 3d
       0.08214099 -0.078108236 -0.09276205 0.03434162
0001a0 5d 19 03 bd 38 5b b9 bd 61 fa ce bd 38 d8 39 bc
       -0.03200661 -0.09050602 -0.1010635 -0.0113430545
0001b0 b5 69 8f bc 2e 51 94 bd ac 40 84 3d 6f 91 34 3d
       -0.01750646 -0.07242046 0.06457648 0.04408401
0001c0 bb 45 00 bd fe fa 92 ba 2b e1 e3 bc 79 20 c8 bc
       -0.0313165 -0.0011213718 -0.02781733 -0.024429547
0001d0 10 ec b4 bc 6c 40 03 3d 82 71 5d bd 65 4a 95 3d
       -0.02208522 0.03204386 -0.054063328 0.0728958
0001e0 4a 24 ea 3c 89 e3 c7 bc d8 68 ca 3b 8a 69 6c 3b
       0.028581757 -0.02440049 0.006177049 0.0036073648
0001f0 8d 09 95 3d b0 ff 44 3d a5 b8 0c bd f2 f9 94 bd
       0.07277212 0.048095405 -0.03435578 -0.07274236
000200 1f 64 e3 3d 05 4a d6 bd 05 29 ba 3e 10 24 b8 be
       0.11103081 -0.10463337 0.3635942 -0.35965014
000210 49 8b d0 3e dc 08 5c be 2c 55 13 3f 5e 91 83 be
       0.40731266 -0.21487755 0.57551837 -0.25696844
000220 16 7a 9e 3d 4e 33 96 3e 51 71 49 bd 68 4c 6b 3e
       0.0773813 0.29336017 -0.049180333 0.22978365
000230 b7 df aa 3e 14 c7 45 3e eb 79 ba bc 82 c6 5c 3e
       0.33373806 0.19314224 -0.022763213 0.215601
000240 c5 64 ab bc 7d 00 81 3d 18 b9 d8 bd d6 e9 13 3e
       -0.020922074 0.06298921 -0.10582179 0.1444467
000250 4a c1 99 3e 3b 6b c7 3b 38 f9 c3 be cf 68 55 bd
       0.3003028 0.006085781 -0.38276076 -0.052101906
000260 fc c3 ac be 12 8c 1a be 8c 4e 01 bd 8a 6e ca be
       -0.33743274 -0.15092495 -0.03156905 -0.3953746
000270 1d a3 09 be fc 15 60 b8 be 49 09 3e 7e e1 1c bf
       -0.13441129 -5.3426236e-05 0.13407037 -0.61281574
000280 8f d1 ba 3e 62 08 02 3d 90 7a 7d be ce ab a4 3c
       0.36488006 0.031746276 -0.24753785 0.020101454
000290 84 79 48 be a6 a8 2c 3d 5a c4 3c bd 5d 9c 30 3c
       -0.19577605 0.042153023 -0.046085693 0.010779467
0002a0 5d ef 84 bd 37 c7 ed bd bb 7c e6 bd b8 61 bf 3e
       -0.064909674 -0.11610263 -0.11254259 0.3737924
0002b0 b5 5c 0e 3e 59 d7 30 3e 47 0c 7a 3e 6c 65 db 3d
       0.13902552 0.17269649 0.24418746 0.10712704
0002c0 84 cf ca bc 1c 10 be be 87 31 c1 be cc 04 9f bd
       -0.024757154 -0.37121665 -0.377331 -0.07764587
0002d0 ff 88 d0 3d 38 8f ba 3e 6c f2 dc bd f7 6e 92 3d
       0.1018238 0.36437392 -0.10788426 0.07150071
0002e0 a0 2b 19 3e 0b a5 e7 3d 5f 08 6b bd 5d 4d 07 bf
       0.14958048 0.11310776 -0.05738103 -0.5285242
0002f0 81 2c 5a 3d 55 ca cc be bf 94 9a bf b3 79 1f 3e
       0.0532651 -0.39998117 -1.2076644 0.15573768
000300 9b be c3 be b6 8c 4f bd 3a 70 01 bf d3 ed 5a 3e
       -0.38231358 -0.0506713 -0.5056187 0.21379785
000310 22 76 28 be ee 18 be 3e 5d 6d ab be 2b 2c da be
       -0.16451314 0.37128395 -0.33481875 -0.42611822
000320 f7 c5 11 bf f9 07 36 bd 58 bd 88 bd 06 d5 1c bf
       -0.56942695 -0.044441197 -0.066767395 -0.6126255
000330 3a 74 68 3e 33 f8 62 3d 0e cb 96 3c 1e b9 61 3e
       0.22700587 0.055412482 0.01840737 0.22043273
000340 2e a8 04 bf 73 1a 86 3d dd 16 7f bf 23 31 67 bc
       -0.5181912 0.065480135 -0.9964426 -0.014110836
000350 8c 9a b5 bd 3b 4d 42 be 18 cf 9c be 0b 23 00 be
       -0.08867368 -0.18974774 -0.3062675 -0.12513368
000360 c8 42 8a be 6e 32 ce 3d 79 5c 68 3f 97 71 c1 3d
       -0.27004075 0.100682124 0.907661 0.09445494
000370 4c 4e a0 be 33 11 c1 bd d4 9d 8c 3e ba 1c 3a 3e
       -0.31309736 -0.094271086 0.27464163 0.18175021
000380 c1 3c 8b 3d 4b 90 c0 3d 02 d4 cf 3d 69 fe 54 be
       0.06798697 0.09402522 0.10147859 -0.20800175
000390 c8 fb 22 be 58 c1 20 be a7 d5 1e 3d 4c 3b 7b bf
       -0.1591636 -0.15698755 0.038777974 -0.98137355
0003a0 8b 5a 85 bc b8 51 d5 bd bf 40 06 3c c3 7f 28 3e
       -0.016278526 -0.10415977 0.008194148 0.16454987
0003b0 12 ec 87 3e ec 54 09 3f e5 2a 8a bf 3d d9 70 3e
       0.26547295 0.53645205 -1.079434 0.2352037
0003c0 18 0c 9f 3e 13 60 79 bf 6d 28 be bd 3f 04 96 be
       0.31063914 -0.9741222 -0.09285054 -0.29300115
0003d0 27 f3 01 3e 5c 58 fb 39 b1 6e cb 3d 3c cf 27 3e
       0.12690412 0.00047940284 0.09933222 0.16387647
0003e0 b5 bc 73 3d 76 69 a2 be 6c b1 d3 3c ae 03 f9 bc
       0.059506137 -0.31721085 0.025841437 -0.030397262
0003f0 e8 0c 8a 3e ea 47 dc 3e 54 1c 1d 3d 60 dd be 3d
       0.26962972 0.43023616 0.038357094 0.09319568

network.2.bias f4 [128]
000000 5a 15 da b9 39 24 f0 3c 06 6b 83 bd 99 d5 c7 bd
       -0.00041596108 0.029314147 -0.064168975 -0.097575374
000010 c4 1f a9 3e 22 0e c7 bd 53 64 ed bc 1b 96 b0 3e
       0.33032048 -0.097194925 -0.028978502 0.3448952
000020 2d b0 80 bb a1 42 c4 bc 9f 14 b5 3d 5d c1 19 3d
       -0.003927252 -0.023957552 0.08841824 0.03753792
000030 c6 21 2e 3d 9d 96 9d 3c d7 f0 ab bd 14 ac 2b 3e
       0.042512678 0.019236857 -0.08395546 0.16764861
000040 bd fc 8b 3e 9a 02 5a bd 98 4f 27 bc d4 15 cc bd
       0.27341262 -0.053225137 -0.010211848 -0.09965101
000050 b4 ba 11 be 0d c7 1b 3e ea 80 fb 3d 1d f6 8b bd
       -0.14231378 0.1521265 0.12280448 -0.06834052
000060 39 46 49 bd 0a 1c 62 3d 82 3f 0c 3e ca 85 60 3c
       -0.049139235 0.05520252 0.13696101 0.013703773
000070 3d f2 b3 3b 54 36 1c be 1e 7e 9f bd 64 df bd 3c
       0.0054915235 -0.152551 -0.07787727 0.02317781
000080 10 f9 4f 3d 0b 1c e2 bb 2b 56 80 3d 8d 69 19 be
       0.050774634 -0.0069003156 0.06266435 -0.1498167
000090 f9 6a 9d 3e 96 c0 c2 3e 66 68 90 bd ba 1d d6 bc
       0.30745676 0.38037556 -0.070511624 -0.026137222
0000a0 b8 d0 e1 bc 66 df 20 bd ce 35 0a be 9e b6 7b 3d
       -0.027565345 -0.03927555 -0.13497087 0.061453454
0000b0 ba 96 ad 3e 42 85 61 3d 13 37 06 bd e6 1d 00 3e
       0.33904058 0.055058725 -0.032767367 0.12511405
0000c0 0f 50 91 3e de 4a ba bd 9a 1d 46 bd 3d 88 89 bd
       0.28381392 -0.09096311 -0.048368074 -0.067154385
0000d0 34 61 86 3d fe 3b 4c 3e 3f 27 e4 bc ce 0d d2 bd
       0.06561509 0.1994476 -0.027850745 -0.10256539
0000e0 24 62 0a 3d 6e 65 b1 bd 39 c7 40 bd e2 bc 83 3d
       0.033785 -0.08661924 -0.047064994 0.06432511
0000f0 34 e6 74 3d a6 05 d1 3e 42 8b 60 3d b6 34 94 bc
       0.05978985 0.40824622 0.054820307 -0.01809154
000100 67 e4 3e 3d 10 95 87 3d cf 5d 21 bd b1 6b a7 bd
       0.04660454 0.06620228 -0.039396103 -0.081748374
000110 c0 d6 b0 bd dd f5 72 3e b4 bf 87 be 96 25 76 bd
       -0.0863471 0.23726602 -0.26513445 -0.06009444
000120 09 ec 15 be fe 2b 9b bd 7a 77 cf bc a1 91 22 bd
       -0.14640822 -0.0757675 -0.025325526 -0.039689664
000130 6e 74 a4 3b d9 6d 06 be c4 9d 4d be 0a 37 81 bd
       0.0050187623 -0.13127841 -0.20079714 -0.06309326
000140 b6 d4 92 bb d5 31 9d 3c f3 2f 86 bd a9 76 49 bd
       -0.0044809235 0.0191888 -0.06552114 -0.04918543
000150 89 78 44 bd 7e 46 32 3c c2 8c 66 3d 0c c7 84 3d
       -0.047966514 0.010881064 0.05628658 0.06483278
000160 6b dd 50 3d cf 7e 28 bd 58 82 bf bc b0 77 b1 bd
       0.05099241 -0.04113656 -0.023377582 -0.08665407
000170 f7 ec 0b bd ab eb a9 bb 04 ac 95 3e 7e 5e 60 3e
       -0.034161534 -0.0051855645 0.292328 0.21911046
000180 c4 3c 84 3c e6 56 95 bd 03 22 c9 bb 75 5d 90 3d
       0.016142257 -0.07291965 -0.0061380877 0.070490755
000190 2b 02 eb 3c 3c fa 76 bd 44 d7 bb bd 40 35 5c bc
       0.028687557 -0.060297236 -0.09171918 -0.01344043
0001a0 2b b4 24 3e 6b 31 27 be 1b 58 b3 3e b7 29 82 bd
       0.16084354 -0.16327445 0.35028157 -0.06355613
0001b0 77 1e 99 bb cd 1b 93 3d 19 94 c8 bc 0a 2c d7 3c
       -0.004672821 0.07183037 -0.024484681 0.026266117
0001c0 ac c7 3d bc f9 99 41 be a7 1c 3f 3c 7e 81 e3 bd
       -0.01158325 -0.18906392 0.011664546 -0.11108683
0001d0 6c e5 b1 3e 75 98 19 bd c9 24 01 be f4 a7 a9 3c
       0.34745347 -0.03749891 -0.12611689 0.02070997
0001e0 0a 19 56 bc 8f fe 65 be d5 65 70 be cc e2 0f 3d
       -0.013067493 -0.22460388 -0.23476346 0.0351284
0001f0 17 45 e9 bd 30 5e 99 3d d2 15 5f bd 9a 95 00 be
       -0.11390131 0.07488668 -0.05446417 -0.12557068
