DQN/DQN_checkpoints/dqn_checkpoint_200.pt (torch, 298901 bytes, 24 tensors)

network.0.weight f4 [128, 8]
000000 d9 d0 45 3e 8b c7 06 3e 86 42 94 3e 52 4b ae 3d
       0.1931795 0.13162057 0.28957003 0.0851046
000010 58 51 67 be 05 e5 11 3e 00 a9 37 3e 1f 83 8d 3e
       -0.22589624 0.1424752 0.17935562 0.276391
000020 19 27 b9 be 92 28 bd 3e 36 d3 58 3e 09 6c fb bd
       -0.36162642 0.36945015 0.2117432 -0.122764654
000030 db e0 f5 3e 26 35 f4 be 8e 7c 99 3e 92 9b 0f be
       0.48023114 -0.476968 0.2997784 -0.14024189
000040 ea 2f 42 bf 78 de 1a 3f a2 94 00 be 2e 81 39 be
       -0.7585436 0.6049571 -0.12556699 -0.18115684
000050 15 d6 8c 3e 0d 78 26 3f b4 36 ff 3e 11 83 aa 3e
       0.27507082 0.6502693 0.49846423 0.3330312
000060 75 42 03 3f f9 17 63 bf 14 d3 10 3f 3c e6 b2 3e
       0.5127328 -0.88708454 0.5657208 0.3494128
000070 21 bd 5b bd 02 ec 04 bf 79 c0 8d 3e b5 bd 8f be
       -0.053647164 -0.5192262 0.27685907 -0.28074422
000080 f6 06 41 bf d2 3e 9b 3e 05 3b b1 be ee 60 88 3e
       -0.75401247 0.30321366 -0.3461534 0.2663645
000090 d0 77 ff 3d ca 84 5d 3f 2f 58 b7 3d f8 cf de 3d
       0.12474024 0.86530745 0.089523666 0.10879511
0000a0 5b 94 7a 3e fc 0d e8 bd f6 6b 8a 3e 2a 0d ff 3d
       0.24470656 -0.11330792 0.27035493 0.12453683
0000b0 25 37 84 bb 42 b0 b9 bd 45 e5 15 be ff f2 b1 be
       -0.004034894 -0.09066822 -0.1463824 -0.34755704
0000c0 c3 ea 05 be 95 7e 8e 3e 54 ad e7 bd 94 90 10 bf
       -0.13077836 0.2783095 -0.113123566 -0.5647061
0000d0 a7 5c 17 be 89 1b 39 3f d8 17 4e 3e 4d a9 3d 3f
       -0.14781438 0.7230764 0.20126283 0.7408646
0000e0 e2 1c f0 3d 21 92 2f 3f d6 e9 03 bf e9 50 c8 be
       0.11724259 0.6858235 -0.5152868 -0.3912423
0000f0 31 a6 e1 bd 6c 7d 07 bc 76 43 dc 3e 1a 41 27 3d
       -0.110180266 -0.008269649 0.4302022 0.04083357
000100 33 a3 85 bf 79 73 3a 3e 25 86 45 bf 5c da a0 be
       -1.044043 0.18208112 -0.77157813 -0.31416595
000110 1a a3 39 3f de 21 7d 3f 74 d1 dd 3d f0 c2 63 3e
       0.725145 0.988798 0.10830966 0.22242332
000120 85 05 61 3e c8 60 09 bf 07 a1 af 3e dc d0 a1 3e
       0.21974762 -0.536633 0.34302542 0.3160466
000130 82 4a 46 bd 95 ca 12 be dd aa 91 bf 0f 56 b3 3e
       -0.0484109 -0.14335091 -1.1380268 0.35026595
000140 84 8b 41 bd 53 64 fa 3d a2 ae d0 3e d3 3d bc 3e
       -0.047252193 0.122261666 0.40758234 0.36765918
000150 8f 58 90 3e f3 8a d6 3e 4e 9c 17 bd f3 e6 98 be
       0.28192565 0.41902885 -0.0370143 -0.298637
000160 d8 77 1c bf 1a 61 d8 3e c8 de 1f 3e 3d b3 e5 be
       -0.6112037 0.42261583 0.15612328 -0.4486331
000170 29 cb 5c 3e b7 43 22 3f 2f c9 be 3e cf d1 9a 3e
       0.21561874 0.63384575 0.37262866 0.30238196
000180 b3 dd ad 3e b7 b8 d2 be 71 9a 18 bf 50 50 3a 3f
       0.33958206 -0.4115655 -0.5961066 0.727788
000190 e5 0e 59 3c e7 f4 f6 bd 28 8b 87 be 4b 38 82 3e
       0.01324818 -0.1205843 -0.26473355 0.25433573
0001a0 fa df a5 be 13 06 97 3e 22 2e 80 3d 5d e5 08 3f
       -0.32397443 0.29496822 0.06258799 0.5347498
0001b0 7b b5 d3 be 73 26 60 3e 5c 6a 46 3e af dd 0e 3f
       -0.41349396 0.21889667 0.1937651 0.5580701
0001c0 4d fb 84 3d 11 ff d6 3e 6b 51 0a 3f ce 13 14 3f
       0.06493244 0.41991475 0.54030484 0.5784272
0001d0 3a fd 8d bf b4 20 da 3a 37 65 b0 3c 39 50 6f bd
       -1.1092904 0.0016641826 0.021532638 -0.058426116
0001e0 86 3b 2f 3f fb e6 e1 bd 13 88 a4 3e 3b 08 26 be
       0.684502 -0.11030384 0.32135066 -0.16214077
0001f0 5b fa 0f 3f b1 49 ad bd 81 51 c9 bd 78 6c 4c 3d
       0.5624139 -0.08461321 -0.09829999 0.04990813
000200 0e 2f 99 3e 98 4a a0 3e 7f 75 1e 3f 7b 7d c7 3e
       0.29918712 0.3130691 0.61898035 0.38962922
000210 7b 87 20 bf f5 70 40 3d 4c 35 6a be d7 b8 a3 be
       -0.62706727 0.046982724 -0.22871894 -0.3197696
000220 ba b2 8f 3d 9d c6 d8 3d 20 bd 72 3e af 76 06 3f
       0.07016511 0.105847575 0.23704958 0.52524847
000230 5c e0 8f 3e cc 90 c2 3c 4b e2 26 be 71 e0 1b 3e
       0.2810086 0.023750685 -0.16297261 0.15222336
000240 2c bb d9 be 93 a4 f7 3e a1 73 3d 3c 58 5a da 3e
       -0.42525613 0.48367748 0.011563213 0.42647052
000250 70 e2 0d 3d 78 cd 33 bf d2 9a 7b be 9c 61 05 bf
       0.034639776 -0.70235395 -0.24570778 -0.52102065
000260 4a 94 b1 3d 69 10 9a 3d d9 dd ad 3e 1d 49 79 be
       0.08670862 0.07522661 0.3395832 -0.24344297
000270 7d a3 19 c0 ca ca 12 bd 74 97 a0 3e 22 5c a2 3b
       -2.4006035 -0.035837926 0.3136555 0.0049548307
000280 3d 00 86 3e cf f9 9e be c9 97 35 3e b6 3b 18 3e
       0.26172057 -0.31049964 0.17733683 0.14866528
000290 f4 2f ca 3d ef e5 ec bd 7b 06 bc be 0a 2c ff 3e
       0.098724276 -0.11567294 -0.36723694 0.49838287
0002a0 47 2d a7 be 14 da c9 3b 91 33 87 3e 76 f4 96 3d
       -0.3265173 0.00616003 0.2640653 0.07370846
0002b0 bc 57 64 c0 5b 60 14 bc 51 1d 0a 3e 27 b4 e1 bc
       -3.567855 -0.009056176 0.13487746 -0.027551724
0002c0 1c 14 33 3a ea 29 26 bf 2c 19 95 3e 96 95 08 3f
       0.00068313046 -0.64907706 0.29120767 0.5335325
0002d0 94 11 74 3e 03 eb 36 3e 04 fe fe 3e 7d 46 a4 be
       0.2383483 0.17863087 0.49803174 -0.32085028
0002e0 60 e1 1f 3f d4 e2 ce bd 1f 1c 26 3e 01 13 68 be
       0.6245327 -0.10101858 0.16221665 -0.226635
0002f0 9c 6a 09 3f e1 e5 1b be 05 3a 63 be 46 00 bf 3d
       0.536783 -0.1522441 -0.22190101 0.09326224
000300 02 83 23 be 59 5f d3 3e 9d f9 9c 3e 58 77 0b bf
       -0.15967944 0.41283682 0.3065919 -0.5447898
000310 f6 b1 f6 3e 9f 84 23 3e 3a 8e 71 be da 48 ee be
       0.48182648 0.1596856 -0.23589411 -0.46539956
000320 ca 66 7f be d9 fe 07 3d bc 8a 08 3e e2 8a be be
       -0.24941555 0.033202026 0.13334173 -0.37215334
000330 5b 0a 10 3e e2 57 77 3e c9 e2 8c 3c c4 90 58 3d
       0.1406645 0.24154618 0.017197983 0.052872434
000340 48 d0 b3 3d df 99 74 3e 7b 63 32 3d cd 23 e1 3d
       0.08779961 0.23886822 0.043551903 0.109931566
000350 6f bc 5e 3e 0c 01 6f be ce 55 19 be 18 a4 dc 3c
       0.21751569 -0.23340243 -0.14974138 0.026933715
000360 38 90 70 3e ec 81 91 be fb 56 86 3e 9d 96 a6 3e
       0.23492515 -0.28419435 0.26238236 0.32536784
000370 b5 dc d0 bf 53 21 47 be 0c 7b 8c 3e de b3 78 be
       -1.6317354 -0.19446306 0.27437627 -0.24287364
000380 99 d0 30 3f ea 0e 47 bd 1c 9f 62 be a4 18 4b be
       0.69068295 -0.048598208 -0.22131008 -0.19833618
000390 9e 62 ea 3d 66 fa 40 3d a7 01 03 bd d7 7b 43 bc
       0.11444591 0.0471138 -0.031983998 -0.011931381
0003a0 c7 fa e6 3e 5a 4f 55 3e d3 d1 e4 be 68 fe 34 bf
       0.45113203 0.20831051 -0.44691333 -0.70700693
0003b0 62 55 f1 3e 37 21 e7 bd f8 2d 10 bf 1b 5b a4 3e
       0.47135454 -0.11285632 -0.5632014 0.32100758
0003c0 3e 48 17 3f b2 2a ae be 78 79 f0 3e 79 48 25 be
       0.5909461 -0.3401695 0.46967673 -0.16140927
0003d0 d7 65 a4 3d 55 e9 d8 3d 11 04 fb be e6 d0 23 be
       0.08027237 0.105913796 -0.4902654 -0.15997657
0003e0 09 fd f6 3e 03 8e d2 be 73 ce ce 3e 7c b4 28 bc
       0.48239926 -0.4112397 0.40391883 -0.010296937
0003f0 fd 2f 1f 3f de 33 0a 3e 37 94 71 3e 9b 59 e4 bc
       0.621826 0.13496348 0.23591696 -0.027874758

network.0.bias f4 [128]
000000 ed f8 dd 3e 0d 76 05 3f 46 8e 86 be 5e f5 98 be
       0.43353978 0.52133256 -0.2628042 -0.298747
000010 f3 a1 30 be bb f3 3a 3f 63 35 eb be 60 bf c2 3e
       -0.17249279 0.73028153 -0.45939168 0.38036633
000020 f3 b8 80 3e 80 16 73 3e f9 00 22 3f cd a4 3a be
       0.25141105 0.23739052 0.63282734 -0.18226929
000030 62 ac e6 3c 70 b2 c6 3e 17 3b 4a 3d b4 0a a4 be
       0.02815837 0.38808012 0.04937276 -0.32039416
000040 93 3a 9d be 97 ac 3f 3e 58 6f e1 3e 2e 1b a1 bd
       -0.3070875 0.18718182 0.4403026 -0.07866512
000050 3c 22 86 3e 5b 5c 5f 3e ed 68 d3 bd bc dd fe bd
       0.26197994 0.21812575 -0.103227474 -0.12444636
000060 a3 74 89 3e 07 00 13 3f e3 f4 2b 3f 2a 37 dc 3b
       0.268468 0.57421917 0.6717054 0.0067204433
000070 f0 8a ee 3d d9 e8 86 bd d8 f3 be 3e 9b 6b 55 be
       0.11647594 -0.06587381 0.37295413 -0.2084183
000080 de de 66 bc 9b 8f f5 3d 66 7b f0 be 18 e8 99 3e
       -0.014091222 0.11990281 -0.46969146 0.30059886
000090 72 6a 8d bd e6 82 37 ba d6 a4 8a be c5 81 a3 be
       -0.069050685 -0.00070004014 -0.27078885 -0.31934944
0000a0 9f bc 4b 3f 1a 60 56 bc 1d eb 21 3e 12 02 38 3c
       0.7958469 -0.013084436 0.15812345 0.011230962
0000b0 13 a0 0d be 08 19 fa 3e bb 68 fd 3e c6 e3 67 3e
       -0.13830595 0.48847222 0.49493966 0.22645482
0000c0 e7 2d 57 3e 39 8e 4a 3e 1d 9d a0 be a8 18 0a 3e
       0.21013604 0.19780816 -0.31369868 0.13485968
0000d0 62 1c c9 3e ba c8 0a 3f 13 2e 46 3f 6a 0e f7 3e
       0.39279467 0.54212534 0.77414054 0.48253185
0000e0 82 46 98 bc 1c 3b 25 3f c9 ef 21 3f 2e a9 a1 bd
       -0.018588308 0.6454332 0.6325651 -0.078935966
0000f0 2f be 1f 3f 24 bd 96 3c 44 8d 73 3d 45 68 1f bd
       0.6239957 0.018400736 0.059460893 -0.0389178
000100 80 06 24 3e aa 02 3f 3f f5 9d 6e 3e a6 e2 01 3f
       0.16018105 0.7461344 0.23302443 0.50736463
000110 2e 6d 2d 3d 81 47 96 3e dc 72 0d bb a8 6a 9b bd
       0.04234045 0.29351428 -0.0021583354 -0.075887024
000120 a8 8e 68 3e 88 83 b0 be 7c df bb bd 78 c9 a0 bb
       0.22710669 -0.3447535 -0.09173486 -0.0049068294
000130 b1 25 87 be 13 ec 60 be 60 f9 2d 3f 70 c1 05 3e
       -0.26395944 -0.21965055 0.6795864 0.13062072
000140 c7 a1 b2 3e cd a8 9f 3e c2 62 5a be b4 0b b3 3e
       0.3488905 0.31183472 -0.21326736 0.34969866
000150 91 1c 73 3e 19 fb dd 3d 1b fc 77 be 0e bb 39 3d
       0.23741366 0.10838909 -0.24217264 0.045344405
000160 c8 67 1e 3f 13 62 f9 3e cc 05 d4 be ef 3b 16 3e
       0.6187711 0.48707637 -0.41410673 0.146713
000170 d1 07 01 3f 13 a8 f7 be b4 16 37 3e 75 10 17 3d
       0.5040255 -0.48370418 0.17879754 0.03688093
000180 20 ba a2 be 50 c7 b2 3e 0e 3a 37 3e 50 cc db 3e
       -0.31782627 0.34917688 0.1789324 0.42929316
000190 9a e1 cd 3d 7c 72 46 3e bb af 2b 3e ee cb da be
       0.10052796 0.1937961 0.16766255 -0.4273371
0001a0 34 57 ff 3e 20 f3 67 bd 90 17 1c 3f d1 bc 05 be
       0.49871218 -0.056628346 0.60973454 -0.13060309
0001b0 fb 14 01 3c f2 45 2c 3e 5d f8 8c 3e 07 95 c6 3e
       0.007878537 0.16823557 0.27533236 0.38785574
0001c0 8f 7f 40 bd 50 2f 99 3b fc 80 bd 3e db 57 d1 bd
       -0.04699665 0.0046748295 0.3701247 -0.10221835
0001d0 6e c2 c9 3e e9 e7 c5 bd 1f d9 b3 3e b7 0a 0a 3e
       0.3940615 -0.09663374 0.35126588 0.1348065
0001e0 fd e0 3e 3e 8e ac 95 be 64 8c a2 3d 9c 97 30 3f
       0.18640514 -0.2923321 0.07936934 0.6898134
0001f0 79 c4 2e bd bc 93 80 3e 34 0d 45 3f 60 65 af be
       -0.04266784 0.25112712 0.7697327 -0.3425703

network.2.weight f4 [128, 128]
000000 cb ec 20 3d 55 f5 21 3d 9a a1 10 3d dd 43 7e bd
       0.039288323 0.039540607 0.035310365 -0.06207644
000010 1c fc d2 bc 05 cc 28 bc 6a 0a 2b bd d3 5f a0 bc
       -0.02575498 -0.010302548 -0.04175798 -0.019576943
000020 a0 50 bf bd bf c3 5f bd 2f e3 a4 bd 96 b4 48 bc
       -0.0934155 -0.054630037 -0.08051144 -0.012250086
000030 2d 33 79 3d 7d ac 45 3d 7b 60 91 bd 7f ae 88 bd
       0.06083982 0.0482602 -0.0709848 -0.066739075
000040 c0 42 8f bd 7b 5f ff 3b 40 b9 72 bd 14 9e 8b 3c
       -0.069951534 0.0077933646 -0.0592587 0.017043151
000050 5c 0f b9 3c 4a 7b 52 3c b9 ac bb bd d1 66 98 bd
       0.022590332 0.012846777 -0.091638036 -0.07441486
000060 1e 57 15 bd ce 2b 40 ba d7 17 72 3d 5c 22 44 bd
       -0.036460035 -0.0007330746 0.059104767 -0.04788433
000070 4f 30 b9 bc 6f ea 47 3d 11 e5 9c 3d be a8 3d bd
       -0.022606043 0.048807558 0.076608784 -0.046303503
000080 3b 3c a8 bc 5a 69 8b 3d 22 f1 0e 3d 1d b4 4a bd
       -0.020536533 0.068072036 0.03489793 -0.049488176
000090 49 c7 16 3d 90 23 66 bc 63 3d 93 3b 70 89 a5 3b
       0.036811147 -0.014046565 0.004493402 0.005051784
0000a0 d4 ba 69 bc 70 df c5 bc 7c 6b 89 3a 1b 0b 43 bd
       -0.014265735 -0.024154395 0.0010484303 -0.047618013
0000b0 02 18 8a 3d cf 66 ac bd 10 2a 2a 3d 45 5d b6 bc
       0.067428604 -0.08418047 0.04154402 -0.022261271
0000c0 ff 08 28 3d 2d d4 51 3d 59 f9 48 bd d4 1a 58 3d
       0.041024204 0.051227737 -0.04906592 0.05275996
0000d0 de 4a e4 bc 0c 06 c7 bc 19 87 4e 3c 95 7d b2 3c
       -0.02786773 -0.024294876 0.012605452 0.021788398
0000e0 38 54 96 bd 31 0a 9d bc 16 73 85 bd 29 ee 40 3d
       -0.07340282 -0.019169899 -0.065160915 0.047102127
0000f0 7a 1e 36 bb c2 75 c3 bd 76 31 21 3c 12 4b 35 3d
       -0.0027789162 -0.09543945 0.009838453 0.044261046
000100 0f 23 f7 3c 0d 75 b7 3c e5 16 13 bd f6 89 80 3d
       0.030168084 0.022394681 -0.035910506 0.06276314
000110 c6 5c 58 bd 4a 34 86 3c f9 c1 88 bd 3e 7a 15 3d
       -0.05282285 0.016382355 -0.06677622 0.036493532
000120 30 66 9c bd aa e0 47 3d c5 3c 87 3d bc c3 57 bd
       -0.07636678 0.04879824 0.06603388 -0.0526769
000130 5d 52 c2 bd 31 9e 8f bd 29 f5 0c bc 92 20 3b 3d
       -0.09488366 -0.070125945 -0.008603373 0.04568536
000140 e3 ca 54 3d 53 75 88 bc ba 5d 5d 3d f7 b3 95 bd
       0.0519513 -0.016657507 0.054044463 -0.07309716
000150 11 9b 4a bd 34 14 cd 3c 48 64 99 3c d2 53 ad 3c
       -0.04946429 0.025034048 0.018724576 0.021158133
000160 f2 09 d8 bd 6e f9 88 3c de 96 8d 3c 09 aa 6d bc
       -0.10548772 0.0167205 0.017283853 -0.014505872
000170 16 c1 22 bd c4 5a ea 3c 0f 08 63 3c db 2f dc bb
       -0.039734922 0.028607734 0.013856902 -0.006719572
000180 4c 6a ee bc 2b 2a 49 3b 6e 1f 0b 3d 37 41 4f bd
       -0.02910342 0.00306953 0.03396552 -0.050599303
000190 89 39 a8 3d c8 f7 9f bd 6d fa bd bd 56 a9 0c 3d
       0.08214099 -0.078109324 -0.092762806 0.03434118
0001a0 7f 19 03 bd bf 5b b9 bd 83 fa ce bd e1 d8 39 bc
       -0.032006737 -0.09050702 -0.10106375 -0.011343212
0001b0 47 6a 8f bc 3a 51 94 bd 79 40 84 3d 25 91 34 3d
       -0.017506732 -0.07242055 0.0645761 0.044083733
0001c0 2a 46 00 bd b4 fb 92 ba 7a e1 e3 bc 8c 20 c8 bc
       -0.031316914 -0.0011213929 -0.027817477 -0.024429582
0001d0 31 ec b4 bc 43 40 03 3d 7a 71 5d bd 3c 4a 95 3d
       -0.022085281 0.032043707 -0.054063298 0.0728955
0001e0 a6 23 ea 3c 3c e4 c7 bc 14 68 ca 3b f4 68 6c 3b
       0.028581452 -0.024400823 0.006176958 0.00360733
0001f0 12 09 95 3d 35 ff 44 3d 26 b9 0c bd f2 f9 94 bd
       0.07277121 0.048094947 -0.03435626 -0.07274236
000200 b1 6a 49 3e 25 ed 8a be 51 59 b8 3e 17 e1 29 3e
       0.19669606 -0.27134052 0.36005643 0.16589771
000210 48 13 a0 3e 33 3b 82 be 2b a9 78 3f 8c 18 4b be
       0.3126471 -0.2543579 0.9713313 -0.19833583
000220 30 6a d2 bd 0c 3a e3 3e 49 c6 96 bd 07 b0 48 3e
       -0.1027416 0.44380224 -0.07362039 0.19598399
000230 91 72 6b 3e b4 9f 99 3e 3a a8 a4 3e dd 2b fa 3e
       0.22992922 0.30004656 0.32159597 0.4886159
000240 a7 5e 90 3e 01 85 e7 3d 7b 82 20 be 4f 30 88 3c
       0.28197214 0.11304665 -0.15674774 0.016624598
000250 be e9 ce 3e 54 ac f6 be eb 4b 20 bf 8a 18 c6 3d
       0.40412706 -0.4817835 -0.6261584 0.09672649
000260 d3 e7 0d bf 0b 07 b5 be 49 b3 64 bd 1e 91 27 3d
       -0.5543186 -0.35356936 -0.055835042 0.04090988
000270 67 df 41 3d 3c f2 d3 3e 44 e9 8a 3e 0a 6c d6 be
       0.047332194 0.41395748 0.27131093 -0.41879302
000280 8f 83 86 3e e4 29 78 3e c8 22 a7 3e 0a a0 63 3e
       0.26272246 0.2423473 0.32643723 0.22229019
000290 a2 35 1c bf ca 64 04 bf 5a c4 3c bd 5d 9c 30 3c
       -0.6101934 -0.5171629 -0.046085693 0.010779467
0002a0 6a 7c be bd ea 1e e8 3e 1e 61 00 bf 46 32 22 3f
       -0.09301074 0.45336086 -0.5014819 0.6335796
0002b0 c0 90 6e 3e b1 d1 04 3e 26 d1 31 3e 78 fe 3e 3e
       0.23297405 0.12970616 0.1736494 0.1865176
0002c0 97 b7 8a 3d de e8 ef be 1c 0f 4d bd df 47 e3 be
       0.06773298 -0.4685735 -0.050063238 -0.4439077
0002d0 fb 9e 18 3e 9b 93 a1 3e 42 74 dc bd c3 cb 3b 3e
       0.14904396 0.31557927 -0.10764362 0.18339448
0002e0 9a c9 a5 3e ed 0e 12 3e 6c 32 89 bd 3d 55 06 3e
       0.32380372 0.14263506 -0.0669907 0.13118453
0002f0 02 d2 c4 3d 45 36 9b bf 25 45 e5 bf e2 13 99 3e
       0.09610368 -1.2125937 -1.7911726 0.29897982
000300 53 62 ec be 1e 30 d7 bc 24 9d 53 bf 37 9a a4 3e
       -0.46168765 -0.026268061 -0.8266165 0.32148907
000310 e5 aa 28 bd 1c 3d a4 3e 47 9b 2c bf 8d 3f 52 bf
       -0.041178603 0.32077873 -0.67424434 -0.8212822
000320 0c 1f 42 bf f9 07 36 bd 3c 32 b8 be 77 c0 d4 bf
       -0.75828624 -0.044441197 -0.35975826 -1.6621236
000330 97 38 a6 3e 33 f8 62 3d 3b 12 34 bd f7 ec c9 3d
       0.3246505 0.055412482 -0.0439627 0.098596506
000340 7e fe 16 bf 39 9b a7 3e 1c 8c 65 bf c0 1b 37 3c
       -0.58982074 0.32735613 -0.89666915 0.01117605
000350 e5 cf 89 3e 23 12 de 3e 25 da 1f bf 55 7f 47 bf
       0.26916423 0.43373212 -0.6244224 -0.7792867
000360 66 36 07 bf df be 80 3d 46 33 73 3f 88 90 f7 3c
       -0.5281738 0.06286406 0.9500011 0.030220285
000370 4a 4d 05 bf 3e d8 66 3e 0b 96 ae 3e 13 05 5d 3e
       -0.5207106 0.22543427 0.3409885 0.21583967
000380 c1 3c 8b 3d f2 bd 37 3e 80 d0 a6 bd b7 06 d9 be
       0.06798697 0.17943552 -0.08145237 -0.42387936
000390 fb ac 5f bf 8e 03 c0 be 28 dd 77 3b 40 d7 9e be
       -0.8737332 -0.37502712 0.0037821028 -0.31023598
0003a0 a6 94 08 bd 69 c2 7a 3e 1b 1c b8 3d dd b4 fe 3e
       -0.033344887 0.24488224 0.08989736 0.49747363
0003b0 44 ab 63 3e 74 f0 cd 3e de d2 83 bf b2 6a 31 3e
       0.22233301 0.40222514 -1.0298727 0.17325857
0003c0 71 91 1a 3d 87 b3 5a bf 90 13 a3 be c1 1d 06 bf
       0.03773636 -0.85430187 -0.31850863 -0.5238915
0003d0 57 35 eb 3d 39 43 b2 3e 97 da 47 3e ee 92 6f 3e
       0.11484783 0.34816912 0.19516979 0.23395893
0003e0 c8 04 54 be 41 ab c1 be 86 d5 06 3e ef a2 8c bd
       -0.20704949 -0.3782597 0.1316739 -0.068670146
0003f0 3b 00 fc 3e bf 72 b2 3e 03 7a cd 3d b9 dd be 3d
       0.49218926 0.3485317 0.100330375 0.09319634

network.2.bias f4 [128]
000000 0e 16 da b9 51 12 57 bd 7a 3e 6e be 5c 31 d8 bd
       -0.00041596632 -0.052507702 -0.2326602 -0.105562896
000010 e1 81 12 3f 66 25 ba bd fc 64 ed bc 9f 14 0d 3f
       0.5722943 -0.090891644 -0.028978817 0.5510959
000020 8b b0 80 bb ce c5 11 bd 79 6f 80 3e bd 5c c3 3b
       -0.0039272956 -0.035589032 0.25085047 0.005961983
000030 30 21 2e 3d 03 96 9d 3c ec f0 ab bd 7c cd 90 3e
       0.04251212 0.01923657 -0.083955616 0.28281772
000040 8f 76 f2 3e c3 02 5a bd 62 fa a4 bd d8 16 87 be
       0.47356078 -0.05322529 -0.08055569 -0.26384616
000050 be 1d 19 be 43 78 9c 3e 48 dd 8c 3e 30 f6 8b bd
       -0.14952752 0.30560502 0.27512574 -0.06834066
000060 5a 46 49 bd 51 1b 62 3d 7c f0 88 3e 45 85 60 3c
       -0.049139358 0.055201832 0.26745975 0.013703649
000070 3d f2 b3 3b 76 a8 24 be 78 7e 9f bd 4b 2f 24 3e
       0.0054915235 -0.16079888 -0.07787794 0.16033666
000080 8a e4 a9 3c 0e 1c e2 bb 2b 56 80 3d da 9b 0f be
       0.020738859 -0.006900317 0.06266435 -0.14024296
000090 9d 0c 11 3f 62 2a 18 3f 99 68 90 bd af fd 14 bd
       0.5665987 0.5943967 -0.070512004 -0.036374744
0000a0 b8 d0 e1 bc f7 94 a2 bd a3 93 78 bd cf 78 20 3e
       -0.027565345 -0.07938569 -0.060687672 0.15671085
0000b0 a1 9a 0c 3f e5 84 61 3d 5a c4 c5 3c b9 1a 48 3e
       0.54923445 0.05505838 0.02414148 0.19541444
0000c0 df dd 09 3f 03 5a 46 be e8 2d f3 bd 53 88 89 bd
       0.53854173 -0.19370274 -0.1187399 -0.06715455
0000d0 e4 60 86 3d b1 72 b5 3e 65 8e 02 be 06 5f 51 be
       0.06561449 0.35439065 -0.12749632 -0.20446405
0000e0 84 39 05 3e 6e 65 b1 bd 60 c7 40 bd e2 bc 83 3d
       0.13010222 -0.08661924 -0.04706514 0.06432511
0000f0 47 b8 ed 3c 45 b8 21 3f df 8a 60 3d f9 ff e8 bc
       0.029018534 0.631718 0.054819938 -0.02844237
000100 55 e4 3e 3d fe b9 86 3e 0a 5e 21 bd b1 6b a7 bd
       0.046604473 0.26313776 -0.039396323 -0.081748374
000110 0a d7 b0 bd 7c 11 e0 3e fa 85 99 be 4c 20 bb bd
       -0.086347654 0.4376334 -0.29985029 -0.091370195
000120 90 18 36 be eb d1 50 be c1 96 53 bd a1 91 22 bd
       -0.17782807 -0.20392577 -0.051657442 -0.039689664
000130 9f 73 a4 3b db e2 15 be 80 c7 69 be d0 1b f7 bd
       0.005018666 -0.1463732 -0.2283001 -0.12065852
000140 cb d4 92 bb a0 31 9d 3c 92 bc 41 be 43 77 49 bd
       -0.0044809333 0.019188702 -0.1891959 -0.049186002
000150 e9 78 44 bd 9f 41 9f 3d 12 8c 66 3d b2 c6 84 3d
       -0.04796687 0.07776188 0.056285925 0.064832106
000160 ac 6e ad bd fd 7e 28 bd 58 82 bf bc bd 77 b1 bd
       -0.084683746 -0.04113673 -0.023377582 -0.086654164
000170 6f f4 32 be 47 2c 11 bd 13 87 04 3f 4f c3 cf 3e
       -0.17476057 -0.035442617 0.51768607 0.40578696
000180 06 3c 84 3c 33 a6 d5 bd 03 22 c9 bb 58 5d 90 3d
       0.016141903 -0.104320906 -0.0061380877 0.07049054
000190 85 49 bb bd 40 fa 76 bd 7e e7 02 be b1 c5 e7 bd
       -0.09144882 -0.06029725 -0.1278362 -0.113170035
0001a0 de da ae 3e 57 5f 38 be 64 79 16 3f b7 29 82 bd
       0.34151357 -0.1800512 0.5877898 -0.06355613
0001b0 a6 7f 35 bd 43 1b 93 3d 4b 94 c8 bc 4d 78 cc 3d
       -0.04431119 0.07182934 -0.024484774 0.09983883
0001c0 ac c7 3d bc 94 db 4a be 75 1c 3f 3c 3a 28 dc bd
       -0.01158325 -0.19810325 0.0116644995 -0.1074986
0001d0 cb e2 0e 3f d0 7e 06 be 79 8b 0f be a7 cc ea 3a
       0.5581481 -0.13134313 -0.14018048 0.0017913774
0001e0 b2 19 56 bc de 7d 7f be c8 9d 69 be 81 e2 0f 3d
       -0.01306765 -0.24950358 -0.22814095 0.03512812
0001f0 e5 e5 13 be 84 ca 3d 3e f4 15 5f bd eb 8c da bd
       -0.14443167 0.18534285 -0.054464296 -0.10671409

network.4.weight f4 [3, 128]
000000 41 79 2c bd 03 5a 00 be d4 43 0c be 6d a5 f9 be
       -0.042107824 -0.12534337 -0.1369775 -0.48759022
000010 22 d9 da 3e 47 7c 4a bf b1 e0 84 bd 73 ef f1 3e
       0.42743784 -0.7909588 -0.06488169 0.47252998
000020 07 82 24 bd 49 af dc 3c 95 ed c9 3e 33 1c 3f bd
       -0.040163066 0.026939051 0.39439073 -0.046657752
000030 24 4d aa 3c b8 cb 4d 3c 62 bc b4 bc c1 51 dd 3e
       0.020788737 0.012560777 -0.022062484 0.43226436
000040 29 2b 05 3f 53 38 48 bd d6 ce 60 bf c4 02 dc 3d
       0.5201898 -0.04888184 -0.87815607 0.10742715
000050 5a 4f bf be 6d 95 c0 3e 26 8e 0d 3f 7b d2 a8 bd
       -0.37365228 0.37614003 0.55295026 -0.08243271
000060 54 be 38 bd 1b d9 4e 3d 58 f0 0d 3f 96 a7 15 bd
       -0.045103386 0.050500017 0.5544486 -0.036536776
000070 37 c1 ad 3c 31 be 10 3e 5b 2a 36 bc 31 8b a3 3e
       0.021210296 0.14135052 -0.011118497 0.31942132
000080 03 4f 91 bd 18 a2 98 bd 8f d7 65 3d 62 d0 92 3c
       -0.070951484 -0.07452792 0.056113776 0.01792163
000090 43 fd e5 3e 2a f6 02 3f 02 4d 55 bc 66 8e 50 3c
       0.44919786 0.51156867 -0.013018848 0.012729263
0000a0 60 c1 b0 3c f7 c2 78 bf 92 92 81 be cf 14 b2 3e
       0.021576583 -0.9717249 -0.25307137 0.347815
0000b0 56 0d e0 3e 49 32 96 3b e9 d4 c4 3e 3f ce 1b bf
       0.43760175 0.004583631 0.38443688 -0.6086158
0000c0 b6 e3 ef 3e f5 f7 ce bf ae 8f 1d bf 32 1f a3 3d
       0.46853417 -1.616942 -0.6154736 0.079649344
0000d0 e9 9d 06 bd 0d c2 53 3e 8c 2e af 3d 62 c8 dd bf
       -0.03286544 0.20679493 0.085538 -1.7326777
0000e0 4d af 17 3d 2e c7 1a bd 5a fe 69 bd 32 8b 66 3c
       0.037032414 -0.03778761 -0.057127334 0.014071273
0000f0 be 75 04 bd 6e 53 08 3f 9c f1 f0 bc 04 59 9c 3e
       -0.03233885 0.53252304 -0.029412083 0.30536664
000100 4b 89 5c bd 84 a4 b7 3e 2f 95 23 bd e9 f2 af 3d
       -0.05384187 0.35867703 -0.039937194 0.08591253
000110 32 0d 06 bd a6 c6 04 3f f7 52 ec be 10 d5 99 bd
       -0.032727428 0.51865613 -0.46157047 -0.075113416
000120 2e b5 1e bf 5f 72 5c be 3b 6f a2 bf 0b ed d1 bc
       -0.6199521 -0.21528004 -1.2690195 -0.025625726
000130 86 b3 8a bd a6 e0 03 bf 43 53 ad be 6c fc 57 3e
       -0.06772523 -0.5151466 -0.33852586 0.21092385
000140 a8 d0 ad 3d fc d2 51 bc fc 26 d4 bf b8 8c 41 bd
       0.08487064 -0.01280665 -1.6574397 -0.04725334
000150 da 85 2d bc 99 a2 33 3e ee 10 81 3d 63 b0 4d 3c
       -0.010590995 0.17542495 0.06302057 0.012554261
000160 db ed cd bf 83 60 5c bd 3d 37 68 bd c9 cd f1 bc
       -1.6088213 -0.05380298 -0.056693304 -0.029517071
000170 4f 3a a2 be 62 84 e9 bd 07 b4 17 3f 4f b2 07 3f
       -0.3168511 -0.11402203 0.59259075 0.5300645
000180 bc ac 86 bd c7 13 97 bd 73 aa 28 bd 78 d3 ea bc
       -0.06575915 -0.07376819 -0.041178178 -0.02866529
000190 0b 12 ce bf 07 d0 65 bd ed e0 61 c0 e4 cd 9a bf
       -1.6099256 -0.056106593 -3.5293534 -1.2094083
0001a0 46 1f 05 3f a9 f2 e9 be 3b 8b fe 3e 56 9a 48 3c
       0.52000844 -0.45692948 0.497156 0.012243828
0001b0 33 59 46 bf b2 77 f2 3b d3 e0 47 bd 0b d7 dd 3e
       -0.7747986 0.0073995227 -0.048798393 0.43328127
0001c0 2e e3 b9 3c 37 fa 8a be e2 d6 ac 3d 0b 87 b3 be
       0.022691336 -0.27144024 0.08439423 -0.35063967
0001d0 9c e9 e6 3e d4 36 f0 3d 32 80 ad be 0f ad 5c be
       0.45100105 0.11729208 -0.33886868 -0.21550392
0001e0 56 49 1c bd a5 85 d1 be 22 96 0a bf 42 e9 84 bd
       -0.038155876 -0.40922275 -0.54135334 -0.06489803
0001f0 2d d4 02 bf 27 a2 0f 3f 18 ba fc bc cf 26 a4 3e
       -0.51105005 0.561068 -0.030850455 0.3206086
000200 77 15 84 3d 8f b4 1b be 6e 23 78 be 66 f6 83 bf
       0.064494066 -0.15205596 -0.24232265 -1.030957
000210 0d 49 0c 3f f3 b0 3e bd be 05 47 3d 13 d4 ca 3e
       0.54798967 -0.04655547 0.04858946 0.39614925
000220 01 cf e2 bc db 7c c5 3c a2 b8 25 3e 2c c9 53 bd
       -0.027686598 0.024107387 0.16183713 -0.051705524
000230 f3 b5 37 bd 50 b0 5c 3d 9f b5 6f 3d 2c 78 0d 3f
       -0.044851255 0.053879082 0.058522817 0.5526149
000240 83 33 b2 3e b6 da 64 3d 53 9c 1a bf 7e 40 06 bf
       0.34804925 0.05587264 -0.6039478 -0.5244216
000250 8a 36 94 be b9 e2 02 3f 70 f5 e5 3e d0 5d 91 3c
       -0.2894786 0.511272 0.44913816 0.017744929
000260 ef dc 92 bd 7b 25 3e bd ce 7c e2 3e 3d 19 af 3c
       -0.07171046 -0.046422463 0.44235843 0.02137434
000270 3d 94 35 3d b2 eb 93 be 73 4f 10 3d af cc e1 3e
       0.044330824 -0.2889076 0.03523202 0.44101474
000280 b1 63 21 bc 6b 2f 46 3c 5b ad 1d bd 78 57 24 bf
       -0.009850428 0.012096266 -0.038495403 -0.64195967
000290 44 e9 29 3f 31 82 13 3f bf e0 04 3d 80 41 b4 bc
       0.6637156 0.5762053 0.032440897 -0.02200389
0002a0 a5 2a 03 3d 15 0b 69 bf 32 84 ba bf da d6 ca 3e
       0.03202309 -0.91032535 -1.4571593 0.39617044
0002b0 b0 97 b0 3e 33 cc 2b 3d 28 2d ae 3e 69 7e 4e be
       0.34490728 0.041942786 0.34018826 -0.20165409
0002c0 53 79 1d 3f b0 8d 9e bf 27 4e b1 3d 5f 53 57 3d
       0.6151325 -1.238699 0.086574845 0.052569743
0002d0 1a 1c fb 3c 7c 70 10 3f 9a dc c6 be 32 3c 99 bf
       0.030653048 0.5642164 -0.3884018 -1.1971495
0002e0 3f 9b a8 3e 26 c0 1d bd 5d e7 88 3d e2 a9 a8 3c
       0.32930943 -0.038513325 0.06684754 0.020588819
0002f0 3a 24 8a 3d e0 98 0a 3f a0 67 1b 3d 4a d2 44 be
       0.06745191 0.5413952 0.03794062 -0.19220844
000300 4c 9d 40 3d 67 9d 93 3e de 2e 12 bc be 89 a6 3d
       0.04702501 0.28831026 -0.008922307 0.08131741
000310 d4 14 17 3d 2a c1 0b 3f df 50 0c bf 29 50 bf 3c
       0.036885098 0.5459162 -0.548109 0.023353653
000320 6e 31 3a bf 9c 16 3c be 20 9a 61 bf d1 c1 ac bb
       -0.72731674 -0.18368 -0.881258 -0.005272128
000330 14 57 35 3d 3f 92 90 bf a5 8a b7 be 2c 7b 01 bf
       0.044272497 -1.1294631 -0.35847965 -0.5057857
000340 7e 7b 81 3c c4 f6 88 3d 29 72 9e bf bf e6 46 3d
       0.015805956 0.06687692 -1.2378589 0.0485599
000350 07 b1 14 3d 6d 4f ba 3e ca a9 56 3d aa c7 b5 3b
       0.03630164 0.36388722 0.052408017 0.0055474835
000360 6c d1 8b bf 85 94 45 bd a0 cb 0d 3d 52 f7 d8 bc
       -1.0923285 -0.048237342 0.03461802 -0.026485119
000370 18 9c 68 bf 8b c9 4c bf c6 48 21 3f d2 c0 a5 3e
       -0.9086318 -0.7999503 0.6300167 0.32373673
000380 7e a3 8c 3d 4e d4 f9 3c 0c 5c 37 3c 40 f6 ad 3c
       0.06867121 0.030496743 0.011191379 0.021235585
000390 72 38 67 bf 02 95 34 bd 97 fb a1 bd 83 56 9a bf
       -0.90320504 -0.044087417 -0.07909315 -1.2057651
0003a0 31 1d 16 3f 15 49 e7 be 90 16 05 3f c7 2e 5d bd
       0.5863829 -0.45172945 0.5198755 -0.05399969
0003b0 2d e3 90 3e df 10 26 3d 10 f8 1e bd a4 67 ce 3e
       0.2829832 0.040543433 -0.03881079 0.40313447
0003c0 59 a2 82 3b 4f a4 43 bf 2a 4e 8a 3d fa 95 6a bf
       0.0039866385 -0.7642259 0.0675319 -0.91635096
0003d0 32 f4 b4 3e 72 98 5b bf f6 12 80 bf 89 72 c0 3e
       0.35342556 -0.8577949 -1.0005786 0.37587383
0003e0 3b 2f 95 3c 15 ce 41 bf cb 82 8c bf 8b 1e 91 bb
       0.018210998 -0.7570508 -1.0977415 -0.00442869
0003f0 78 d9 12 bf f9 51 a7 3d 75 1d 57 3b 64 2c c2 3f
       -0.5736308 0.08169932 0.0032823954 1.5169797

network.4.bias f4 [3]
000000 75 ab a4 3c 41 ab e7 3e 52 cc 93 3e
       0.020101288 0.45247844 0.28866822

network.0.weight f4 [128, 8]
000000 5d 0c 47 3e 46 de 06 3e 42 06 94 3e bf 91 ad 3d
       0.1943831 0.13170728 0.28911024 0.084750645
000010 d5 d3 66 be 40 b4 14 3e 25 0d 3c 3e ce 2c 8d 3e
       -0.22541745 0.14521885 0.18364389 0.27573246
000020 83 0f b8 be e2 3e bd 3e e7 7c 58 3e 2e d2 fb bd
       -0.35949335 0.36962038 0.21141396 -0.12295948
000030 99 78 f6 3e 5a 9a f2 be 84 26 9b 3e a0 6d 0d be
       0.48138884 -0.47383386 0.30302823 -0.1381135
000040 d3 0d 40 bf e0 fb 1b 3f cb 16 f4 bd 52 c6 33 be
       -0.75021094 0.60931206 -0.1191841 -0.17556122
000050 0e da 8d 3e a6 6b 27 3f 3c 6f fe 3e 18 a0 ac 3e
       0.27705425 0.65398633 0.4969424 0.33715892
000060 65 43 02 3f 65 99 62 bf 34 8e 12 3f f6 5a b5 3e
       0.50884086 -0.8851531 0.57248235 0.3542096
000070 de 91 58 bd 6a f1 01 bf 11 d9 86 3e 18 ea 8c be
       -0.052873485 -0.50758994 0.26337484 -0.2752235
000080 06 da 40 bf 4d 8f 9a 3e 87 c1 ad be ae 86 89 3e
       -0.7533268 0.30187455 -0.33936712 0.26860565
000090 e1 b1 01 3e 2e 56 5d 3f a7 1a ab 3d b7 ab d0 3d
       0.12665512 0.86459625 0.08354693 0.10189002
0000a0 05 39 7b 3e 5d 8a e8 bd 3f 90 8a 3e 2f ea fe 3d
       0.2453347 -0.11354516 0.27063176 0.12447011
0000b0 1e 7a 49 bb aa a2 b7 bd cc 9d 15 be bf 40 b2 be
       -0.0030742954 -0.089665726 -0.14610976 -0.34815022
0000c0 38 0b 05 be 10 99 90 3e 69 fd e1 bd ea 6e 0e bf
       -0.12992561 0.28241777 -0.11034662 -0.5563799
0000d0 11 da 13 be 85 1a 38 3f d8 36 4f 3e af dc 3d 3f
       -0.14438654 0.71915466 0.20235765 0.7416486
0000e0 02 65 ed 3d 86 de 2f 3f e7 f8 03 bf e0 f0 c6 be
       0.11591531 0.6869892 -0.5155167 -0.38855648
0000f0 23 53 e0 bd 33 01 05 bc d5 38 de 3e 2a b5 2f 3d
       -0.10953357 -0.008117962 0.43402734 0.04289738
000100 18 45 85 bf 89 ec 3d 3e a1 74 44 bf 7c ca a2 be
       -1.0411711 0.18547262 -0.7674046 -0.31795108
000110 e2 b5 3a 3f b4 14 7b 3f 45 83 c7 3d 20 ce 62 3e
       0.7293378 0.98078465 0.097418346 0.22148943
000120 26 64 63 3e f5 29 09 bf 40 88 af 3e f1 f9 a1 3e
       0.22206172 -0.53579646 0.34283638 0.31636003
000130 4d 60 36 bd cb 3a 0e be 3e 11 90 bf 7c db b2 3e
       -0.044525433 -0.13889615 -1.1255262 0.34933078
000140 26 af 3f bd ac 7f f9 3d 83 9c d0 3e 42 e1 bb 3e
       -0.046797894 0.121825546 0.4074441 0.36695296
000150 5c d2 90 3e 20 fb d6 3e 03 bd 13 bd d5 54 99 be
       0.2828549 0.41988468 -0.036068927 -0.29947534
000160 3e 98 1b bf 4a 40 d9 3e 84 a6 22 3e 6b fa e3 be
       -0.6077918 0.4243186 0.15883833 -0.4452699
000170 cd 7b 5c 3e 4a 46 22 3f 2a f8 be 3e dc 4f 9f 3e
       0.21531601 0.633885 0.3729871 0.31115615
000180 85 f8 ad 3e 91 25 d3 be f8 68 18 bf bf 34 3a 3f
       0.33978668 -0.41239598 -0.5953517 0.72736734
000190 38 f3 4e 3c 2a 7d e7 bd 2a fb 87 be da 8e 80 3e
       0.01263123 -0.1130317 -0.2655881 0.25108987
0001a0 59 15 a5 be 7b 31 97 3e 4a c7 7d 3d 33 c1 08 3f
       -0.3224285 0.29529938 0.061957635 0.534198
0001b0 e1 5a d3 be ff ec 62 3e 05 2d 4c 3e 74 d0 0e 3f
       -0.41280273 0.2216072 0.19939049 0.55786824
0001c0 f2 03 8a 3d 6c 0b d7 3e 2f 34 0a 3f d5 5b 13 3f
       0.06739034 0.42000902 0.53985876 0.57562
0001d0 c2 0a 8e bf 5b f3 bd 3b fe e9 d5 3c 1f 8b 79 bd
       -1.1097033 0.0057968325 0.026112553 -0.06092369
0001e0 68 9c 2f 3f 8a 6b d9 bd 54 41 a5 3e ad b8 24 be
       0.6859803 -0.106162146 0.32276404 -0.16086073
0001f0 cf 82 10 3f b8 44 a9 bd b7 55 c5 bd c2 eb 5a 3d
       0.564496 -0.0826506 -0.096354894 0.053447492
000200 64 b5 99 3e c9 cc a0 3e 78 90 1e 3f df 40 c6 3e
       0.30021203 0.3140624 0.6193919 0.38721368
000210 9f 75 20 bf 9a d9 4b 3d dc bb 65 be c3 d7 a3 be
       -0.62679476 0.049768068 -0.22434944 -0.3200055
000220 0d ab 91 3d 4a fb d8 3d d9 70 72 3e af 49 06 3f
       0.071127035 0.105948046 0.2367586 0.5245618
000230 bc 22 90 3e 4d 72 d5 3c 51 7c 26 be eb 36 1a 3e
       0.281515 0.02605548 -0.1625836 0.15060012
000240 76 9f d8 be b7 db f7 3e 23 22 50 3c 37 e7 db 3e
       -0.4230916 0.48409817 0.012703451 0.4294984
000250 e1 b0 1a 3d 89 9b 32 bf 95 5a 79 be ca 6b 03 bf
       0.03776634 -0.6976858 -0.2435096 -0.5133635
000260 05 ec b2 3d dd 7b 9a 3d 5c 4a ad 3e 0e 79 77 be
       0.087364234 0.07543156 0.33845794 -0.24167272
000270 7a b6 19 c0 ec 09 12 bd 5f 97 a0 3e 93 c8 98 3b
       -2.4017625 -0.035653993 0.31365487 0.004662582
000280 07 25 87 3e 29 39 9f be 93 fd 35 3e bd 1c 18 3e
       0.26395437 -0.31098297 0.17772512 0.14854713
000290 b0 bc cb 3d e4 ad e3 bd 4f a7 bc be 7d 2e fe 3e
       0.09948099 -0.111171514 -0.36846396 0.49644843
0002a0 d0 b6 a6 be 1e ff 1b 3c 77 60 87 3e 2c c6 98 3d
       -0.3256135 0.009521274 0.26440784 0.07459673
0002b0 a4 fe 63 c0 d1 ff ec bb 74 1d 0a 3e 0e b7 c1 bc
       -3.562417 -0.007232644 0.13487798 -0.023646858
0002c0 90 00 21 39 3d 7f 26 bf 29 9e 94 3e e5 54 08 3f
       0.00015354366 -0.650379 0.29026917 0.5325454
0002d0 11 11 76 3e f1 52 3a 3e 91 d8 ff 3e 89 2a a3 be
       0.24029948 0.18195702 0.49969915 -0.3186839
0002e0 45 53 20 3f 8f a2 c5 bd 8f d8 27 3e 00 b0 66 be
       0.6262706 -0.09650146 0.16391204 -0.22528076
0002f0 ad d4 09 3f 6d 8f 1a be f0 2b 62 be 23 7b c4 3d
       0.5384014 -0.15093775 -0.22087073 0.09593799
000300 6c 20 22 be 91 f6 d3 3e ea 2f 9c 3e c7 48 0c bf
       -0.1583268 0.41399053 0.30505306 -0.5479855
000310 31 33 f3 3e 03 6d 27 3e 72 fd 78 be df af f0 be
       0.47499993 0.16350178 -0.24315432 -0.4700918
000320 4c 27 7f be 9f 63 07 3d 1d b1 07 3e a9 c3 be be
       -0.24917334 0.03305399 0.13251157 -0.37258652
000330 2c e6 11 3e 3d e2 76 3e 22 68 a3 3c ce e4 5c 3d
       0.1424796 0.2410974 0.019947115 0.053929143
000340 7f 9a b5 3d 99 88 74 3e 81 bc 32 3d b4 d3 e0 3d
       0.088673584 0.23880233 0.043636803 0.10977879
000350 5f fd 5f 3e 07 dc 6d be c4 a3 17 be 3b f7 d6 3c
       0.21873997 -0.23228465 -0.14808565 0.026240936
000360 18 f9 6f 3e ee 76 91 be 2c 0c 86 3e d5 2d a7 3e
       0.23434865 -0.2841105 0.2618116 0.32652155
000370 68 e3 d0 bf 7a 5e 44 be b4 7b 8c 3e da e2 79 be
       -1.6319399 -0.19176665 0.27438128 -0.24402943
000380 f4 a5 30 3f f7 c4 4a bd c4 3b 63 be 21 2a 4d be
       0.69003224 -0.049504247 -0.22190768 -0.20035602
000390 6d 0e de 3d 38 d4 41 3d eb 4a 1d bd 02 89 84 bc
       0.10842595 0.04732153 -0.038401525 -0.016178612
0003a0 e7 c5 e6 3e 58 96 56 3e db f8 e3 be 4d be 34 bf
       0.45072863 0.20955789 -0.445258 -0.70602876
0003b0 37 b9 f1 3e 74 c9 ea bd da 04 10 bf 1a 45 a5 3e
       0.4721162 -0.114642054 -0.562574 0.32279283
0003c0 38 8b 17 3f bf b3 ad be c5 c8 f0 3e ce 75 24 be
       0.59196806 -0.33926198 0.47028175 -0.16060564
0003d0 6e 37 a8 3d aa 4e d9 3d 70 0d fe be e8 36 23 be
       0.082136974 0.10610707 -0.49619627 -0.15938914
0003e0 ec 33 f7 3e c3 60 d1 be fb a4 ce 3e 1e c2 2a bc
       0.482818 -0.40894136 0.40360245 -0.010422258
0003f0 76 7e 1f 3f fd 66 0b 3e 7b 4a 74 3e 75 5b dd bc
       0.6230234 0.13613506 0.23856537 -0.02702115

network.0.bias f4 [128]
000000 1b 53 de 3e 58 e4 05 3f f3 5f 83 be 97 3c 99 be
       0.4342278 0.5230155 -0.2565914 -0.2992904
000010 16 ac 2d be b9 16 3b 3f 4a 09 ea be 5a 0a c4 3e
       -0.16960177 0.7308155 -0.45710212 0.38289148
000020 ae c3 81 3e 7c 1e 75 3e 28 11 22 3f 69 52 37 be
       0.25344604 0.2393741 0.6330743 -0.1790253
000030 19 52 e8 3c 46 3f c7 3e 19 36 48 3d f2 14 a2 be
       0.02835946 0.3891546 0.048879717 -0.31656605
000040 e3 93 9c be bf b6 3f 3e c7 21 e3 3e ca 74 a1 bd
       -0.3058158 0.18722056 0.44361708 -0.07883604
000050 f5 15 86 3e 95 62 62 3e fb 10 d1 bd 24 a2 f7 bd
       0.26188627 0.22107919 -0.10208317 -0.12091473
000060 fa 23 88 3e 4f 43 13 3f 87 17 2c 3f 31 0d bf 3b
       0.26589948 0.5752458 0.672234 0.00583043
000070 3c bd e8 3d dc be 82 bd 0b 91 bf 3e 0b 8b 53 be
       0.113642186 -0.0638406 0.37415347 -0.2065851
000080 d1 8e 94 bc 24 14 f8 3d c6 e4 f0 be d2 03 99 3e
       -0.018134506 0.121132165 -0.4704954 0.29885727
000090 2d 8c 90 bd 05 0d 1a 3b d6 a4 8a be c5 81 a3 be
       -0.070579864 0.0023506295 -0.27078885 -0.31934944
0000a0 2e dd 4b 3f 1d 53 2a bc 15 62 21 3e 38 af cf 3b
       0.7963437 -0.010395792 0.15760072 0.0063380264
0000b0 a1 23 0e be 46 61 fa 3e 5f 72 fd 3e b5 13 68 3e
       -0.13880779 0.4890234 0.4950132 0.22663768
0000c0 dc 01 5b 3e 1a 9e 4f 3e f4 0b a0 be fd 8c 0a 3e
       0.21387428 0.20275155 -0.3125912 0.13530345
0000d0 4c 63 c9 3e 4f 59 0b 3f ac 45 46 3f 95 84 f7 3e
       0.3933357 0.5443315 0.7745006 0.4834334
0000e0 f6 6b 95 bc bd 54 25 3f 26 17 22 3f 80 0f a0 bd
       -0.018239956 0.64582425 0.6331657 -0.078154564
0000f0 5d db 1f 3f 56 1b 71 3c 95 3e 7b 3d 24 19 1e bd
       0.62444097 0.01471599 0.06133898 -0.038598195
000100 07 62 25 3e c7 2a 3f 3f 58 d9 6f 3e 02 60 02 3f
       0.16150676 0.7467465 0.23422754 0.50927746
000110 08 13 2b 3d 6f bd 95 3e 84 25 88 3a 5f 7f 93 bd
       0.041766196 0.2924609 0.0010387157 -0.072020285
000120 8c dd 65 3e 88 83 b0 be 9e 82 bb bd cf 62 15 bc
       0.22447795 -0.3447535 -0.091557726 -0.009117796
000130 24 6f 87 be 5b eb 60 be 79 15 2e 3f c4 75 05 3e
       -0.2645198 -0.21964781 0.68001515 0.13033205
000140 57 1b b4 3e e4 ca 9e 3e 01 b5 57 be 84 34 b3 3e
       0.3517711 0.31014168 -0.21065141 0.35001004
000150 52 13 77 3e 4a ab dc 3d af 96 79 be 16 51 36 3d
       0.24128464 0.10774858 -0.24373887 0.044510923
000160 d6 c4 1e 3f 32 94 f9 3e 93 75 d6 be 7a 2f 16 3e
       0.620191 0.48745877 -0.41886577 0.14666548
000170 77 20 01 3f 20 92 f7 be 8e ea 38 3e 87 90 1a 3d
       0.5044016 -0.48353672 0.18058226 0.03773549
000180 20 ba a2 be 57 17 b3 3e 91 25 39 3e 41 b2 db 3e
       -0.31782627 0.34978744 0.18080737 0.42909434
000190 e8 7d d3 3d b3 f9 3e 3e bb 61 2e 3e 0b 3e da be
       0.10326749 0.1864994 0.17029469 -0.4262546
0001a0 ac 9b ff 3e 0f 53 6b bd 4e 40 1c 3f d4 ce 05 be
       0.49923456 -0.057452258 0.6103562 -0.1306718
0001b0 a4 8f 11 3c 1c a6 2b 3e e8 90 8c 3e 37 df c7 3e
       0.008884344 0.16762584 0.27454305 0.39037487
0001c0 f4 bf 38 bd 66 5f 8c 3b 79 ce bd 3e 47 9d d3 bd
       -0.045104936 0.0042838333 0.3707159 -0.10332733
0001d0 3b 08 ca 3e 6a ad c7 bd a7 22 b4 3e 0c 2f 0a 3e
       0.39459404 -0.09749873 0.35182688 0.1349451
0001e0 91 76 3f 3e 1c 29 96 be bb b2 9c 3d 70 aa 30 3f
       0.18697573 -0.2932824 0.07651278 0.69010067
0001f0 aa 0d 3a bd 52 5d 80 3e 4b 2b 45 3f 37 65 af be
       -0.045423187 0.25071198 0.77019185 -0.34256908

network.2.weight f4 [128, 128]
000000 4e ed 20 3d 26 f6 21 3d 9a a1 10 3d dc 43 7e bd
       0.03928881 0.039541386 0.035310365 -0.062076434
000010 62 fb d2 bc 5f cb 28 bc 6a 0a 2b bd 1f 5f a0 bc
       -0.025754634 -0.010302394 -0.04175798 -0.019576607
000020 38 50 bf bd 42 c3 5f bd 97 e2 a4 bd 96 b4 48 bc
       -0.093414724 -0.05462957 -0.08051031 -0.012250086
000030 c3 33 79 3d 20 ad 45 3d 0e 60 91 bd 45 ae 88 bd
       0.06084038 0.048260808 -0.07098399 -0.06673864
000040 a5 42 8f bd 3b 60 ff 3b 2c b9 72 bd 9c 9e 8b 3c
       -0.06995133 0.007793454 -0.059258625 0.017043404
000050 6f 0f b9 3c 09 7c 52 3c 30 ac bb bd d1 66 98 bd
       0.022590367 0.012846955 -0.091637015 -0.07441486
000060 e6 56 15 bd c1 2b 40 ba 3b 18 72 3d d1 21 44 bd
       -0.036459826 -0.00073307386 0.05910514 -0.047883812
000070 40 30 b9 bc 6f ea 47 3d 45 e5 9c 3d c8 a8 3d bd
       -0.022606015 0.048807558 0.07660917 -0.04630354
000080 9f 3b a8 bc 7c 69 8b 3d 64 f1 0e 3d d9 b3 4a bd
       -0.020536242 0.06807229 0.034898177 -0.049487922
000090 a5 c7 16 3d 4b 23 66 bc 66 3d 93 3b 70 89 a5 3b
       0.03681149 -0.0140465 0.0044934032 0.005051784
0000a0 d3 ba 69 bc 21 df c5 bc 1c 6c 89 3a e9 0a 43 bd
       -0.014265734 -0.024154248 0.001048449 -0.047617827
0000b0 c4 18 8a 3d cf 66 ac bd 26 2a 2a 3d d0 5c b6 bc
       0.06743005 -0.08418047 0.041544102 -0.022261053
0000c0 9e 09 28 3d d9 d4 51 3d e1 f8 48 bd 19 1b 58 3d
       0.041024797 0.051228378 -0.049065474 0.052760217
0000d0 a3 4a e4 bc 0c 06 c7 bc 88 87 4e 3c 2f 7e b2 3c
       -0.02786762 -0.024294876 0.012605555 0.021788685
0000e0 06 54 96 bd fe 09 9d bc ed 72 85 bd 48 ee 40 3d
       -0.07340245 -0.019169804 -0.06516061 0.047102243
0000f0 50 1e 36 bb 29 75 c3 bd 0e 32 21 3c 5f 4b 35 3d
       -0.0027789064 -0.09543831 0.009838594 0.044261333
000100 a3 23 f7 3c 47 75 b7 3c 56 16 13 bd 7a 8a 80 3d
       0.03016836 0.02239479 -0.035909973 0.06276412
000110 ba 5c 58 bd ac 34 86 3c cd c1 88 bd d5 7a 15 3d
       -0.052822806 0.016382538 -0.066775896 0.036494095
000120 30 66 9c bd aa e0 47 3d 84 3d 87 3d 9a c3 57 bd
       -0.07636678 0.04879824 0.0660353 -0.052676775
000130 c1 51 c2 bd 31 9e 8f bd cd f4 0c bc 1f 21 3b 3d
       -0.094882496 -0.070125945 -0.008603287 0.045685884
000140 71 cb 54 3d 3d 75 88 bc f9 5d 5d 3d de b3 95 bd
       0.05195183 -0.016657466 0.054044697 -0.073096976
000150 d9 9a 4a bd 34 14 cd 3c 65 64 99 3c 4e 54 ad 3c
       -0.04946408 0.025034048 0.01872463 0.021158364
000160 ea 09 d8 bd 0c fa 88 3c de 96 8d 3c db a9 6d bc
       -0.10548766 0.016720794 0.017283853 -0.014505829
000170 16 c1 22 bd fa 5a ea 3c c2 08 63 3c a2 2f dc bb
       -0.039734922 0.028607834 0.0138570685 -0.0067195455
000180 4c 6a ee bc e0 2a 49 3b 0c 20 0b 3d b1 40 4f bd
       -0.02910342 0.0030695722 0.03396611 -0.050598804
000190 89 39 a8 3d 36 f7 9f bd 08 fa bd bd cc a9 0c 3d
       0.08214099 -0.078108236 -0.09276205 0.03434162
0001a0 5d 19 03 bd 38 5b b9 bd 61 fa ce bd 38 d8 39 bc
       -0.03200661 -0.09050602 -0.1010635 -0.0113430545
0001b0 b5 69 8f bc 2e 51 94 bd ac 40 84 3d 6f 91 34 3d
       -0.01750646 -0.07242046 0.06457648 0.04408401
0001c0 bb 45 00 bd fe fa 92 ba 2b e1 e3 bc 79 20 c8 bc
       -0.0313165 -0.0011213718 -0.02781733 -0.024429547
0001d0 10 ec b4 bc 6c 40 03 3d 82 71 5d bd 65 4a 95 3d
       -0.02208522 0.03204386 -0.054063328 0.0728958
0001e0 4a 24 ea 3c 89 e3 c7 bc d8 68 ca 3b 8a 69 6c 3b
       0.028581757 -0.02440049 0.006177049 0.0036073648
0001f0 8d 09 95 3d b0 ff 44 3d a5 b8 0c bd f2 f9 94 bd
       0.07277212 0.048095405 -0.03435578 -0.07274236
000200 96 99 45 3e 7e 36 8c be 17 5c b6 3e 58 64 26 3e
       0.1929687 -0.27385324 0.35617134 0.16249216
000210 00 88 9e 3e 90 9d 83 be 3d 69 78 3f 4e 57 4a be
       0.30963135 -0.25706148 0.9703558 -0.19759867
000220 7c 04 ce bd 62 5a e0 3e 04 7e 9a bd 3f 9f 46 3e
       -0.10059449 0.43818957 -0.07543567 0.19396685
000230 f7 46 63 3e 92 32 97 3e 89 75 a3 3e 11 7d f9 3e
       0.2219504 0.2953077 0.3192561 0.4872823
000240 ae 6a 90 3e 26 61 e1 3d 45 8f 20 be 4d e9 08 3c
       0.2820639 0.11004858 -0.15679653 0.0083564045
000250 65 50 cc 3e 24 d3 f7 be 6d 67 21 bf bb e4 c4 3d
       0.39905086 -0.48403275 -0.6304844 0.096139394
000260 b3 07 0e bf 6e 9a b6 be ba 0f 72 bd 83 f6 32 3d
       -0.554805 -0.35664696 -0.05909703 0.043692123
000270 fc 18 4b 3d 14 87 d8 3e 97 47 89 3e 77 e9 d8 be
       0.049584374 0.42290556 0.2681243 -0.4236562
000280 f1 46 85 3e 58 57 73 3e 4c 5a a4 3e eb 75 62 3e
       0.26030686 0.23763788 0.3210014 0.22115295
000290 9f f1 1c bf e1 d7 03 bf 5a c4 3c bd 5d 9c 30 3c
       -0.61306185 -0.5150128 -0.046085693 0.010779467
0002a0 24 94 c3 bd d0 62 e6 3e f7 19 01 bf ea fe 20 3f
       -0.0954974 0.44997263 -0.50430244 0.6288897
0002b0 fe 5e 6c 3e f3 3d ff 3d 45 a6 2c 3e 20 d0 3a 3e
       0.23083112 0.12462988 0.16860302 0.18243456
0002c0 82 f7 94 3d 24 d4 f2 be d2 b5 53 bd 99 c4 e6 be
       0.07273771 -0.47427475 -0.05168707 -0.45071867
0002d0 47 e3 14 3e 3d 41 9f 3e a5 44 e1 bd 9b bb 36 3e
       0.14539824 0.3110446 -0.10999421 0.17845003
0002e0 04 1c a4 3e 52 3a 0e 3e d6 d6 8f bd 93 ea 04 3e
       0.32052624 0.13889435 -0.070233986 0.12980108
0002f0 61 e9 bb 3d 72 df 99 bf a3 a0 e4 bf f7 2a 97 3e
       0.09175373 -1.2021315 -1.7861522 0.29524967
000300 55 50 ec be 73 5d eb bc 6c b8 53 bf 87 aa a1 3e
       -0.46155038 -0.028731083 -0.8270328 0.31575415
000310 6b de 26 bd be 23 a2 3e 8e 9a 2b bf 80 14 51 bf
       -0.040739458 0.31667894 -0.67032707 -0.81671906
000320 2d 88 40 bf f9 07 36 bd 2e 09 b4 be 3f 49 d4 bf
       -0.7520779 -0.044441197 -0.35163254 -1.6584853
000330 44 e3 a5 3e 33 f8 62 3d f0 10 41 bd b6 f6 c0 3d
       0.32399952 0.055412482 -0.047135293 0.094220564
000340 f3 9d 16 bf fe 6b a5 3e b7 45 65 bf fa 4d 1c 3c
       -0.5883476 0.32308954 -0.895595 0.009540075
000350 c2 99 83 3e 34 2f da 3e df 0b 1f bf c4 0f 46 bf
       0.25703245 0.42614138 -0.6212749 -0.77367806
000360 c7 75 08 bf 7a 29 74 3d 02 1b 72 3f ab 48 e0 3c
       -0.53304714 0.059609868 0.9457246 0.0273784
000370 8e 0d 06 bf 85 71 63 3e 6d 6d ab 3e ef ba 58 3e
       -0.5236443 0.22211273 0.33481923 0.2116506
000380 c1 3c 8b 3d 9e 29 34 3e 0b e9 a4 bd 3a 24 d9 be
       0.06798697 0.17594 -0.08052262 -0.4241045
000390 c1 7d 5d bf 9c c1 c0 be 8f 7d b0 bb 5d 2e 9f be
       -0.8652001 -0.37647712 -0.0053860615 -0.3109006
0003a0 17 77 12 bd 13 c3 78 3e 35 e1 b0 3d 8d 3a fe 3e
       -0.035758104 0.24293165 0.08636705 0.49654046
0003b0 2e f9 5c 3e 67 45 ca 3e e2 7a 83 bf 4d d3 2c 3e
       0.2157943 0.39506075 -1.0271876 0.1687748
0003c0 53 32 17 3d 9f 07 5c bf 6b 1e a2 be 42 1c 07 bf
       0.036913227 -0.8594913 -0.31663832 -0.52777493
0003d0 72 35 e3 3d 7f db b1 3e a5 3d 44 3e e2 e4 6b 3e
       0.11094178 0.34737775 0.1916414 0.2303653
0003e0 66 66 5a be 4b 29 c3 be c5 8a 03 3e a7 7d 92 bd
       -0.21328124 -0.38117442 0.12845905 -0.071528725
0003f0 96 e6 f6 3e 2c c1 ae 3e 76 9c c6 3d 60 dd be 3d
       0.48222798 0.34131753 0.09697811 0.09319568

network.2.bias f4 [128]
000000 5a 15 da b9 57 8b 67 bd 5f 9f 6c be e4 28 dd bd
       -0.00041596108 -0.05652937 -0.2310767 -0.10798815
000010 b2 8a 12 3f e8 ef b9 bd 53 64 ed bc 62 0b 0d 3f
       0.5724288 -0.090789616 -0.028978502 0.55095494
000020 2d b0 80 bb 9e c5 11 bd 1b 2f 80 3e f0 5c c3 3b
       -0.003927252 -0.035588853 0.2503594 0.0059620067
000030 c6 21 2e 3d 9d 96 9d 3c d7 f0 ab bd cf 11 91 3e
       0.042512678 0.019236857 -0.08395546 0.283339
000040 03 4c f2 3e 9a 02 5a bd 4d a6 a5 bd 2b ae 86 be
       0.47323617 -0.053225137 -0.0808836 -0.26304755
000050 be ce 1d be 7f b7 9c 3e 4b db 8c 3e 1d f6 8b bd
       -0.15410897 0.30608746 0.27511057 -0.06834052
000060 39 46 49 bd 0a 1c 62 3d 35 f5 88 3e ca 85 60 3c
       -0.049139235 0.05520252 0.26749578 0.013703773
000070 3d f2 b3 3b 94 99 20 be 1e 7e 9f bd cf bb 24 3e
       0.0054915235 -0.15683585 -0.07787727 0.16087268
000080 9e e4 a9 3c 0b 1c e2 bb 2b 56 80 3d 89 89 0d be
       0.020738896 -0.0069003156 0.06266435 -0.13821997
000090 86 17 11 3f 7e 34 18 3f 66 68 90 bd 0e fd 14 bd
       0.5667652 0.59455097 -0.070511624 -0.036374144
0000a0 b8 d0 e1 bc ca 7b a4 bd 66 e6 6c bd 1c d0 20 3e
       -0.027565345 -0.080314234 -0.057836913 0.15704387
0000b0 e8 8a 0c 3f 42 85 61 3d 0a 03 c3 3c cb ee 4f 3e
       0.54899454 0.055058725 0.02380516 0.20305936
0000c0 d9 e0 09 3f 94 05 47 be 93 82 f2 bd 3d 88 89 bd
       0.53858715 -0.19435722 -0.11841311 -0.067154385
0000d0 34 61 86 3d 05 5d b5 3e 63 76 04 be 34 f8 51 be
       0.06561509 0.3542253 -0.12935786 -0.20504838
0000e0 c5 a2 04 3e 6e 65 b1 bd 39 c7 40 bd e2 bc 83 3d
       0.12952717 -0.08661924 -0.047064994 0.06432511
0000f0 b2 b8 ed 3c 7a b8 21 3f 42 8b 60 3d ee fc f8 bc
       0.029018734 0.63172114 0.054820307 -0.030394044
000100 67 e4 3e 3d a1 a3 86 3e cf 5d 21 bd b1 6b a7 bd
       0.04660454 0.26296714 -0.039396103 -0.081748374
000110 c0 d6 b0 bd 9e 23 e0 3e 1f 31 97 be 90 1f bb bd
       -0.0863471 0.43777174 -0.29529664 -0.091368794
000120 ca 72 37 be 85 5f 4e be e3 b5 4f bd a1 91 22 bd
       -0.17914882 -0.20153625 -0.05071057 -0.039689664
000130 6e 74 a4 3b ab dc 16 be 58 c8 68 be 1f 13 f7 bd
       0.0050187623 -0.14732616 -0.22732675 -0.12064194
000140 b6 d4 92 bb d5 31 9d 3c 89 b9 41 be a9 76 49 bd
       -0.0044809235 0.0191888 -0.18918432 -0.04918543
000150 89 78 44 bd 12 15 a3 3d c2 8c 66 3d 0c c7 84 3d
       -0.047966514 0.07963003 0.05628658 0.06483278
000160 ae ed ad bd cf 7e 28 bd 58 82 bf bc b0 77 b1 bd
       -0.084925994 -0.04113656 -0.023377582 -0.08665407
000170 0c f7 33 be 45 7e 16 bd 23 8a 04 3f 28 97 cf 3e
       -0.1757471 -0.036741514 0.5177328 0.4054501
000180 c4 3c 84 3c 32 a6 d5 bd 03 22 c9 bb 75 5d 90 3d
       0.016142257 -0.1043209 -0.0061380877 0.070490755
000190 78 5c bd bd 3c fa 76 bd 79 7c 02 be a6 e4 e8 bd
       -0.09246153 -0.060297236 -0.12742795 -0.11371736
0001a0 3e fd ae 3e 54 94 37 be df 73 16 3f b7 29 82 bd
       0.34177583 -0.17927676 0.58770555 -0.06355613
0001b0 fc ce 24 bd cd 1b 93 3d 19 94 c8 bc 51 ee cb 3d
       -0.04023646 0.07183037 -0.024484681 0.099575646
0001c0 ac c7 3d bc 10 9b 4b be a7 1c 3f 3c d1 88 db bd
       -0.01158325 -0.1988337 0.011664546 -0.10719455
0001d0 d9 d2 0e 3f 64 f4 09 be 67 d9 11 be 63 a1 ce 3a
       0.5579048 -0.13472134 -0.14243089 0.001576465
0001e0 0a 19 56 bc 2b 8a 7d be 2f e3 64 be cc e2 0f 3d
       -0.013067493 -0.24759738 -0.22352289 0.0351284
0001f0 34 71 14 be 2a 11 3d 3e d2 15 5f bd 30 34 d9 bd
       -0.14496309 0.18463579 -0.05446417 -0.10605657
