DQN/DQN_checkpoints/dqn_checkpoint_150.pt (torch, 298901 bytes, 24 tensors)

network.0.weight f4 [128, 8]
00000000: f82f 723e ecfd 203e 2863 a63e 77c6 073e
00000010: 81bf 46be dab7 2a3e 3103 6d3e 782c 8c3e
00000020: ea6b 9ebe e8fc be3e 8b18 583e 5c5a a8bd
00000030: aedb fb3e 03b9 d4be c13d bb3e 2e79 a1bd
00000040: f0ab 1cbf 723c 063f d4e2 a6bd 679f 33be
00000050: 8582 9d3e 8af6 b83e 0c45 f03e 20fe c73e
00000060: 5254 df3e 130c 5dbf 14d9 1f3f f4e7 863e
00000070: e105 45bd 4118 5ebe 30df 4c3e 7fcc e1be
00000080: 7d4b 4ebf abf4 643e 65a3 6fbd 16ca ed3e
00000090: 9a77 0c3e 365b 1f3f 617a 7e3e 0480 853d
000000a0: 752f 833e 8fcd edbd 7105 8f3e 2903 083e
000000b0: 64e3 15bc 2f44 e1bd 8490 efbd 7b4c b0be
000000c0: 7d58 05be 1318 403e 7d0d 8dbd de10 07bf
000000d0: 627c 2a3e 4efa 2f3f a467 cd3d 7494 343f
000000e0: 7baa fd3d c0eb 2f3f c090 e5be 6418 b4be
000000f0: 9ab8 0fbe 3142 35bd 3149 b83e 9682 223d
00000100: 7d67 65bf 6c58 993e e091 12bf eb09 b5be
00000110: e389 333f c120 5c3f 93a0 9d3e 3401 ae3e
00000120: 15b6 713e 021c 04bf 1fc0 c13e a645 bf3e
00000130: c468 a43c fd7d 4bbe ad04 48bf c402 d13e
00000140: 27fe febc a872 083e 1697 d73e d86a c53e
00000150: 2e8c 963e d6b0 d53e cb9a acbb 94fb 93be
00000160: 60bd e8be cbfa c43e 8643 143e 3e16 cebe
00000170: 37f1 823e 2290 103f 4147 b33e bddd ca3e
00000180: 8407 7e3e 88cd d2be 0e9b 0cbf 1ad4 3f3f
00000190: b176 2d3d ec23 1bbe 4e3c 7abd 369b 8b3e
000001a0: 60fe b9be e4fc 8d3e c4be 5b3d 1c37 153f
000001b0: 6362 e2be b794 413e adb7 833e b0f7 063f
000001c0: b17b c13d 4d5d cf3e d6a7 0a3f 5f43 0e3f
000001d0: 9224 8ebf 576d 29bd adae e0bb e63f 8ebc
000001e0: 9c1b 283f 73aa 91bd 4dd5 8b3e 7b03 5cbe
000001f0: 4885 043f 81db c43b 675d 04be c115 443d
00000200: b41f a23e c065 ab3e 87c4 0b3f 07c0 ca3e
00000210: bd92 29bf 22e5 e63d fbee 1bbe 4985 9ebe
00000220: aa68 df3d b8b4 033e 255d 903e 6f3f 153f
00000230: 8a0a a63e ce8c 0c3d c4f6 1bbe d8c5 2a3e
00000240: 544b ecbe 3cfd e63e 78ab 61bc ea1a ea3e
00000250: 2581 d8bc bbe9 46bf 526f d4be 717c cebe
00000260: 5872 093e af5b 873d 23bd 9c3e 6537 5abe
00000270: 6296 0ac0 8b62 b8bd 7497 a03e d423 16bc
00000280: a2f4 863e 4733 a9be 67ec 503e 7d6b 333e
00000290: 5e6c d23d f1d4 28bd b84d d5be 4a62 fd3e
000002a0: e6b3 9cbe 0bd0 91bb 6a39 883e 3cab 8e3d
000002b0: 67f0 4dc0 1668 b03b 511d 0a3e 2954 5abc
000002c0: 1194 303d 10d9 0abf 58be ac3e d80f f23e
000002d0: 1354 763e 9d6c c63e 2d1c 193f 48e6 d6be
000002e0: b5d9 183f 8173 b3bd 800f 3d3e 8e94 5cbe
000002f0: c69c fd3e 1899 d8bd 7d81 87be fd4a 093e
00000300: 205e 5bbe 829c cc3e c23f 773e a554 0cbf
00000310: d18b b13e da4a 303e 3402 9cbd 840d c1be
00000320: f13d 84be a442 453d 1cf8 063e cc34 c2be
00000330: d5cb 1a3e 6425 6a3e 3f7e 193e 6000 963d
00000340: b39e d13d ad86 753e 9013 573d 15f2 fe3d
00000350: a4c4 683e fc3f 74be 97b5 d3bd 94d4 f83c
00000360: 9d04 743e ad4e 73be b1b4 7b3e 6dd1 983e
00000370: 36f1 c9bf af07 23be 0c7b 8c3e abec 7fbe
00000380: 67c8 2d3f cd21 2cbd b990 46be df0e 57be
00000390: e975 5c3d 0f7b 703d e56d bebd 1226 0abc
000003a0: c494 e73e 00a6 193e 11c9 b9be 0229 3fbf
000003b0: c73f f53e 7920 15be 2064 49bf cf3d 8d3e
000003c0: dafb 253f 8f2b b7be 25f2 fc3e 1dd1 74be
000003d0: a71c 45ba d0d5 093e f233 bebe 458e 3dbe
000003e0: dd10 ed3e b353 d0be f767 cf3e 5b58 cf3b
000003f0: 9666 153f cc89 253e 5aa4 563e a04a 45bd
0.23651111 0.15721864 0.32497525 0.13259302 -0.1940899 0.16671696 0.23145749 0.27377677
-0.30941707 0.37302327 0.21103112 -0.0822036 0.4919104 -0.41547403 0.36570552 -0.07884441
-0.61199856 0.5243598 -0.08148733 -0.17541276 0.3076364 0.36125594 0.4692768 0.3906107
0.4361902 -0.8634655 0.6244061 0.2634884 -0.04810131 -0.2168894 0.20007014 -0.4410133
-0.80583936 0.22358958 -0.058505435 0.46443242 0.137175 0.6224855 0.24851371 0.06518558
0.25622144 -0.11611473 0.2793384 0.13282456 -0.009148452 -0.10999333 -0.11697486 -0.3443335
-0.13022037 0.18759184 -0.06887338 -0.5276011 0.16649011 0.6874131 0.100295335 0.7053902
0.12386032 0.687191 -0.44836998 -0.3517486 -0.14035264 -0.04425258 0.3599334 0.039675318
-0.89611036 0.29950273 -0.5725384 -0.3535913 0.70132273 0.8598748 0.3078657 0.33985293
0.23604615 -0.51605237 0.3784189 0.37357825 0.020069487 -0.1987228 -0.78132135 0.40822423
-0.031127049 0.13324988 0.42107457 0.38558078 0.29403824 0.41736478 -0.005267476 -0.28902876
-0.45456982 0.3847259 0.14478883 -0.40251344 0.25574657 0.5646993 0.350153 0.39622298
0.24807554 -0.41172433 -0.54924095 0.74933016 0.04234952 -0.15150422 -0.061092667 0.27266854
-0.36326885 0.27732003 0.053648725 0.58287215 -0.44215688 0.18904386 0.2572607 0.5272169
0.094474204 0.4050087 0.5416235 0.5557155 -1.110491 -0.04136404 -0.0068567605 -0.017364454
0.6566713 -0.07112589 0.27311173 -0.21485703 0.5176587 0.006007612 -0.12926255 0.04787231
0.31664813 0.33476067 0.5459675 0.3959963 -0.6623953 0.11274172 -0.15227883 -0.30961064
0.10908635 0.12861907 0.28196064 0.58299917 0.32429916 0.03431397 -0.15230852 0.16677034
-0.4615122 0.45115077 -0.0137737915 0.4572366 -0.026428768 -0.77700394 -0.4149118 -0.40329316
0.13422525 0.06609284 0.3061305 -0.21310194 -2.1654286 -0.090031706 0.3136555 -0.0091638155
0.26358515 -0.33046934 0.2040268 0.17521472 0.10274576 -0.0412187 -0.41660857 0.4948905
-0.30606002 -0.0044498495 0.26606303 0.06966254 -3.217798 0.0053835018 0.13487746 -0.013325729
0.043109957 -0.5423746 0.3373897 0.47277713 0.2405551 0.3875474 0.5980862 -0.41972566
0.59707195 -0.08762265 0.18462944 -0.21541044 0.4953367 -0.10576075 -0.2646598 0.13407512
-0.21422625 0.39963156 0.24145415 -0.5481666 0.34676984 0.17216054 -0.07617608 -0.37705624
-0.25828508 0.048159257 0.13180584 -0.37930906 0.15116818 0.22865826 0.14989565 0.0732429
0.102353476 0.23977156 0.05250889 0.12448517 0.22731262 -0.23852533 -0.1033737 0.030374803
0.23829885 -0.23760481 0.24580647 0.2984728 -1.5776737 -0.159209 0.27437627 -0.24992625
0.67883915 -0.042024422 -0.19391145 -0.21001767 0.053823385 0.058711108 -0.092983045 -0.008431928
0.45230687 0.1500473 -0.36286214 -0.7467195 0.4790022 -0.14563169 -0.78668404 0.2758622
0.6483742 -0.3577542 0.49403492 -0.23907895 -0.0007519223 0.13460469 -0.37149006 -0.18511303
0.46301928 -0.40688857 0.40509006 0.0063276715 0.5835966 0.16165847 0.20961133 -0.04816687

network.0.bias f4 [128]
00000000: 0951 f13e 5188 103f 4374 a6be c40b a2be
00000010: 0fb5 bfbd f83d 3d3f 2d05 f4be 53a4 c73e
00000020: 9797 463e 444f 9c3e c52b 263f 747a 86be
00000030: bfa5 323c 68f9 b63e 94d2 3d3d 6481 a7be
00000040: 255e 9bbe 17bc 653e dd58 e93e f5d1 86bd
00000050: e30f 8a3e 1a16 353e 91d2 c1bd a7b9 bcbd
00000060: 8134 863e 3fa5 143f 4353 2f3f 3c91 21bd
00000070: 78ae 0d3e e98c 04bd df27 b33e 9c31 23be
00000080: b7d3 fc3b 5d88 033e 710f d8be 20d0 983e
00000090: 2d23 c6bd 7d12 8b3a d6a4 8abe c581 a3be
000000a0: 6c84 4f3f 6cd6 99bb 70ff 323e f0ee 8b3d
000000b0: e36a 89bd a182 013f 4034 f93e 532d 833e
000000c0: 3dfd 603e 0a02 583e 5152 acbe e629 a33d
000000d0: 04f6 d83e e0de 103f 55a3 4a3f 7b93 043f
000000e0: d57b 2abd d8db 2a3f 979e 263f 0a38 e0bd
000000f0: a422 243f e13c 0ebd 317f 903d 0c01 a1bc
00000100: dd10 973e 0fb1 423f 3494 9f3e 34cb 063f
00000110: d7ad 5d3d 4650 973e eec1 f9bc acc7 b8bd
00000120: a0d8 843e 8883 b0be 015d 0abc 8a47 b83b
00000130: 3d5d 80be 13ec 60be d061 323f aa0d 003e
00000140: bea8 d33e 487e a23e ce4f 6abe 6e08 c83e
00000150: 8801 933e 91be 023e 1be0 93be c9c4 943b
00000160: af8b 243f d2b3 003f 48fb f9be 60a5 313e
00000170: 367f 073f 4135 f5be 404a 7b3e 3534 c93d
00000180: 20ba a2be bb55 c83e 583c 413e e746 ed3e
00000190: a415 963d ba56 5a3e bd0e 393e 2765 03bf
000001a0: e859 033f afa3 48bd 6531 233f 560b 18be
000001b0: c301 72bd be73 0b3e 8000 5f3e bdf3 cb3e
000001c0: 48e4 27bd 76ee 223d 5e50 de3e 13d6 1abd
000001d0: 6bad dd3e 4558 cdbd f206 be3e d2ce 383e
000001e0: d94a 5a3e 4bfd afbe 0376 a13d 8b35 353f
000001f0: dbcb e7bd d638 f33d 1760 483f 6065 afbe
0.47132137 0.56458 -0.32510576 -0.316496 -0.09360706 0.7392268 -0.476602 0.38992557
0.19393764 0.30529225 0.64910537 -0.262653 0.010903775 0.35737157 0.0463434 -0.32715905
-0.30345264 0.22435032 0.4557561 -0.06583015 0.26965246 0.17684212 -0.094639905 -0.09215098
0.26211932 0.58064646 0.6848642 -0.039445147 0.13836086 -0.032360945 0.34991357 -0.15936893
0.007715668 0.12844987 -0.4219928 0.29846287 -0.09674678 0.0010610368 -0.27078885 -0.31934944
0.81061435 -0.0046947505 0.17480254 0.06832683 -0.0670984 0.5058995 0.48672676 0.25620517
0.21971603 0.21094528 -0.33656552 0.07966976 0.42375195 0.5659008 0.79155475 0.5178754
-0.041622 0.66741705 0.6508574 -0.109481886 0.6411536 -0.034726027 0.0705551 -0.01965382
0.29505053 0.7605142 0.31167758 0.52653813 0.054120865 0.2955343 -0.03048798 -0.090224594
0.25946522 -0.3447535 -0.008445025 0.0056237625 -0.25071135 -0.21965055 0.696805 0.12505212
0.41339678 0.3173697 -0.22882006 0.3906893 0.28712106 0.12768008 -0.28881916 0.00454006
0.6427564 0.50274384 -0.48824525 0.17348242 0.52928483 -0.47892192 0.24540043 0.09824411
-0.31782627 0.39127907 0.18870676 0.46343157 0.07328346 0.21322146 0.18072028 -0.5132622
0.5130906 -0.048984226 0.63747245 -0.14848074 -0.05908371 0.13618371 0.21777534 0.39834395
-0.04098919 0.039778195 0.4342069 -0.037801813 0.4329637 -0.10026602 0.37114674 0.18047646
0.21317615 -0.34372935 0.07883837 0.70784825 -0.11318179 0.11876075 0.7827162 -0.3425703

network.2.weight f4 [128, 128]
00000000: cbec 203d 55f5 213d 9aa1 103d dd43 7ebd
00000010: 1cfc d2bc 05cc 28bc 6a0a 2bbd d35f a0bc
00000020: a050 bfbd bfc3 5fbd 2fe3 a4bd 96b4 48bc
00000030: 2d33 793d 7dac 453d 7b60 91bd 7fae 88bd
00000040: c042 8fbd 7b5f ff3b 40b9 72bd 149e 8b3c
00000050: 5c0f b93c 4a7b 523c b9ac bbbd d166 98bd
00000060: 1e57 15bd ce2b 40ba d717 723d 5c22 44bd
00000070: 4f30 b9bc 6fea 473d 11e5 9c3d bea8 3dbd
00000080: 3b3c a8bc 5a69 8b3d 22f1 0e3d 1db4 4abd
00000090: 49c7 163d 9023 66bc 633d 933b 7089 a53b
000000a0: d4ba 69bc 70df c5bc 7c6b 893a 1b0b 43bd
000000b0: 0218 8a3d cf66 acbd 102a 2a3d 455d b6bc
000000c0: ff08 283d 2dd4 513d 59f9 48bd d41a 583d
000000d0: de4a e4bc 0c06 c7bc 1987 4e3c 957d b23c
000000e0: 3854 96bd 310a 9dbc 1673 85bd 29ee 403d
000000f0: 7a1e 36bb c275 c3bd 7631 213c 124b 353d
00000100: 0f23 f73c 0d75 b73c e516 13bd f689 803d
00000110: c65c 58bd 4a34 863c f9c1 88bd 3e7a 153d
00000120: 3066 9cbd aae0 473d c53c 873d bcc3 57bd
00000130: 5d52 c2bd 319e 8fbd 29f5 0cbc 9220 3b3d
00000140: e3ca 543d 5375 88bc ba5d 5d3d f7b3 95bd
00000150: 119b 4abd 3414 cd3c 4864 993c d253 ad3c
00000160: f209 d8bd 6ef9 883c de96 8d3c 09aa 6dbc
00000170: 16c1 22bd c45a ea3c 0f08 633c db2f dcbb
00000180: 4c6a eebc 2b2a 493b 6e1f 0b3d 3741 4fbd
00000190: 8939 a83d c8f7 9fbd 6dfa bdbd 56a9 0c3d
000001a0: 7f19 03bd bf5b b9bd 83fa cebd e1d8 39bc
000001b0: 476a 8fbc 3a51 94bd 7940 843d 2591 343d
000001c0: 2a46 00bd b4fb 92ba 7ae1 e3bc 8c20 c8bc
000001d0: 31ec b4bc 4340 033d 7a71 5dbd 3c4a 953d
000001e0: a623 ea3c 3ce4 c7bc 1468 ca3b f468 6c3b
000001f0: 1209 953d 35ff 443d 26b9 0cbd f2f9 94bd
00000200: 115f 123e 9275 7bbe d3a9 6f3e 1b71 69bd
00000210: 4992 d13e 183e 6abe c942 453f f606 a3be
00000220: 1eaa 34bb b835 c23e 51ef 39bd 3222 9c3d
00000230: 3772 8a3e a640 5b3e 4e5d 4c3e 830f f03e
00000240: b33f 6a3e a8f4 c23d 2cf2 8bbe 9782 abbc
00000250: 0d77 ba3e 2817 afbe e3eb 4ebe 9b32 bd3d
00000260: 6e50 15bf 9c17 9cbe 088f b6bd 0b89 a2bd
00000270: d005 b5bd 10a2 423d 297f aa3e 0bc3 bfbe
00000280: be1c 3c3e b44d 973e f206 8a3e caab 793e
00000290: c0d1 6fbe 2065 7abe 5ac4 3cbd 5d9c 303c
000002a0: d48a 0cbe 2708 763e a0b6 d8be 3420 073f
000002b0: 6db0 393e 489e fa3d 8b25 383e 46a7 423d
000002c0: 619e 53bd 9c71 91be 45dd 5dbe 32ee cfbe
000002d0: 5319 003e 72b7 4d3e 9cf1 dfbd 94c7 8e3d
000002e0: f116 883e e018 b03d 6ba2 dbbd 6628 2c3e
000002f0: fa25 373d fada e4be 8011 a7bf e11c a63e
00000300: d36e f3be bc54 a7bd ad6e 28bf 3487 683e
00000310: 6a07 7fbb 5233 dd3e c5dd f4be cbfc 18bf
00000320: f222 60bf f907 36bd 7b7a 21be 05cf 8cbf
00000330: fe62 8d3e 33f8 623d d734 e0bc abe1 0f3e
00000340: 4682 edbe 976f 2b3e e711 30bf 6c12 e8bb
00000350: 2e21 e9bc 7ea5 713e 829d 4dbe 465e 12bf
00000360: 7408 06bf 3d9b 9e3d 04a0 7e3f 5820 c73d
00000370: 8a50 e0be 7703 25bd baa0 8f3e a9e3 7b3e
00000380: c13c 8b3d 12d3 e03d 5aa8 b23d 1221 e0be
00000390: 6087 17bf 605a 55be 7563 23bd ddc9 fabe
000003a0: 755f 6abd 595d 953d e852 103b d211 df3e
000003b0: d642 753e 8905 033f 4e87 94bf 3752 773e
000003c0: 7f96 9f3d 5c0f 47bf 3c3a a9be cff4 45bf
000003d0: 3cfe e03d cc4a 933e 9b42 293e 6b49 6b3e
000003e0: c8d8 afbd 0c7b 1fbf 000a 113d 9ecf 2ebd
000003f0: f70c e13e 8539 eb3e bd56 cd3c b9dd be3d
0.039288323 0.039540607 0.035310365 -0.06207644 -0.02575498 -0.010302548 -0.04175798 -0.019576943
-0.0934155 -0.054630037 -0.08051144 -0.012250086 0.06083982 0.0482602 -0.0709848 -0.066739075
-0.069951534 0.0077933646 -0.0592587 0.017043151 0.022590332 0.012846777 -0.091638036 -0.07441486
-0.036460035 -0.0007330746 0.059104767 -0.04788433 -0.022606043 0.048807558 0.076608784 -0.046303503
-0.020536533 0.068072036 0.03489793 -0.049488176 0.036811147 -0.014046565 0.004493402 0.005051784
-0.014265735 -0.024154395 0.0010484303 -0.047618013 0.067428604 -0.08418047 0.04154402 -0.022261271
0.041024204 0.051227737 -0.04906592 0.05275996 -0.02786773 -0.024294876 0.012605452 0.021788398
-0.07340282 -0.019169899 -0.065160915 0.047102127 -0.0027789162 -0.09543945 0.009838453 0.044261046
0.030168084 0.022394681 -0.035910506 0.06276314 -0.05282285 0.016382355 -0.06677622 0.036493532
-0.07636678 0.04879824 0.06603388 -0.0526769 -0.09488366 -0.070125945 -0.008603373 0.04568536
0.0519513 -0.016657507 0.054044463 -0.07309716 -0.04946429 0.025034048 0.018724576 0.021158133
-0.10548772 0.0167205 0.017283853 -0.014505872 -0.039734922 0.028607734 0.013856902 -0.006719572
-0.02910342 0.00306953 0.03396552 -0.050599303 0.08214099 -0.078109324 -0.092762806 0.03434118
-0.032006737 -0.09050702 -0.10106375 -0.011343212 -0.017506732 -0.07242055 0.0645761 0.044083733
-0.031316914 -0.0011213929 -0.027817477 -0.024429582 -0.022085281 0.032043707 -0.054063298 0.0728955
0.028581452 -0.024400823 0.006176958 0.00360733 0.07277121 0.048094947 -0.03435626 -0.07274236
0.14294077 -0.24556568 0.23404627 -0.05699263 0.4093192 -0.2287525 0.7705503 -0.31841248
-0.0027567218 0.3793161 -0.045394246 0.0762371 0.27040264 0.2141138 0.19957468 0.46886835
0.22875862 0.09519321 -0.273332 -0.020936294 0.36418954 -0.34197354 -0.20207171 0.09238168
-0.5832585 -0.30486763 -0.08914 -0.07936295 -0.08838999 0.047517836 0.3330014 -0.37453493
0.1837034 0.2955147 0.26958424 0.24381939 -0.23419857 -0.24452639 -0.046085693 0.010779467
-0.13724834 0.24026547 -0.42326832 0.52783513 0.18133707 0.12237221 0.17983072 0.047522806
-0.051664714 -0.2840699 -0.21666439 -0.40611416 0.1250966 0.2008951 -0.10934755 0.0697166
0.26580003 0.085984945 -0.10724338 0.16812286 0.04471395 -0.44698316 -1.3052216 0.32443908
-0.4754549 -0.08170459 -0.6579388 0.22707826 -0.0038914331 0.43203217 -0.47825447 -0.5976073
-0.8755332 -0.044441197 -0.15769379 -1.1000677 0.27614588 0.055412482 -0.027368946 0.14050929
-0.46388453 0.16741787 -0.68777317 -0.007082274 -0.028458204 0.23598287 -0.20079616 -0.571751
-0.5235665 0.07744453 0.99462914 0.09722966 -0.43811446 -0.040286507 0.28052312 0.24598564
0.06798697 0.109777585 0.08723517 -0.4377523 -0.5919094 -0.20835257 -0.03988977 -0.48982134
-0.05721994 0.07293195 0.0022022072 0.43568283 0.23951277 0.5118032 -1.1603792 0.24152456
0.07792377 -0.7775781 -0.33052242 -0.77326673 0.10985991 0.28768003 0.16529314 0.22977225
-0.085862696 -0.6229713 0.035409927 -0.042678468 0.43955204 0.4594232 0.025065774 0.09319634

network.2.bias f4 [128]
00000000: 0e16 dab9 748e 75bd 2d78 4dbe 8693 dbbd
00000010: ad1a 073f 247f ebbd fc64 edbc f1df 013f
00000020: 8bb0 80bb e842 c4bc bffe 563e e6c0 193d
00000030: 3021 2e3d 0396 9d3c ecf0 abbd a1b8 873e
00000040: 2afd d93e c302 5abd 5622 e0bd 148d 80be
00000050: ce49 f0bd 2413 903e 94e5 563e 30f6 8bbd
00000060: 5a46 49bd 511b 623d 1a45 733e 4585 603c
00000070: 3df2 b33b f8d8 17be 787e 9fbd cf54 103e
00000080: 46f8 4f3d 0e1c e2bb 2b56 803d 62d4 32be
00000090: e58f 043f e4ef 0d3f 9968 90bd affd 14bd
000000a0: b8d0 e1bc e82b 97bd 2d4e 0ebe 33c0 113e
000000b0: 61bf 003f e584 613d 2fe0 e03b 315a 3b3e
000000c0: aad0 f93e 7070 4fbe a456 e3bd 5388 89bd
000000d0: e460 863d 1fa3 ae3e cec6 e5bd 7855 54be
000000e0: b4c4 893d 6e65 b1bd 60c7 40bd e2bc 833d
000000f0: e16d 6a3d ac34 163f df8a 603d e87b 48bd
00000100: 55e4 3e3d 75d5 643e 0a5e 21bd b16b a7bd
00000110: 0ad7 b0bd 6dbe cc3e 1216 8cbe 9625 76bd
00000120: a45a 24be 3ad9 48be 3870 67bd a191 22bd
00000130: 9f73 a43b f2f8 23be aa7a 76be 7c8d f6bd
00000140: cbd4 92bb a031 9d3c 924b 3ebe 4377 49bd
00000150: e978 44bd 9f3d 933d 128c 663d b2c6 843d
00000160: c5d7 9ebd fd7e 28bd 5882 bfbc bd77 b1bd
00000170: 2164 25be 55d0 eabd 8ac3 f13e 2980 b83e
00000180: 063c 843c 6357 95bd 0322 c9bb 585d 903d
00000190: 715e cfbd 40fa 76bd fda2 0ebe 8795 cabd
000001a0: 6e40 9e3e f689 37be 9ab4 093f b729 82bd
000001b0: da7c 8ebd 431b 933d 4b94 c8bc a6d2 9d3d
000001c0: acc7 3dbc 1d57 37be 751c 3f3c 97bb eabd
000001d0: a3eb 023f ae88 fcbd 061f 06be 31d9 88bb
000001e0: b219 56bc dd26 7abe 01d4 7dbe 81e2 0f3d
000001f0: beb7 e8bd 9bae 143e f415 5fbd 1740 e5bd
-0.00041596632 -0.059950307 -0.20065375 -0.10721497 0.5277508 -0.114988595 -0.028978817 0.5073233
-0.0039272956 -0.023957685 0.20995615 0.037537478 0.04251212 0.01923657 -0.083955616 0.26508048
0.4257596 -0.05322529 -0.10944049 -0.25107634 -0.11732827 0.28139603 0.20986015 -0.06834066
-0.049139358 0.055201832 0.23756829 0.013703649 0.0054915235 -0.14828861 -0.07787794 0.14094852
0.05077388 -0.006900317 0.06266435 -0.1746383 0.51782066 0.5544417 -0.070512004 -0.036374744
-0.027565345 -0.07381421 -0.13897009 0.14233474 0.5029202 0.05505838 0.0068626623 0.18296124
0.4879201 -0.20257735 -0.1110051 -0.06715455 0.06561449 0.34108827 -0.112195596 -0.20735729
0.06726971 -0.08661924 -0.04706514 0.06432511 0.057233695 0.5867412 0.054819938 -0.04894629
0.046604473 0.22347052 -0.039396323 -0.081748374 -0.086347654 0.39989033 -0.27360588 -0.06009444
-0.16050202 -0.19614115 -0.056503505 -0.039689664 0.005018666 -0.16012934 -0.2407023 -0.12038705
-0.0044809333 0.019188702 -0.18583515 -0.049186002 -0.04796687 0.07189488 0.056285925 0.064832106
-0.077559985 -0.04113673 -0.023377582 -0.086654164 -0.16151477 -0.114655174 0.47219497 0.36035278
0.016141903 -0.07292058 -0.0061380877 0.07049054 -0.10125435 -0.06029725 -0.13929363 -0.09891801
0.3090853 -0.17923722 0.537912 -0.06355613 -0.06957407 0.07182934 -0.024484774 0.077061936
-0.01158325 -0.17904325 0.0116644995 -0.11461561 0.51140803 -0.12330757 -0.13097772 -0.004176282
-0.01306765 -0.24428888 -0.24787904 0.03512812 -0.11363171 0.14519732 -0.054464296 -0.11193865

network.4.weight f4 [3, 128]
00000000: 4179 2cbd 5a46 54bd c651 9fbe 3e40 e9be
00000010: 3083 d03e 4699 66bf b1e0 84bd 37f0 e93e
00000020: 0782 24bd 7b1e b6bc 9dd9 c43e 331c 3fbd
00000030: 244d aa3c b8cb 4d3c 62bc b4bc 10a4 e63e
00000040: 157f 003f 5338 48bd 24ab 2fbf 121a c8bd
00000050: f597 b0be 9254 c93e 9652 123f 7bd2 a8bd
00000060: 54be 38bd 1bd9 4e3d 8d4c 0f3f 96a7 15bd
00000070: 37c1 ad3c 603a acbd 5b2a 36bc 734b ac3e
00000080: 034f 91bd 18a2 98bd 8fd7 653d 42af c8bd
00000090: 0e8e da3e 2fa5 fc3e 024d 55bc 668e 503c
000000a0: 60c1 b03c c0d3 3fbf 8ca4 21be 7887 c43e
000000b0: 9594 d63e 4932 963b 33ec d53e 2073 3abe
000000c0: 08e9 e33e cfea 9cbf d33d 50bf 321f a33d
000000d0: e99d 06bd 6b8e 723e 956c 233e dc5c a8bf
000000e0: 8098 173e 2ec7 1abd 5afe 69bd 328b 663c
000000f0: be75 04bd 200d 033f 9cf1 f0bc 1c6e a43e
00000100: 4b89 5cbd 3e78 b53e 2f95 23bd e9f2 af3d
00000110: 320d 06bd af50 003f 43bc debe 10d5 99bd
00000120: f5f1 19bf 6519 9abe 2d3f 8dbf 0bed d1bc
00000130: 86b3 8abd d486 f0be 2fac 1bbe 47ba 513e
00000140: a8d0 ad3d fcd2 51bc adca a1bf b88c 41bd
00000150: da85 2dbc df4f 6e3e ee10 813d 63b0 4d3c
00000160: ce51 94bf 8360 5cbd 3d37 68bd c9cd f1bc
00000170: 621b 15bf 7818 94bd 0523 133f 7383 043f
00000180: bcac 86bd c713 97bd 73aa 28bd 78d3 eabc
00000190: 4ffe 91bf 07d0 65bd 16c5 16c0 aa8a 95bf
000001a0: 164e 023f 9466 dbbe 4a03 f33e 569a 483c
000001b0: 0650 23bf b277 f23b d3e0 47bd 7892 ed3e
000001c0: 2ee3 b93c 2386 64be e2d6 ac3d 6b30 76be
000001d0: 91cf dc3e cfff 49be a21a 79be 8f7a 57be
000001e0: 5649 1cbd 131c bfbe 3654 f6be 42e9 84bd
000001f0: b9d0 00bf ee17 0d3f 18ba fcbc 397f 18bd
00000200: 7715 843d ca71 86ba 0365 c3be 1d2c 5ebf
00000210: e178 093f 4c71 fdbd be05 473d 2874 c23e
00000220: 01cf e2bc c8d5 963d fc99 1f3e a8f8 9fbd
00000230: f3b5 37bd 50b0 5c3d 9fb5 6f3d a6d4 023f
00000240: 6946 ac3e b6da 643d ba66 07bf a08f 01bf
00000250: 2354 adbe 31f1 ee3e 57ad d03e d05d 913c
00000260: efdc 92bd 7b25 3ebd 37f1 c83e 3d19 af3c
00000270: 3d94 353d 72b8 2fbf 734f 103d 05a3 ca3e
00000280: 8bef d8bc 6b2f 463c 5bad 1dbd e9dd 11bf
00000290: 3018 283f 6447 0f3f bfe0 043d 8041 b4bc
000002a0: a52a 033d 61a0 45bf 2d58 90bf 7665 b03e
000002b0: 3a47 ab3e 33cc 2b3d c1a4 853e 9e21 65bf
000002c0: 3e5b 1c3f dfc6 7cbf 42b0 33bd 5f53 573d
000002d0: 1a1c fb3c cd65 083f bb3e cdbe c779 76bf
000002e0: 7c6b c93e 26c0 1dbd 5de7 883d e2a9 a83c
000002f0: 3a24 8a3d 56b9 073f a067 1b3d 2dad 31be
00000300: 4c9d 403d 1daf 8d3e de2e 12bc be89 a63d
00000310: d414 173d bcb7 063f d10a 06bf 2950 bf3c
00000320: 85ec 1dbf 855b 96be 39c0 2dbf d1c1 acbb
00000330: 1457 353d 4abe 6dbf 321b 08bf 667b 07bf
00000340: 7e7b 813c c4f6 883d cd6a 80bf bfe6 463d
00000350: 07b1 143d a220 b43e caa9 563d aac7 b53b
00000360: e41e 5bbf 8594 45bd a0cb 0d3d 52f7 d8bc
00000370: 4592 54bf af3a 51bf 90a0 1d3f 84c2 9d3e
00000380: 7ea3 8c3d e1b1 7a3d 0c5c 373c 40f6 ad3c
00000390: ab30 33bf 0295 34bd 80ee 593d 1a74 89bf
000003a0: eb55 0f3f c1ff e5be 0ed9 023f c72e 5dbd
000003b0: 2320 d33c df10 263d 10f8 1ebd ac72 a83e
000003c0: 59a2 823b d441 29bf 2a4e 8a3d 70b3 6cbf
000003d0: 40a9 af3e f96e 6abf a314 78bf 06f7 0e3e
000003e0: 3b2f 953c 964c 24bf f8dc 63bf 8b1e 91bb
000003f0: 9254 12bf 2024 653d 751d 573b 941d 4abb
-0.042107824 -0.051824905 -0.31117076 -0.45556825 0.40725088 -0.90077627 -0.06488169 0.45691082
-0.040163066 -0.022231331 0.38447276 -0.046657752 0.020788737 0.012560777 -0.022062484 0.45047045
0.5019391 -0.04888184 -0.68620515 -0.097705975 -0.34490934 0.39322335 0.57157266 -0.08243271
-0.045103386 0.050500017 0.5597618 -0.036536776 0.021210296 -0.08409572 -0.011118497 0.33651313
-0.070951484 -0.07452792 0.056113776 -0.09799053 0.42686504 0.49344775 -0.013018848 0.012729263
0.021576583 -0.7493248 -0.15785426 0.38384604 0.41910234 0.004583631 0.41781768 -0.18207979
0.44513726 -1.2259158 -0.81344336 0.079649344 -0.03286544 0.2368714 0.1595939 -1.3153338
0.14804268 -0.03778761 -0.057127334 0.014071273 -0.03233885 0.511919 -0.029412083 0.32115257
-0.05384187 0.354433 -0.039937194 0.08591253 -0.032727428 0.50123113 -0.43503007 -0.075113416
-0.6013482 -0.300975 -1.1034905 -0.025625726 -0.06772523 -0.46977866 -0.15202402 0.20481215
0.08487064 -0.01280665 -1.2639977 -0.04725334 -0.010590995 0.23272656 0.06302057 0.012554261
-1.1587465 -0.05380298 -0.056693304 -0.029517071 -0.5824491 -0.072312295 0.5747531 0.51763076
-0.06575915 -0.07376819 -0.041178178 -0.02866529 -1.1405734 -0.056106593 -2.3557792 -1.1682942
0.509004 -0.42851698 0.47463447 0.012243828 -0.6379398 0.0073995227 -0.048798393 0.4640081
0.022691336 -0.22316794 0.08439423 -0.24041907 0.4312711 -0.1972649 -0.24326566 -0.21042846
-0.038155876 -0.37326106 -0.48111123 -0.06489803 -0.50318485 0.5511464 -0.030850455 -0.037230704
0.064494066 -0.00102573 -0.38163003 -0.8678606 0.5370007 -0.12375125 0.04858946 0.37979245
-0.027686598 0.07364994 0.15586084 -0.07811099 -0.044851255 0.053879082 0.058522817 0.51105726
0.3364747 0.05587264 -0.52891123 -0.5060978 -0.33853254 0.4666839 0.40757248 0.017744929
-0.07171046 -0.046422463 0.39246532 0.02137434 0.044330824 -0.68640816 0.03523202 0.395775
-0.02648141 0.012096266 -0.038495403 -0.56979233 0.6566191 0.5596831 0.032440897 -0.02200389
0.03202309 -0.77197844 -1.1276909 0.3445241 0.3345278 0.041942786 0.2610226 -0.8950442
0.61076725 -0.98740953 -0.043869264 0.052569743 0.030653048 0.53280336 -0.40086922 -0.9627957
0.39339817 -0.038513325 0.06684754 0.020588819 0.06745191 0.53017175 0.03794062 -0.17351218
0.04702501 0.27672663 -0.008922307 0.08131741 0.036885098 0.52624106 -0.52360255 0.023353653
-0.61689025 -0.293667 -0.67871433 -0.005272128 0.044272497 -0.92868483 -0.53166497 -0.52922666
0.015805956 0.06687692 -1.0032593 0.0485599 0.03630164 0.35181147 0.052408017 0.0055474835
-0.8559401 -0.048237342 0.03461802 -0.026485119 -0.8303569 -0.8173017 0.61573124 0.30812466
0.06867121 0.061204795 0.011191379 0.021235585 -0.69996136 -0.044087417 0.053205967 -1.0738556
0.55990475 -0.44921687 0.5111245 -0.05399969 0.02577216 0.040543433 -0.03881079 0.32899988
0.0039866385 -0.6611607 0.0675319 -0.924613 0.34308815 -0.9157558 -0.9690649 0.1396142
0.018210998 -0.6417936 -0.89009047 -0.00442869 -0.57160294 0.055942655 0.0032823954 -0.0030840384

network.4.bias f4 [3]
00000000: 2974 bcbc b51f db3e 37b0 6d3e
-0.023004608 0.42797628 0.23211752

network.0.weight f4 [128, 8]
00000000: 228e 723e 30b8 213e 526b a63e 2caf 0a3e
00000010: be02 45be c8fe 293e 2a49 6e3e 5d58 8c3e
00000020: 79e1 9ebe 3dbf be3e 09f6 563e aa86 a5bd
00000030: 1fd3 fc3e 3b6e d5be 5be0 ba3e 5a8c a0bd
00000040: e88a 1bbf 068f 063f 242a a7bd 1561 38be
00000050: 2974 9c3e bb2e b73e 9190 ed3e fbf6 c83e
00000060: 2f3f db3e 0198 5dbf 35a8 203f 25f9 853e
00000070: 6225 5abd aa73 75be b74d 503e 69c9 e5be
00000080: 6084 4dbf 9f8f 613e 6c5f 69bd 98ec ec3e
00000090: 543b 0b3e 6bd1 1f3f ad42 7a3e 7d74 943d
000000a0: 6b28 833e e859 edbd 8f94 8e3e 66f7 093e
000000b0: 4ce0 f9bb 105f e2bd 0eb8 edbd 39ec afbe
000000c0: 952c f5bd cc65 423e ec67 8dbd 85f0 06bf
000000d0: e04b 2d3e f47e 313f 0a7d d63d c74b 343f
000000e0: 051d 003e ce01 303f cb97 e4be 8296 b2be
000000f0: 53de 0fbe 9109 27bd daae ba3e 51c8 243d
00000100: 5028 66bf bd7d 963e 9315 14bf cc7b b7be
00000110: b6fc 333f 2fca 5a3f e7d0 9a3e 7b69 ac3e
00000120: b552 6f3e d6f1 03bf 3c2d c13e e57d c03e
00000130: 4683 b53c e6b0 55be 699f 48bf 623b d13e
00000140: 72f5 fdbc df7c 083e e045 d73e 4235 c63e
00000150: f3b4 973e bb5a d53e 3627 dbbb d562 93be
00000160: ce90 e9be c610 c53e e3f6 153e 4e22 cebe
00000170: 3326 823e 1f76 103f a5a8 b23e dc71 cc3e
00000180: 6847 7f3e 0092 d1be 743f 0cbf 0192 3f3f
00000190: d37b 253d 16e0 1cbe 73bf 74bd 9814 8b3e
000001a0: 01b2 b9be c365 8e3e 9082 593d 70b6 153f
000001b0: 8f6b e1be 90e7 3f3e b00e 833e e900 073f
000001c0: c449 c13d 801b ce3e 234b 0a3f 3d66 0e3f
000001d0: bc2b 8ebf bc26 43bd 9679 3ebc a3af 8cbc
000001e0: 6792 273f 2cbf 91bd f7d8 8a3e 4c2c 5dbe
000001f0: 09fd 043f b916 8a3b d670 04be f98e 473d
00000200: acb1 a23e 922b ab3e eda0 0b3f 6b5c cb3e
00000210: 4e63 29bf 27bd df3d bb0d 1ebe ee1b 9dbe
00000220: a989 df3d 741e 043e 7f3c 903e f56a 153f
00000230: 691b a73e bce3 013d 4fb3 1dbe 0a95 2b3e
00000240: 6932 ecbe 92ae e63e b8ee 78bc f3fc ea3e
00000250: 579d d0bc 1503 48bf f999 d5be 356d cdbe
00000260: 32f8 093e 487f 833d 7cc2 9e3e 8eab 59be
00000270: fc3f 0ac0 0527 b5bd 5f97 a03e a289 25bc
00000280: ee37 863e 0972 a9be ad49 503e af97 353e
00000290: d4bf d43d 3e53 33bd a883 d6be c14b fd3e
000002a0: d454 9cbe bc58 f9ba 4491 893e 401c 873d
000002b0: e3a0 4dc0 a614 a63b 741d 0a3e 0ea4 4bbc
000002c0: 5498 2e3d f1ad 0abf 4f7e ac3e f4bc f13e
000002d0: 4bcc 753e ed6d c63e 31e3 183f 7975 d7be
000002e0: 4443 183f ea18 b9bd 9c70 393e 8d4b 5dbe
000002f0: 5024 fe3e 922b dbbd 9450 87be d763 083e
00000300: bfce 5cbe 14db cc3e 3523 773e bb84 0bbf
00000310: b8ce b23e 3093 333e e68c 9bbd d952 c0be
00000320: ff3b 84be 7dfc 433d e010 063e 1e7a c0be
00000330: 75ba 1c3e 7af2 6b3e fd85 1a3e 9663 983d
00000340: 6e22 d13d 4566 753e 7a90 533d 806e 013e
00000350: 3c85 6a3e 9e73 74be 1944 d3bd 24b6 fc3c
00000360: 5b12 753e 8368 75be 0c27 7b3e 6c36 973e
00000370: cb33 cabf a1b0 25be b47b 8c3e 282a 82be
00000380: e5dc 2d3f 63e9 2fbd 56f9 46be d5f4 53be
00000390: c505 523d d647 783d d846 cbbd bcc2 32bc
000003a0: cca7 e73e 8aac 173e c5f9 b9be de2f 3fbf
000003b0: 4e07 f43e 5ac3 0fbe 6007 4abf d9ba 8d3e
000003c0: 2f9d 253f 938e b7be 5d85 fc3e f894 72be
000003d0: e212 11bb 778e 0d3e 0d68 bbbe c207 40be
000003e0: 6a4e ec3e 225d d0be 31e2 ce3e d60e cd3b
000003f0: 01bd 153f b0f5 223e 79c6 553e 779e 40bd
0.23687032 0.15792918 0.32503754 0.13543385 -0.19239327 0.16601098 0.23270097 0.27411166
-0.31031397 0.37255278 0.20992292 -0.08082326 0.49379823 -0.41685662 0.36499295 -0.0783927
-0.6075883 0.52561986 -0.081623346 -0.18005784 0.30557373 0.3577784 0.46399358 0.3925093
0.42821643 -0.86560065 0.62756664 0.26166645 -0.053258307 -0.23969904 0.20342146 -0.44880226
-0.80280113 0.22027443 -0.056975767 0.46274257 0.1359685 0.6242892 0.24439497 0.07248781
0.25616774 -0.11589414 0.27847716 0.13473281 -0.007625615 -0.11053288 -0.11607371 -0.3435991
-0.11971394 0.18984145 -0.06904587 -0.52710754 0.16923475 0.6933434 0.10473068 0.7042813
0.1251107 0.68752754 -0.4464706 -0.34880453 -0.14049654 -0.040780608 0.36461526 0.0402301
-0.8990526 0.29392806 -0.5784542 -0.35836637 0.7030748 0.8546476 0.30237505 0.33674225
0.23371394 -0.5154089 0.37729824 0.3759605 0.022157323 -0.20868263 -0.7836824 0.40865618
-0.031000827 0.13328885 0.42045498 0.38712507 0.2963024 0.41670784 -0.006688024 -0.2878634
-0.4561829 0.3848936 0.14644961 -0.40260547 0.2541977 0.5643024 0.3489429 0.39930618
0.24929583 -0.40931702 -0.5478432 0.7483216 0.04040129 -0.15319857 -0.059752893 0.2716415
-0.3626862 0.27812013 0.05310303 0.584815 -0.44027373 0.18740678 0.25597143 0.52735764
0.09437898 0.40255356 0.540209 0.55624753 -1.1107097 -0.04764436 -0.011625668 -0.017173594
0.6545777 -0.07116541 0.27118656 -0.21598929 0.519486 0.0042141345 -0.12933668 0.048720334
0.31776178 0.3343168 0.5454243 0.39718947 -0.6616715 0.1092475 -0.15434925 -0.3068537
0.109149285 0.12902242 0.28171155 0.5836633 0.326381 0.031711325 -0.15400432 0.16756073
-0.4613221 0.45055062 -0.015193634 0.4589611 -0.02546565 -0.781297 -0.41719034 -0.4012238
0.13473585 0.06420761 0.31007755 -0.21256849 -2.1601553 -0.08845333 0.31365487 -0.010103615
0.26214546 -0.33094814 0.20340605 0.17733644 0.10388151 -0.043780558 -0.4189732 0.49471858
-0.3053347 -0.0019023637 0.2686864 0.06597185 -3.2129447 0.0050683795 0.13487798 -0.01242925
0.04262574 -0.54171664 0.33690116 0.47214472 0.24003713 0.38755742 0.59721667 -0.42081812
0.5947764 -0.09037955 0.18109363 -0.21610852 0.4963708 -0.1070167 -0.26428664 0.13319336
-0.21563242 0.40010893 0.24134524 -0.54499406 0.3492334 0.17536616 -0.075952336 -0.37563208
-0.25827023 0.047848213 0.13092375 -0.37593168 0.15305503 0.23041716 0.15090175 0.074408695
0.10211645 0.23964794 0.051651455 0.12639809 0.22902387 -0.2387223 -0.10315723 0.03084857
0.23932783 -0.2396565 0.24526614 0.29533708 -1.5797056 -0.1618066 0.27438128 -0.25422788
0.67915183 -0.042947184 -0.19431052 -0.20698865 0.051275034 0.060615383 -0.09925622 -0.010910686
0.45245206 0.14811912 -0.36323372 -0.74682415 0.47661823 -0.14039364 -0.78917503 0.27681616
0.6469297 -0.35850963 0.49320498 -0.2368964 -0.00221365 0.13823877 -0.36602822 -0.1875296
0.46153575 -0.40696055 0.40406945 0.006257872 0.5849152 0.15914035 0.20876493 -0.047026124

network.0.bias f4 [128]
00000000: c9c6 f13e 9d7b 103f 2eed a5be 261b a2be
00000010: 6b6a b4bd 4d4f 3d3f 96a2 f2be 3cee c73e
00000020: 1abb 443e 5142 9c3e 685b 263f b985 85be
00000030: 0b12 133c 3e77 b73e e0d3 373d a7a9 a7be
00000040: 2b00 9bbe 3d4f 663e 61d2 e93e 9e22 80bd
00000050: 51b1 893e 694a 383e e842 c3bd ff4b c3bd
00000060: 6d7c 863e 40e0 143f b85a 2f3f 506d 28bd
00000070: 2559 0d3e 2c49 0dbd fa7b b23e b30f 23be
00000080: c09e e63b 4e1f 023e d612 d8be d362 983e
00000090: 97ee cabd 4447 b03b d6a4 8abe c581 a3be
000000a0: f38d 4f3f c53c 6abb 6d0d 363e a723 823d
000000b0: 915e 88bd ff97 013f b274 f93e 4b9b 823e
000000c0: 0f83 613e 3259 573e 162e acbe eb0c a03d
000000d0: 2d11 d93e 44fc 103f a0c1 4a3f a7b2 043f
000000e0: d232 2fbd ffe2 2a3f a9ab 263f 9ccb e1bd
000000f0: 6713 243f 52a1 ecbc 24ef 943d b202 aabc
00000100: c9e2 993e 5dd1 423f db0c a03e 8182 063f
00000110: 1dba 5b3d 9223 983e 7e7c e4bc ea73 bebd
00000120: bc99 843e 8883 b0be 0bd7 97bb df57 b53b
00000130: 7721 7ebe 5beb 60be 3c89 323f 6352 033e
00000140: f29a d43e c95c a23e 8134 6bbe bc57 c83e
00000150: 1834 943e da29 fc3d 772b 94be 1548 ec3b
00000160: 78e1 233f cfc8 003f e31d fabe 0e1c 333e
00000170: 1ed2 063f 5402 f6be a8e0 7a3e a24d ca3d
00000180: 20ba a2be 90a9 c83e bcd7 3e3e 307d ed3e
00000190: b26c 973d 421b 553e 58d6 393e bbb6 03bf
000001a0: 2462 033f 0800 4bbd 9c37 233f 91e9 19be
000001b0: 0e86 70bd 002c 0b3e 2596 603e c5fe cb3e
000001c0: c162 27bd f0e0 233d dd09 de3e 7747 11bd
000001d0: dc11 de3e 8d5e d0bd b92c be3e c20b 393e
000001e0: f321 593e 31ff afbe d356 9c3d 8a48 353f
000001f0: 86ae e0bd 326e f23d 5e70 483f 3765 afbe
0.47221974 0.5643862 -0.32407516 -0.31661338 -0.0880936 0.7394913 -0.47389668 0.39048946
0.19211999 0.30519345 0.64983225 -0.26078585 0.00897647 0.35833162 0.044879794 -0.32746622
-0.30273566 0.22491165 0.4566832 -0.06256603 0.26893094 0.17997135 -0.09534246 -0.095359795
0.26266804 0.5815468 0.684978 -0.041119874 0.13803537 -0.03449361 0.34860212 -0.15923958
0.0070379674 0.12707254 -0.4220187 0.29762897 -0.09908789 0.0053795893 -0.27078885 -0.31934944
0.8107597 -0.0035741788 0.17778559 0.063544564 -0.06658662 0.5062255 0.48721844 0.25509104
0.22022651 0.21030119 -0.3362891 0.07814964 0.42395917 0.56634927 0.792017 0.518351
-0.042773075 0.6675262 0.6510568 -0.110251635 0.64092106 -0.028885517 0.07272175 -0.020753238
0.30055836 0.76100713 0.31259808 0.52542883 0.05364429 0.29714638 -0.027891394 -0.092994526
0.2589854 -0.3447535 -0.0046337894 0.0055341567 -0.24817453 -0.21964781 0.69740653 0.12824397
0.41524464 0.31711414 -0.22969247 0.39129436 0.28945994 0.1231267 -0.2893941 0.0072107413
0.64015913 0.5030641 -0.48850927 0.17491171 0.52664363 -0.4804865 0.24499762 0.098780885
-0.31782627 0.39191866 0.18636984 0.46384573 0.07393779 0.2081118 0.18148172 -0.514507
0.51321626 -0.049560577 0.6375673 -0.15030505 -0.058721595 0.13591003 0.21932276 0.3984281
-0.040865663 0.04000944 0.433669 -0.035468545 0.43373 -0.10174284 0.37143496 0.18070891
0.21204357 -0.34374383 0.07633748 0.7081381 -0.10970788 0.11837424 0.7829646 -0.34256908

network.2.weight f4 [128, 128]
00000000: 4eed 203d 26f6 213d 9aa1 103d dc43 7ebd
00000010: 62fb d2bc 5fcb 28bc 6a0a 2bbd 1f5f a0bc
00000020: 3850 bfbd 42c3 5fbd 97e2 a4bd 96b4 48bc
00000030: c333 793d 20ad 453d 0e60 91bd 45ae 88bd
00000040: a542 8fbd 3b60 ff3b 2cb9 72bd 9c9e 8b3c
00000050: 6f0f b93c 097c 523c 30ac bbbd d166 98bd
00000060: e656 15bd c12b 40ba 3b18 723d d121 44bd
00000070: 4030 b9bc 6fea 473d 45e5 9c3d c8a8 3dbd
00000080: 9f3b a8bc 7c69 8b3d 64f1 0e3d d9b3 4abd
00000090: a5c7 163d 4b23 66bc 663d 933b 7089 a53b
000000a0: d3ba 69bc 21df c5bc 1c6c 893a e90a 43bd
000000b0: c418 8a3d cf66 acbd 262a 2a3d d05c b6bc
000000c0: 9e09 283d d9d4 513d e1f8 48bd 191b 583d
000000d0: a34a e4bc 0c06 c7bc 8887 4e3c 2f7e b23c
000000e0: 0654 96bd fe09 9dbc ed72 85bd 48ee 403d
000000f0: 501e 36bb 2975 c3bd 0e32 213c 5f4b 353d
00000100: a323 f73c 4775 b73c 5616 13bd 7a8a 803d
00000110: ba5c 58bd ac34 863c cdc1 88bd d57a 153d
00000120: 3066 9cbd aae0 473d 843d 873d 9ac3 57bd
00000130: c151 c2bd 319e 8fbd cdf4 0cbc 1f21 3b3d
00000140: 71cb 543d 3d75 88bc f95d 5d3d deb3 95bd
00000150: d99a 4abd 3414 cd3c 6564 993c 4e54 ad3c
00000160: ea09 d8bd 0cfa 883c de96 8d3c dba9 6dbc
00000170: 16c1 22bd fa5a ea3c c208 633c a22f dcbb
00000180: 4c6a eebc e02a 493b 0c20 0b3d b140 4fbd
00000190: 8939 a83d 36f7 9fbd 08fa bdbd cca9 0c3d
000001a0: 5d19 03bd 385b b9bd 61fa cebd 38d8 39bc
000001b0: b569 8fbc 2e51 94bd ac40 843d 6f91 343d
000001c0: bb45 00bd fefa 92ba 2be1 e3bc 7920 c8bc
000001d0: 10ec b4bc 6c40 033d 8271 5dbd 654a 953d
000001e0: 4a24 ea3c 89e3 c7bc d868 ca3b 8a69 6c3b
000001f0: 8d09 953d b0ff 443d a5b8 0cbd f2f9 94bd
00000200: 1c17 103e 37ce 7bbe 6bda 6c3e ad73 58bd
00000210: cf28 d43e f2b4 6bbe 53ab 413f 39d0 a5be
00000220: f18a c5bb cd1e c23e bcfd 36bd 9e96 943d
00000230: 2f37 883e 94ae 5a3e f0b6 4b3e c28e ee3e
00000240: 76b0 693e e0f3 c23d 304c 8abe a333 d8bc
00000250: ddbb b93e a1d4 adbe bfb3 4ebe dfe8 b43d
00000260: f6e3 14bf 8551 9cbe 9d72 b9bd 068f b0bd
00000270: b530 cabd 32bf 2a3d 3207 a83e e336 c1be
00000280: af2e 3f3e 0258 963e 2e3d 893e 1951 763e
00000290: fb01 80be 27de 77be 5ac4 3cbd 5d9c 303c
000002a0: f220 0ebe 478a 6d3e 35d9 dbbe fa95 053f
000002b0: d6e6 383e b07a f93d d83d 383e 76e9 263d
000002c0: f301 64bd ebcf 8cbe 50db 5abe 4bf2 d3be
000002d0: bbd0 fb3d 866d 3d3e 08df e3bd bf72 873d
000002e0: aef0 823e 0972 ab3d 06e8 debd aaa2 293e
000002f0: ff91 2e3d 5df8 e4be c87b a7bf 085f a73e
00000300: 31d7 f3be 6ec9 a6bd 2917 29bf 3fd9 653e
00000310: 78e5 a5bb da26 db3e 6fac f5be 20f1 19bf
00000320: 9e74 61bf f907 36bd bdca 2ebe 7603 8dbf
00000330: 81ad 8f3e 33f8 623d b941 e5bc c4c5 093e
00000340: 4c44 ecbe 2567 2c3e 042e 30bf f2ef 0cbc
00000350: 9bae 0abd 652a 753e 06e5 49be f7c3 10bf
00000360: 1bae 09bf 3819 9f3d 8e86 7e3f c1b7 c63d
00000370: c505 e4be a792 29bd 3858 893e eb4f 7b3e
00000380: c13c 8b3d 783f dc3d b06d a73d f140 dfbe
00000390: bbb0 18bf 6bb6 5fbe aaa3 34bd 10ba f9be
000003a0: fc37 69bd d29d 953d 08a7 8638 1ae5 dd3e
000003b0: 5206 703e 3d21 023f dc75 94bf ffbe 773e
000003c0: 3ac4 933d 3f35 49bf ae50 a7be d1a0 47bf
000003d0: 1463 e03d b348 923e ec12 283e f76b 693e
000003e0: 35ab a5bd 365d 1dbf 2675 043d 7b65 34bd
000003f0: 1380 dd3e 7882 e83e 2d6c be3c 60dd be3d
0.03928881 0.039541386 0.035310365 -0.062076434 -0.025754634 -0.010302394 -0.04175798 -0.019576607
-0.093414724 -0.05462957 -0.08051031 -0.012250086 0.06084038 0.048260808 -0.07098399 -0.06673864
-0.06995133 0.007793454 -0.059258625 0.017043404 0.022590367 0.012846955 -0.091637015 -0.07441486
-0.036459826 -0.00073307386 0.05910514 -0.047883812 -0.022606015 0.048807558 0.07660917 -0.04630354
-0.020536242 0.06807229 0.034898177 -0.049487922 0.03681149 -0.0140465 0.0044934032 0.005051784
-0.014265734 -0.024154248 0.001048449 -0.047617827 0.06743005 -0.08418047 0.041544102 -0.022261053
0.041024797 0.051228378 -0.049065474 0.052760217 -0.02786762 -0.024294876 0.012605555 0.021788685
-0.07340245 -0.019169804 -0.06516061 0.047102243 -0.0027789064 -0.09543831 0.009838594 0.044261333
0.03016836 0.02239479 -0.035909973 0.06276412 -0.052822806 0.016382538 -0.066775896 0.036494095
-0.07636678 0.04879824 0.0660353 -0.052676775 -0.094882496 -0.070125945 -0.008603287 0.045685884
0.05195183 -0.016657466 0.054044697 -0.073096976 -0.04946408 0.025034048 0.01872463 0.021158364
-0.10548766 0.016720794 0.017283853 -0.014505829 -0.039734922 0.028607834 0.0138570685 -0.0067195455
-0.02910342 0.0030695722 0.03396611 -0.050598804 0.08214099 -0.078108236 -0.09276205 0.03434162
-0.03200661 -0.09050602 -0.1010635 -0.0113430545 -0.01750646 -0.07242046 0.06457648 0.04408401
-0.0313165 -0.0011213718 -0.02781733 -0.024429547 -0.02208522 0.03204386 -0.054063328 0.0728958
0.028581757 -0.02440049 0.006177049 0.0036073648 0.07277212 0.048095405 -0.03435578 -0.07274236
0.14071316 -0.24590383 0.23130195 -0.052844692 0.41437384 -0.23018244 0.75652045 -0.32385424
-0.006028526 0.37914124 -0.044675574 0.072552904 0.26604602 0.21355659 0.19894004 0.4659329
0.22821221 0.09519172 -0.2701125 -0.02639181 0.3627614 -0.33951285 -0.20185755 0.08833479
-0.5816034 -0.30530944 -0.09055064 -0.086210296 -0.098725714 0.041686244 0.3281799 -0.37737188
0.18670152 0.2936402 0.2680449 0.24054374 -0.2500151 -0.24205838 -0.046085693 0.010779467
-0.13879755 0.2319728 -0.42939153 0.5218197 0.18056807 0.12181604 0.17992342 0.04074999
-0.05566592 -0.2750238 -0.21372724 -0.41395792 0.122956716 0.18498811 -0.11126524 0.06613683
0.2557425 0.0837136 -0.10884099 0.16565958 0.0426197 -0.44720736 -1.308465 0.3268969
-0.47625116 -0.081438884 -0.66050965 0.22446154 -0.005062755 0.4280308 -0.4798312 -0.6013355
-0.8806857 -0.044441197 -0.17069526 -1.1016681 0.2806206 0.055412482 -0.02798544 0.13454348
-0.46145856 0.16836222 -0.68820214 -0.008602129 -0.033857923 0.23941953 -0.19716272 -0.5654902
-0.5378129 0.07768482 0.99424064 0.09703017 -0.44535652 -0.041399624 0.26825118 0.24542205
0.06798697 0.10754293 0.08175218 -0.43604234 -0.5964467 -0.2184693 -0.044101395 -0.48774767
-0.056938156 0.073054925 6.42073e-05 0.43338853 0.23439911 0.5083197 -1.1598468 0.24193953
0.072151616 -0.7859687 -0.3267874 -0.7797976 0.10956398 0.2857109 0.16413468 0.22795092
-0.08089296 -0.61470354 0.032338284 -0.04404209 0.43261775 0.4541204 0.023244942 0.09319568

network.2.bias f4 [128]
00000000: 5a15 dab9 d4b6 7dbd e463 4cbe 474d ddbd
00000010: a202 073f 410b ecbd 5364 edbc 67e0 013f
00000020: 2db0 80bb a142 c4bc 82b9 573e 5dc1 193d
00000030: c621 2e3d 9d96 9d3c d7f0 abbd 4f30 873e
00000040: 0a1f da3e 9a02 5abd 81da dfbd b93e 81be
00000050: e3ec ecbd 4fa5 8f3e 2767 573e 1df6 8bbd
00000060: 3946 49bd 0a1c 623d 9cd9 723e ca85 603c
00000070: 3df2 b33b feab 15be 1e7e 9fbd e385 0f3e
00000080: 10f9 4f3d 0b1c e2bb 2b56 803d 019d 35be
00000090: 0474 043f b5cb 0d3f 6668 90bd 0efd 14bd
000000a0: b8d0 e1bc d2b1 9abd a66e 10be b505 113e
000000b0: e2ce 003f 4285 613d d624 eb3b 72d4 403e
000000c0: b5ae f93e 480f 4fbe a5f0 e1bd 3d88 89bd
000000d0: 3461 863d 57e9 ad3e 8e57 e6bd 34ae 53be
000000e0: 3d95 833d 6e65 b1bd 39c7 40bd e2bc 833d
000000f0: 826e 6a3d ca1f 163f 428b 603d 51f4 3abd
00000100: 67e4 3e3d e616 653e cf5d 21bd b16b a7bd
00000110: c0d6 b0bd a276 cc3e 0718 8abe 9625 76bd
00000120: 6d57 23be 3c9a 43be 8265 6cbd a191 22bd
00000130: 6e74 a43b 7721 24be 73a3 74be ca1c fcbd
00000140: b6d4 92bb d531 9d3c c9d8 3cbe a976 49bd
00000150: 8978 44bd ee05 923d c28c 663d 0cc7 843d
00000160: 60f3 9dbd cf7e 28bd 5882 bfbc b077 b1bd
00000170: 2c9f 26be f45c f6bd b988 f13e b5a1 b83e
00000180: c43c 843c e656 95bd 0322 c9bb 755d 903d
00000190: 7a40 cebd 3cfa 76bd 9d1f 12be 52c2 c8bd
000001a0: 06dd 9d3e f103 35be b9ae 093f b729 82bd
000001b0: 09d9 93bd cd1b 933d 1994 c8bc 0ecc 9d3d
000001c0: acc7 3dbc 337a 34be a71c 3f3c 65b9 e4bd
000001d0: 43fa 023f 90d1 f4bd 74a5 08be 2fb1 153b
000001e0: 0a19 56bc a0ff 7abe 28b7 7ebe cce2 0f3d
000001f0: adfa e5bd a490 153e d215 5fbd a4c0 e2bd
-0.00041596108 -0.061941937 -0.1995998 -0.10805755 0.5273839 -0.11525584 -0.028978502 0.50733036
-0.003927252 -0.023957552 0.2106686 0.03753792 0.042512678 0.019236857 -0.08395546 0.26404044
0.42601806 -0.053225137 -0.10930348 -0.25243166 -0.1156862 0.28055808 0.21035443 -0.06834052
-0.049139235 0.05520252 0.23715824 0.013703773 0.0054915235 -0.14616391 -0.07787727 0.14015917
0.050774634 -0.0069003156 0.06266435 -0.17735673 0.51739526 0.5538896 -0.070511624 -0.036374144
-0.027565345 -0.07553448 -0.14104709 0.14162333 0.5031568 0.055058725 0.007176022 0.18831041
0.48766103 -0.20220673 -0.110322274 -0.067154385 0.06561509 0.33967087 -0.112471685 -0.20671922
0.06424949 -0.08661924 -0.047064994 0.06432511 0.057234295 0.58642256 0.054820307 -0.045643155
0.04660454 0.22372016 -0.039396103 -0.081748374 -0.0863471 0.3993426 -0.26971456 -0.06009444
-0.15951319 -0.19101804 -0.057713993 -0.039689664 0.0050187623 -0.16028391 -0.23890476 -0.123101786
-0.0044809235 0.0191888 -0.18442072 -0.04918543 -0.047966514 0.07130037 0.05628658 0.06483278
-0.07712436 -0.04113656 -0.023377582 -0.08665407 -0.16271657 -0.12029448 0.47174624 0.36060873
0.016142257 -0.07291965 -0.0061380877 0.070490755 -0.10070892 -0.060297236 -0.14269872 -0.09802689
0.3083269 -0.17677285 0.5378223 -0.06355613 -0.072191305 0.07183037 -0.024484681 0.07704936
-0.01158325 -0.1762474 0.011664546 -0.11168174 0.5116312 -0.119540334 -0.13344365 0.0022841205
-0.013067493 -0.24511576 -0.24874556 0.0351284 -0.11229453 0.14605957 -0.05446417 -0.110718995

network.4.weight f4 [3, 128]
00000000: 8e79 2cbd 55f8 59bd e503 9ebe 68ae e8be
00000010: c581 d03e 84f4 66bf d4e0 84bd e9e2 e93e
00000020: 7e82 24bd 171f b6bc 68be c43e a71c 3fbd
00000030: 4e4d aa3c 41cb 4d3c 2fbd b4bc e0cb e63e
00000040: e27b 003f b038 48bd eec9 2dbf 5301 c5bd
00000050: 7424 b0be e845 c93e 9315 123f 7bd2 a8bd
00000060: 54be 38bd 1bd9 4e3d a942 0f3f 25a8 15bd
00000070: 37c1 ad3c 9012 a9bd cf2a 36bc 753f ac3e
00000080: a54f 91bd a5a2 98bd 8fd7 653d 5b4b bfbd
00000090: 1595 da3e f6a1 fc3e 214d 55bc 4a8e 503c
000000a0: 60c1 b03c ea46 3fbf e54e 22be f19a c43e
000000b0: 8f8f d63e a631 963b b8f1 d53e e872 3abe
000000c0: a6f3 e33e bfaf 9abf 0294 50bf 321f a33d
000000d0: 249e 06bd 4c8e 723e 8b97 213e 6f45 a6bf
000000e0: cb4b 163e 2ec7 1abd cafe 69bd 338b 663c
000000f0: cc75 04bd 440b 033f 9cf1 f0bc 8844 a43e
00000100: 4b89 5cbd 6548 b53e 2f95 23bd e9f2 af3d
00000110: 320d 06bd 404d 003f 521b debe 10d5 99bd
00000120: eac3 19bf 7a31 98be dd75 8cbf 12ed d1bc
00000130: 3cb4 8abd be15 f0be 8cda 15be f865 503e
00000140: a8d0 ad3d 49d3 51bc c8b0 9fbf b88c 41bd
00000150: 4e86 2dbc d8ec 6e3e 4510 813d e9af 4d3c
00000160: ad4b 92bf d960 5cbd 3d37 68bd c9cd f1bc
00000170: cfba 14bf a4a4 94bd f519 133f a77b 043f
00000180: fcac 86bd c713 97bd 73aa 28bd 12d4 eabc
00000190: 7e2b 90bf 7ad0 65bd 6c83 14c0 3718 94bf
000001a0: 0349 023f feee dabe 470e f33e 599a 483c
000001b0: 9ea5 22bf 8c77 f23b 30e1 47bd 4872 ed3e
000001c0: 2ee3 b93c 3173 63be 87d6 ac3d e562 73be
000001d0: 6bd2 dc3e 2077 4abe 2e01 76be cbce 56be
000001e0: cd49 1cbd d229 bebe b49d f5be 6ce9 84bd
000001f0: 4da6 00bf 9fff 0c3f e3ba fcbc 9a64 2cbd
00000200: b415 843d 50d7 173b 8958 c5be 0b8d 5bbf
00000210: 157e 093f 4437 ffbd 7006 473d d4b6 c23e
00000220: f3ce e2bc 7dd6 963d d511 213e fef7 9fbd
00000230: f3b5 37bd 89b0 5c3d 12b6 6f3d 278f 023f
00000240: 4299 ac3e 2adb 643d dede 07bf b7bc 02bf
00000250: c42a abbe 8db9 ee3e 9023 d23e d05d 913c
00000260: efdc 92bd c725 3ebd a6ff c83e 6e19 af3c
00000270: 3d94 353d f7d8 30bf 2d50 103d d56e ca3e
00000280: d2ee d8bc 982f 463c 5bad 1dbd cce8 11bf
00000290: fb20 283f af3c 0f3f d4e0 043d f840 b4bc
000002a0: a52a 033d 2465 44bf 06ef 8ebf 3f36 b03e
000002b0: 0496 ab3e e6cc 2b3d 6dd9 853e 4867 63bf
000002c0: a66b 1c3f da98 7dbf 5326 3abd e153 573d
000002d0: d31c fb3c 2934 083f 5ada ccbe 0801 77bf
000002e0: 5766 ca3e 26c0 1dbd 14e8 883d e2a9 a83c
000002f0: 7c24 8a3d 89c7 073f 0568 1b3d 25c6 2fbe
00000300: 4c9d 403d 1996 8e3e 4e2e 12bc be89 a63d
00000310: 3614 173d 8dad 063f ee3e 04bf 2950 bf3c
00000320: 65f7 1bbf 372b 98be bd2b 2dbf d1c1 acbb
00000330: df57 353d 231f 6bbf 0570 08bf f999 07bf
00000340: 147c 813c ecf6 883d 52ac 80bf 30e7 463d
00000350: 45b1 143d 45a7 b33e 59aa 563d 5fc8 b53b
00000360: 23b4 5bbf 2194 45bd a5cb 0d3d 69f7 d8bc
00000370: bb1b 55bf 245d 50bf a4b4 1d3f 4b36 9e3e
00000380: 8ca3 8c3d 93b2 7a3d 0c5c 373c cef6 ad3c
00000390: afe3 33bf 9094 34bd 6259 813d 03d0 89bf
000003a0: 2d48 0f3f 7575 e4be 84e3 023f c72e 5dbd
000003b0: 5d66 9f3c ee10 263d bef7 1ebd 8c91 a83e
000003c0: 59a2 823b 142d 28bf ac4e 8a3d ec4a 6bbf
000003d0: b9de af3e 7806 6abf 949e 75bf ef40 0c3e
000003e0: d52f 953c f245 22bf fc69 60bf 6e1e 91bb
000003f0: 2cb9 11bf ddad 6c3d f91d 573b a2d4 45bc
-0.04210811 -0.053215344 -0.30862346 -0.4544556 0.40724006 -0.9021685 -0.06488195 0.4568093
-0.04016351 -0.022231622 0.38426518 -0.046658184 0.020788815 0.012560667 -0.022062866 0.4507742
0.5018903 -0.048882186 -0.67886245 -0.09619393 -0.34402812 0.39311147 0.5706417 -0.08243271
-0.045103386 0.050500017 0.5596109 -0.03653731 0.021210296 -0.08255494 -0.011118605 0.33642164
-0.07095269 -0.07452897 0.056113776 -0.09340545 0.42691866 0.49342316 -0.013018877 0.012729237
0.021576583 -0.7471758 -0.15850408 0.3839946 0.41906402 0.0045835553 0.4178598 -0.18207896
0.44521827 -1.2084883 -0.8147584 0.079649344 -0.03286566 0.23687094 0.15780465 -1.298994
0.1467735 -0.03778761 -0.05712775 0.014071274 -0.032338902 0.51189065 -0.029412083 0.32083535
-0.05384187 0.35406795 -0.039937194 0.08591253 -0.032727428 0.50117874 -0.4338022 -0.075113416
-0.60064566 -0.29725248 -1.0973469 -0.02562574 -0.06772658 -0.46891588 -0.1463415 0.20351398
0.08487064 -0.012806722 -1.2475824 -0.04725334 -0.010591103 0.23332536 0.06301931 0.012554147
-1.1429344 -0.0538033 -0.056693304 -0.029517071 -0.5809755 -0.07257965 0.5746148 0.5175118
-0.06575963 -0.07376819 -0.041178178 -0.028665576 -1.1263273 -0.056107022 -2.3205214 -1.156989
0.5089266 -0.42760462 0.4747183 0.012243831 -0.6353396 0.007399505 -0.04879874 0.46376252
0.022691336 -0.22211911 0.08439355 -0.23768194 0.43129286 -0.19772005 -0.24023888 -0.20977323
-0.03815632 -0.3714128 -0.4797188 -0.06489834 -0.50253755 0.55077547 -0.030850833 -0.04208813
0.06449452 0.0023169108 -0.3854411 -0.8576209 0.5370801 -0.12461713 0.048590124 0.38030112
-0.027686572 0.07365129 0.15729459 -0.07810973 -0.044851255 0.053879295 0.058523245 0.50999683
0.33710676 0.055873074 -0.53074443 -0.51069206 -0.33431065 0.4662594 0.41042757 0.017744929
-0.07171046 -0.046422746 0.39257544 0.02137443 0.044330824 -0.6908106 0.03523271 0.39537683
-0.026481066 0.012096308 -0.038495403 -0.56995845 0.65675324 0.5595197 0.032440975 -0.022003636
0.03202309 -0.7671683 -1.1166694 0.34416386 0.3351289 0.041943453 0.26142445 -0.8882947
0.6110176 -0.9906136 -0.045446705 0.052570228 0.030653393 0.5320459 -0.4001034 -0.9648595
0.39531204 -0.038513325 0.066848904 0.020588819 0.0674524 0.5303884 0.037940998 -0.1716543
0.04702501 0.2784889 -0.008922173 0.08131741 0.03688451 0.5260857 -0.51658523 0.023353653
-0.6092437 -0.2972047 -0.67644864 -0.005272128 0.044273254 -0.91844386 -0.5329593 -0.5296932
0.015806235 0.066877216 -1.0052588 0.04856032 0.03630187 0.35088554 0.05240855 0.0055475677
-0.8582174 -0.04823697 0.03461804 -0.026485162 -0.8324544 -0.8139212 0.6160376 0.30900797
0.068671316 0.061205458 0.011191379 0.02123585 -0.7026929 -0.044086993 0.063158765 -1.0766605
0.55969507 -0.44620863 0.5112841 -0.05399969 0.01945799 0.04054349 -0.038810484 0.32923543
0.0039866385 -0.65693784 0.06753287 -0.91911197 0.3434961 -0.9141612 -0.95945096 0.13696645
0.018211285 -0.6338798 -0.8766172 -0.0044286763 -0.56923175 0.057782996 0.0032824262 -0.012074621

network.4.bias f4 [3]
00000000: b372 babc 52ec d93e 17e0 6e3e
-0.022759771 0.4256311 0.23327671
