DQN/DQN_checkpoints/dqn_checkpoint_250.pt (torch, 298901 bytes, 24 tensors)

network.0.weight f4 [128, 8]
0	0x3e0a0be7	0.13481103
1	0x3df8923e	0.121372685
2	0x3e8e0220	0.27735996
3	0x3db4d076	0.08828823
4	0xbe6e6cb9	-0.23283662
5	0x3e26d3d9	0.16291751
6	0x3e1eb1ee	0.15497562
7	0x3e89e86a	0.2693513
8	0xbeacbeb6	-0.3373925
9	0x3edcee9c	0.43150795
10	0x3e80152c	0.25016153
11	0xbe090e3e	-0.13384339
12	0x3ef2d221	0.4742594
13	0xbebb6bf0	-0.36605787
14	0x3e9add47	0.30246946
15	0xbe34b03b	-0.17645352
16	0xbf3e7994	-0.74404263
17	0x3f355940	0.7083931
18	0xbe98b4c1	-0.29825404
19	0xbe5baae9	-0.21451916
20	0x3eb6682a	0.35626346
21	0x3f069787	0.5257496
22	0x3efcc535	0.49369207
23	0x3ea6abb6	0.3255288
24	0x3f221e1f	0.6332721
25	0xbf522d54	-0.82100415
26	0x3f08bac0	0.5340996
27	0x3ec1d1cb	0.37855372
28	0xbc3ea4c9	-0.0116359675
29	0xbf4aba00	-0.79190063
30	0x3eb804c2	0.3594113
31	0xbec0ff1d	-0.37694636
32	0xbf415833	-0.75525206
33	0x3eee58ff	0.46552274
34	0xbf0a2595	-0.53963596
35	0x3e653f99	0.22387542
36	0x3e3aefb0	0.18255496
37	0x3f807b6c	1.0037665
38	0xbe8914ef	-0.26773784
39	0x3d98af35	0.07455293
40	0x3e53f254	0.2069791
41	0xbde85257	-0.1134383
42	0x3e90888a	0.2822917
43	0x3e037b7f	0.12840079
44	0xbba4a51c	-0.0050245654
45	0xbda9aa86	-0.08284478
46	0xbe412632	-0.18862227
47	0xbeb90f7d	-0.3614463
48	0xbe1a78a0	-0.15085077
49	0x3ed45ee6	0.41478652
50	0xbe625140	-0.22101307
51	0xbf15afae	-0.5847119
52	0xbddea9b1	-0.1087221
53	0x3f538f1d	0.8264025
54	0x3d6f8d9d	0.058484662
55	0x3f4be3d4	0.79644513
56	0x3df5b68c	0.11997709
57	0x3f27dbb9	0.65569645
58	0xbf0b851a	-0.5449997
59	0xbef202c8	-0.47267747
60	0xbdc53429	-0.096290894
61	0x3ce74dca	0.028235335
62	0x3ed403cf	0.41409156
63	0xbd6650ad	-0.056229282
64	0xbf859ac9	-1.0437862
65	0x3ec8402e	0.39111465
66	0xbf681f04	-0.90672326
67	0xbecdd636	-0.40202492
68	0x3f3da952	0.7408649
69	0x3f973491	1.1812917
70	0x3da98ded	0.08279023
71	0x3efd7b12	0.49507958
72	0x3e1d6df5	0.15373977
73	0xbf0d2c8f	-0.55146116
74	0x3eb5e577	0.3552663
75	0x3ec4be96	0.38426656
76	0x3c884978	0.016636595
77	0xbb34d6e7	-0.0027593912
78	0xbf830a9f	-1.0237616
79	0x3f0dab6e	0.55339706
80	0xbdba2c0b	-0.09090432
81	0x3e01fac2	0.12693313
82	0x3ed6a87f	0.41925427
83	0x3ec0eeb4	0.37682116
84	0x3e927c0e	0.2861027
85	0x3ed09d99	0.40745237
86	0xbd3da78a	-0.046302356
87	0xbe98f310	-0.29872942
88	0xbf118d57	-0.5685629
89	0x3f031588	0.5120473
90	0x3da87d5b	0.08227035
91	0xbf1ea497	-0.61969894
92	0x3e547abc	0.20749944
93	0x3f0371e1	0.5134564
94	0x3eb3b390	0.35097933
95	0x3eab2306	0.33425158
96	0x3ece30be	0.40271562
97	0xbec80351	-0.3906503
98	0xbf197887	-0.59949535
99	0x3f40a650	0.7525377
100	0x3ce0f847	0.027462138
101	0xbe9beabf	-0.30452535
102	0xbed4a023	-0.41528425
103	0x3e8791a7	0.2647831
104	0xbeaee62f	-0.3415999
105	0x3ea6462f	0.3247542
106	0x3d567bfa	0.052364327
107	0x3f108d7d	0.56465894
108	0xbebb3da1	-0.36570457
109	0x3e94d9e9	0.29072502
110	0x3db74078	0.08947843
111	0x3f09cb96	0.5382627
112	0x3c5aabc8	0.01334662
113	0x3eda3f81	0.42626575
114	0x3f14ae66	0.5807861
115	0x3f2b37da	0.668821
116	0xbf84f18e	-1.0386217
117	0xbd55b64a	-0.052175798
118	0x3d7f7c9d	0.0623747
119	0xbd90d376	-0.07071583
120	0x3f2cf52e	0.67561615
121	0xbdcbf410	-0.099586606
122	0x3eb68477	0.35647938
123	0xbe1b8168	-0.15186083
124	0x3f1771b8	0.59157896
125	0xbdbc2b27	-0.09187918
126	0xbe1a7e66	-0.1508728
127	0x3dcef021	0.10104395
128	0x3e5fcc4e	0.2185528
129	0x3eafdefa	0.34349805
130	0x3f2343e7	0.63775486
131	0x3ebe39f9	0.37153605
132	0xbf313900	-0.692276
133	0x3db9cc50	0.09072173
134	0xbdd99f4e	-0.10626088
135	0xbea0fb5d	-0.31441775
136	0x3c35a04c	0.011085581
137	0x3dc2c21c	0.0950968
138	0x3e70141a	0.23445168
139	0x3f0253dc	0.5090921
140	0x3e85c87f	0.2612953
141	0xbc1dcf13	-0.00963189
142	0xbe4b7eca	-0.19872585
143	0x3e2ff5d2	0.17183617
144	0xbf01d99f	-0.5072269
145	0x3f12f104	0.5739901
146	0x3ca80a9f	0.020512877
147	0x3eac47c1	0.33648494
148	0x3cd68234	0.026185133
149	0xbf422839	-0.75842625
150	0xbe21d4d3	-0.15803842
151	0xbf10a531	-0.5650206
152	0x3d9b9554	0.075968415
153	0x3d0a47a7	0.03375974
154	0x3ec381ce	0.3818497
155	0xbe2d522c	-0.16925877
156	0xc033ffdb	-2.8124912
157	0xbd969625	-0.073528565
158	0x3ea09774	0.3136555
159	0xbcb7441f	-0.02237135
160	0x3e4ebffa	0.20190421
161	0xbe9089d8	-0.28230166
162	0x3e362f74	0.1779154
163	0x3e17c6fd	0.14822002
164	0x3e019bc0	0.1265707
165	0xbe09a57e	-0.13442037
166	0xbebb854c	-0.36625135
167	0x3f0df767	0.5545563
168	0xbea61329	-0.32436493
169	0xbd81c991	-0.06337274
170	0x3e9cdd34	0.30637515
171	0x3e402603	0.187645
172	0xc06d6f21	-3.7099078
173	0xbdb74537	-0.089487486
174	0x3e0a1d51	0.13487746
175	0xbd2795f4	-0.04091449
176	0xbdc4c451	-0.09607757
177	0xbf355c3d	-0.7084387
178	0x3ed41f3a	0.41430074
179	0x3f0730a4	0.52808595
180	0x3e4bace5	0.19890173
181	0x3df9c9f2	0.12196721
182	0x3ed40677	0.41411182
183	0xbed06ecf	-0.4070954
184	0x3f247666	0.6424316
185	0xbdd90030	-0.10595739
186	0x3e3d963e	0.18514344
187	0xbe735ad6	-0.2376512
188	0x3f0c1741	0.5472298
189	0xbe27e4f8	-0.16395938
190	0xbe7acbd2	-0.24491814
191	0x3dfa0380	0.12207699
192	0xbec31005	-0.3809816
193	0x3ec57164	0.38563073
194	0x3eeec4f1	0.4663463
195	0xbf27f237	-0.65603966
196	0x3f00ac1a	0.50262606
197	0x3ea95540	0.33072853
198	0xbead313f	-0.33826634
199	0xbe680973	-0.22659855
200	0xbed1bac9	-0.40962818
201	0xbc793cfd	-0.015212295
202	0x3e529d83	0.20567898
203	0xbecb177f	-0.39666364
204	0x3db6e69a	0.089307025
205	0x3eae4f99	0.34045103
206	0xbe46b607	-0.19405375
207	0xbd9c00a4	-0.0761731
208	0x3d4389a4	0.047738686
209	0x3e77bd9e	0.24193427
210	0x3d534256	0.051576935
211	0x3de81116	0.11331384
212	0x3e59e9e4	0.21280628
213	0xbe6f7741	-0.23385336
214	0xbe53cbbf	-0.20683192
215	0x3cc1fc84	0.02367998
216	0x3e27b4b7	0.16377531
217	0xbea0025b	-0.31251797
218	0x3ec21fa5	0.37914768
219	0x3ea7e263	0.32789907
220	0xbfe8132e	-1.8130853
221	0xbea918eb	-0.33026823
222	0x3e8c7b0c	0.27437627
223	0xbe930a48	-0.2871878
224	0x3f31e61d	0.6949175
225	0xbd0a5da3	-0.033780705
226	0xbe73d1f3	-0.23810558
227	0xbe1b4313	-0.15162306
228	0x3e723991	0.23654772
229	0x3d27db4a	0.040980615
230	0xbcacabb6	-0.021077972
231	0xbdf6806a	-0.12036212
232	0x3ecccbc3	0.39999208
233	0x3e0de6b1	0.13857533
234	0xbf0fbd62	-0.5614835
235	0xbf775632	-0.966159
236	0x3e4a2222	0.19739583
237	0xbececbc6	-0.40389842
238	0xbf8f8fe7	-1.121579
239	0xbce95c0c	-0.028486274
240	0x3efa2b23	0.48861036
241	0xbeae13e2	-0.33999544
242	0x3ee1d66f	0.44108912
243	0xbe3cd407	-0.18440257
244	0x3de2ade1	0.11068321
245	0x3dc27938	0.09495777
246	0xbf222632	-0.6333953
247	0xbe7c3194	-0.24628288
248	0x3edcbc50	0.4311242
249	0xbece8983	-0.40339288
250	0x3edbbdff	0.42918393
251	0xbd3375be	-0.04381346
252	0x3f29027b	0.6601941
253	0x3e3be06c	0.18347329
254	0x3e77b253	0.24189119
255	0x3ce8a59e	0.028399285

network.0.bias f4 [128]
0	0x3ec148bf	0.37750813
1	0x3f08066d	0.53134805
2	0xbe22ca3f	-0.15897463
3	0xbe7d6a46	-0.24747571
4	0xbdd4fece	-0.10400163
5	0x3f35e996	0.7105955
6	0xbefce68c	-0.49394643
7	0x3ea2ec8d	0.318211
8	0x3ef46b0e	0.47737926
9	0x3e8e79f9	0.27827433
10	0x3f1c266d	0.60996133
11	0xbe1050fe	-0.14093396
12	0x3c7b1e9a	0.01532712
13	0x3ec42ad0	0.38313913
14	0x3d8891e3	0.06668451
15	0xbe9f99e7	-0.31172106
16	0xbe8ed07f	-0.27893445
17	0x3e13e6ea	0.14443555
18	0x3eda7f53	0.42675266
19	0xbdaf4a0b	-0.085590445
20	0x3e6a6fed	0.22894259
21	0x3e97d934	0.296579
22	0xbe4de0f9	-0.20105352
23	0xbe005347	-0.12531768
24	0x3e868acb	0.26277766
25	0x3f018084	0.50586724
26	0x3f276b21	0.6539784
27	0xbb1647fe	-0.0022931094
28	0x3e00c184	0.1257382
29	0xbe86d87a	-0.26337034
30	0x3eb753ab	0.3580602
31	0xbe6c5974	-0.23080999
32	0xbd283e9b	-0.04107533
33	0x3e30761d	0.17232557
34	0xbf09e911	-0.53871256
35	0x3e97eb62	0.2967177
36	0xbd9bdb0c	-0.07610139
37	0xbcddfdd1	-0.027098568
38	0xbe8aa4d6	-0.27078885
39	0xbea381c5	-0.31934944
40	0x3f46fdf3	0.77731246
41	0x3cd642cb	0.026154896
42	0x3e18d0a1	0.14923336
43	0xbda8ce1b	-0.082424365
44	0xbe59c7a3	-0.21267562
45	0x3eea4f63	0.45763692
46	0x3ef68385	0.48147216
47	0x3e1f08ce	0.15530702
48	0x3e8ae998	0.27131343
49	0x3ddf476d	0.10902295
50	0xbeba8312	-0.36428124
51	0x3e45a0c5	0.1929961
52	0x3eb3abbd	0.35091963
53	0x3efaf51d	0.49015132
54	0x3f3fd0d0	0.74928
55	0x3ee81326	0.4532711
56	0x3d61aa8f	0.055094298
57	0x3f1eccb4	0.620311
58	0x3f1ae53f	0.6050605
59	0xbde79b69	-0.11308939
60	0x3f19d306	0.6008762
61	0x3dddd858	0.1083228
62	0x3e184e92	0.14873722
63	0xbdeee1ab	-0.116641365
64	0x3e47b53c	0.19502729
65	0x3f39dda1	0.72603804
66	0x3e4809d6	0.19535002
67	0x3efbe942	0.492014
68	0xbb4dd519	-0.0031407534
69	0x3ea6d9c0	0.32588005
70	0x3caa90ba	0.020820964
71	0xbd88b77a	-0.066756204
72	0x3e8d6df0	0.27622938
73	0xbeb08388	-0.3447535
74	0xbde040e6	-0.109498784
75	0xbd1a8ed6	-0.037733875
76	0xbeae55aa	-0.34049731
77	0xbe60ec13	-0.21965055
78	0x3f2709d7	0.6524939
79	0x3d235d61	0.039883975
80	0x3eb7bf3e	0.35888094
81	0x3eaf2de8	0.3421471
82	0xbe242321	-0.16029026
83	0x3e99083e	0.298891
84	0x3e383b3c	0.17991346
85	0xbd14ccd9	-0.03632817
86	0xbe266cfe	-0.16252515
87	0x3c52c79a	0.0128649715
88	0x3f05ad83	0.5221788
89	0x3eee1d37	0.46506664
90	0xbef8ac17	-0.48568794
91	0x3df1b08e	0.11801253
92	0x3ef0ccfd	0.47031394
93	0xbeee13fc	-0.46499622
94	0x3e01134c	0.12605017
95	0xbbfbfd10	-0.0076900795
96	0xbea2ba20	-0.31782627
97	0x3e9a59d9	0.30146673
98	0x3e90560f	0.28190657
99	0x3ede62a0	0.4343462
100	0x3ca8a24e	0.020585205
101	0x3e88574f	0.2662911
102	0x3e807744	0.25090992
103	0xbe8f3282	-0.27968222
104	0x3ef643eb	0.48098692
105	0xbc8caad0	-0.017171293
106	0x3f149e7e	0.5805434
107	0xbe11f973	-0.14255314
108	0x3d7cec69	0.061748896
109	0x3e41a199	0.18909301
110	0x3e97269d	0.29521647
111	0x3eaa73c9	0.33291462
112	0xbd5ca2ca	-0.053866185
113	0x3d02531b	0.031817537
114	0x3ec2e122	0.38062388
115	0xbddcca59	-0.10780782
116	0x3eb2c550	0.34916162
117	0xbe339f26	-0.17541179
118	0x3ea49a39	0.32148913
119	0x3d9eaf3e	0.077482685
120	0x3e5b163d	0.21395202
121	0xbe8c37e6	-0.27386397
122	0x3d69f1b9	0.05711529
123	0x3f29fed1	0.66404444
124	0xbd56226b	-0.052278917
125	0x3eaf2b63	0.3421279
126	0x3f400513	0.7500774
127	0xbebfa599	-0.37431028

network.2.weight f4 [128, 128]
0	0x3d20eccb	0.039288323
1	0x3d21f555	0.039540607
2	0x3d10a19a	0.035310365
3	0xbd7e43dd	-0.06207644
4	0xbcd2fc1c	-0.02575498
5	0xbc28cc05	-0.010302548
6	0xbd2b0a6a	-0.04175798
7	0xbca05fd3	-0.019576943
8	0xbdbf50a0	-0.0934155
9	0xbd5fc3bf	-0.054630037
10	0xbda4e32f	-0.08051144
11	0xbc48b496	-0.012250086
12	0x3d79332d	0.06083982
13	0x3d45ac7d	0.0482602
14	0xbd91607b	-0.0709848
15	0xbd88ae7f	-0.066739075
16	0xbd8f42c0	-0.069951534
17	0x3bff5f7b	0.0077933646
18	0xbd72b940	-0.0592587
19	0x3c8b9e14	0.017043151
20	0x3cb90f5c	0.022590332
21	0x3c527b4a	0.012846777
22	0xbdbbacb9	-0.091638036
23	0xbd9866d1	-0.07441486
24	0xbd15571e	-0.036460035
25	0xba402bce	-0.0007330746
26	0x3d7217d7	0.059104767
27	0xbd44225c	-0.04788433
28	0xbcb9304f	-0.022606043
29	0x3d47ea6f	0.048807558
30	0x3d9ce511	0.076608784
31	0xbd3da8be	-0.046303503
32	0xbca83c3b	-0.020536533
33	0x3d8b695a	0.068072036
34	0x3d0ef122	0.03489793
35	0xbd4ab41d	-0.049488176
36	0x3d16c749	0.036811147
37	0xbc662390	-0.014046565
38	0x3b933d63	0.004493402
39	0x3ba58970	0.005051784
40	0xbc69bad4	-0.014265735
41	0xbcc5df70	-0.024154395
42	0x3a896b7c	0.0010484303
43	0xbd430b1b	-0.047618013
44	0x3d8a1802	0.067428604
45	0xbdac66cf	-0.08418047
46	0x3d2a2a10	0.04154402
47	0xbcb65d45	-0.022261271
48	0x3d2808ff	0.041024204
49	0x3d51d42d	0.051227737
50	0xbd48f959	-0.04906592
51	0x3d581ad4	0.05275996
52	0xbce44ade	-0.02786773
53	0xbcc7060c	-0.024294876
54	0x3c4e8719	0.012605452
55	0x3cb27d95	0.021788398
56	0xbd965438	-0.07340282
57	0xbc9d0a31	-0.019169899
58	0xbd857316	-0.065160915
59	0x3d40ee29	0.047102127
60	0xbb361e7a	-0.0027789162
61	0xbdc375c2	-0.09543945
62	0x3c213176	0.009838453
63	0x3d354b12	0.044261046
64	0x3cf7230f	0.030168084
65	0x3cb7750d	0.022394681
66	0xbd1316e5	-0.035910506
67	0x3d8089f6	0.06276314
68	0xbd585cc6	-0.05282285
69	0x3c86344a	0.016382355
70	0xbd88c1f9	-0.06677622
71	0x3d157a3e	0.036493532
72	0xbd9c6630	-0.07636678
73	0x3d47e0aa	0.04879824
74	0x3d873cc5	0.06603388
75	0xbd57c3bc	-0.0526769
76	0xbdc2525d	-0.09488366
77	0xbd8f9e31	-0.070125945
78	0xbc0cf529	-0.008603373
79	0x3d3b2092	0.04568536
80	0x3d54cae3	0.0519513
81	0xbc887553	-0.016657507
82	0x3d5d5dba	0.054044463
83	0xbd95b3f7	-0.07309716
84	0xbd4a9b11	-0.04946429
85	0x3ccd1434	0.025034048
86	0x3c996448	0.018724576
87	0x3cad53d2	0.021158133
88	0xbdd809f2	-0.10548772
89	0x3c88f96e	0.0167205
90	0x3c8d96de	0.017283853
91	0xbc6daa09	-0.014505872
92	0xbd22c116	-0.039734922
93	0x3cea5ac4	0.028607734
94	0x3c63080f	0.013856902
95	0xbbdc2fdb	-0.006719572
96	0xbcee6a4c	-0.02910342
97	0x3b492a2b	0.00306953
98	0x3d0b1f6e	0.03396552
99	0xbd4f4137	-0.050599303
100	0x3da83989	0.08214099
101	0xbd9ff7c8	-0.078109324
102	0xbdbdfa6d	-0.092762806
103	0x3d0ca956	0.03434118
104	0xbd03197f	-0.032006737
105	0xbdb95bbf	-0.09050702
106	0xbdcefa83	-0.10106375
107	0xbc39d8e1	-0.011343212
108	0xbc8f6a47	-0.017506732
109	0xbd94513a	-0.07242055
110	0x3d844079	0.0645761
111	0x3d349125	0.044083733
112	0xbd00462a	-0.031316914
113	0xba92fbb4	-0.0011213929
114	0xbce3e17a	-0.027817477
115	0xbcc8208c	-0.024429582
116	0xbcb4ec31	-0.022085281
117	0x3d034043	0.032043707
118	0xbd5d717a	-0.054063298
119	0x3d954a3c	0.0728955
120	0x3cea23a6	0.028581452
121	0xbcc7e43c	-0.024400823
122	0x3bca6814	0.006176958
123	0x3b6c68f4	0.00360733
124	0x3d950912	0.07277121
125	0x3d44ff35	0.048094947
126	0xbd0cb926	-0.03435626
127	0xbd94f9f2	-0.07274236
128	0x3e6969b2	0.22794226
129	0xbeac3508	-0.3363421
130	0x3e6d3477	0.23164545
131	0xbe6a639e	-0.22889563
132	0x3e89474e	0.26812214
133	0xbea59051	-0.32336667
134	0x3ea7c571	0.32767823
135	0xbe9dfc30	-0.30856466
136	0xbc03eaf6	-0.0080516245
137	0x3f1aa0b9	0.60401493
138	0xbdd0b1ed	-0.10190187
139	0xbdb46d33	-0.088098906
140	0x3eb9181c	0.36151206
141	0x3ec25b76	0.37960404
142	0x3e84fa4c	0.2597221
143	0x3f15ce2a	0.58517706
144	0x3e90caf2	0.28279835
145	0x3e28bc31	0.1647804
146	0xbe01de2a	-0.12682405
147	0x3c994b97	0.018712802
148	0x3f066f38	0.52513456
149	0xbdf0e85c	-0.11763069
150	0xbf60f4a1	-0.87873274
151	0x3e4e4d25	0.20146616
152	0xbf2e6cd5	-0.68134815
153	0xbecbfc2e	-0.39840835
154	0xbd37c106	-0.044861816
155	0x3d9d6f06	0.07687192
156	0xbc96fcc3	-0.018431073
157	0x3f216cb5	0.630565
158	0x3e57782e	0.21041939
159	0xbeba3ed9	-0.36376074
160	0x3ed5fe52	0.41795594
161	0x3ea3dae6	0.32002944
162	0x3f077dc5	0.52926284
163	0x3e4dc9f6	0.20096573
164	0xbe6d887b	-0.23196594
165	0xbf51d454	-0.8196461
166	0xbd3cc45a	-0.046085693
167	0x3c309c5d	0.010779467
168	0xbddd43b2	-0.108039275
169	0x3f1bc74c	0.6085098
170	0xbf1b0480	-0.6055374
171	0x3f595205	0.84890777
172	0x3e98bb3a	0.29830343
173	0x3e428f04	0.18999869
174	0x3e8a2727	0.26982996
175	0x3e94686d	0.2898592
176	0xbdbb3611	-0.09141172
177	0xbef7d4bc	-0.4840449
178	0x3cd219b2	0.025647018
179	0xbedf66bb	-0.43633065
180	0x3e4cf227	0.20014249
181	0x3e8ad730	0.271173
182	0xbe0eede4	-0.13957936
183	0x3e834634	0.25639498
184	0x3eac19d7	0.33613464
185	0x3e3a9ba9	0.18223442
186	0xbdb202a4	-0.0869191
187	0x3daa03fc	0.08301541
188	0x3e2b3bd6	0.16722044
189	0xbfd8bf15	-1.6933314
190	0xc02d2cf2	-2.7058682
191	0x3ed86199	0.4226196
192	0xbf09d507	-0.5384068
193	0xbbf0849f	-0.0073400284
194	0xbf766c9b	-0.9625947
195	0x3ee3d167	0.444957
196	0xbe6ef3a4	-0.23335129
197	0x3ed34e31	0.41270593
198	0xbedbedbf	-0.42954823
199	0xbf4f79fb	-0.810455
200	0xbf775de9	-0.9662767
201	0xbd3607f9	-0.044441197
202	0xbf3240c9	-0.69630104
203	0xbff5a857	-1.9191998
204	0x3e921dd4	0.28538382
205	0x3d62f833	0.055412482
206	0xbdb859a2	-0.09001471
207	0x3e45e88a	0.19326988
208	0xbe7fc104	-0.24975973
209	0x3ea1cb03	0.31600198
210	0xbf7ccf98	-0.9875426
211	0xbc566749	-0.013086149
212	0x3eebd130	0.46058035
213	0x3f43f56a	0.7654635
214	0xbf632b0e	-0.8873757
215	0xbf5c8f24	-0.86155915
216	0xbef5e537	-0.4802644
217	0x3da5bc7c	0.08092591
218	0x3f8e60cc	1.112329
219	0xbd0d1f28	-0.03445354
220	0xbeffd1db	-0.49964795
221	0x3e96dc91	0.29465154
222	0x3f1504c9	0.58210427
223	0x3e9b89ec	0.30378664
224	0x3d8b3cc1	0.06798697
225	0x3e62ce35	0.22148974
226	0xbf029eaa	-0.5102335
227	0xbf1d6a68	-0.6149049
228	0xbf48159d	-0.7815798
229	0xbf33f78e	-0.70299613
230	0x3d59d200	0.053178787
231	0xbe8c793d	-0.27436247
232	0xbc108d87	-0.008822805
233	0x3e85dcff	0.2614517
234	0x3e13c11c	0.14429134
235	0x3ec28dd6	0.37998837
236	0x3e2fa5c8	0.17153084
237	0x3eef0bce	0.46688694
238	0xbf7998c7	-0.97498745
239	0x3e75218e	0.23938581
240	0xbdbec3bd	-0.09314678
241	0xbf86367f	-1.0485381
242	0xbe2dfd32	-0.16991118
243	0x3e544bd7	0.20732056
244	0x3e26518a	0.16242042
245	0x3e21964d	0.15779991
246	0x3e80834d	0.25100175
247	0x3e8cea31	0.27522424
248	0xbf0d8a83	-0.5528948
249	0xbe9b4d9a	-0.30332643
250	0xbc709d27	-0.014685906
251	0xbdb54626	-0.088512704
252	0x3f808fe6	1.0043914
253	0x3f126e64	0.5719969
254	0x3de53fe4	0.11193827
255	0x3dbeddb9	0.09319634

network.2.bias f4 [128]
0	0xb9da160e	-0.00041596632
1	0xbd7c3897	-0.061577406
2	0xbe6a4332	-0.22877195
3	0xbde0a900	-0.10969734
4	0x3f1c1af4	0.6097863
5	0xbe0cf621	-0.13765766
6	0xbced64fc	-0.028978817
7	0x3f186568	0.59529734
8	0xbb80b08b	-0.0039272956
9	0xbd11c5ce	-0.035589032
10	0x3e98f822	0.2987681
11	0x3bc35cbd	0.005961983
12	0x3d2e2130	0.04251212
13	0x3c9d9603	0.01923657
14	0xbdabf0ec	-0.083955616
15	0x3e979ad7	0.2961032
16	0x3f064560	0.5244961
17	0xbd5a02c3	-0.05322529
18	0xbd7e4ab8	-0.062082976
19	0xbe6d86f0	-0.23196006
20	0xbe1c6791	-0.15273882
21	0x3ea49f4a	0.32152778
22	0x3e98e501	0.29862216
23	0xbd8bf630	-0.06834066
24	0xbd49465a	-0.049139358
25	0x3d621b51	0.055201832
26	0x3e9a6826	0.30157584
27	0x3c608545	0.013703649
28	0x3bb3f23d	0.0054915235
29	0xbe2dc5b2	-0.16969946
30	0xbd9f7e78	-0.07787794
31	0x3e2cb0d2	0.16864327
32	0x3ca9e48a	0.020738859
33	0xbbe21c0e	-0.006900317
34	0x3d80562b	0.06266435
35	0xbe235891	-0.15951754
36	0x3f1b1c71	0.60590273
37	0x3f217471	0.630683
38	0xbd906899	-0.070512004
39	0xbd14fdaf	-0.036374744
40	0xbce1d0b8	-0.027565345
41	0xbd06196e	-0.032739095
42	0xbd1bba06	-0.038019203
43	0x3e2f4f3d	0.17120071
44	0x3f18973b	0.5960576
45	0x3d6184e5	0.05505838
46	0x3d04340f	0.03227621
47	0x3e874dcb	0.2642654
48	0x3f14f08e	0.5817956
49	0xbe2df716	-0.16988787
50	0xbdec9c9f	-0.115533106
51	0xbd898853	-0.06715455
52	0x3d2dfbcf	0.04247647
53	0x3eba73c1	0.36416438
54	0xbda04de4	-0.078273565
55	0xbe35715d	-0.17719026
56	0x3e07084f	0.13186763
57	0xbdb1656e	-0.08661924
58	0xbda09785	-0.078414
59	0x3d83bce2	0.06432511
60	0x3cedb847	0.029018534
61	0x3f2ca683	0.67441577
62	0x3d608adf	0.054819938
63	0x3d11f5cf	0.035634812
64	0x3d3ee455	0.046604473
65	0x3e9b12e2	0.30287844
66	0xbd215e0a	-0.039396323
67	0xbda76bb1	-0.081748374
68	0xbdb0d70a	-0.086347654
69	0x3ef23129	0.4730313
70	0xbea0942d	-0.3136305
71	0xbdbb204c	-0.091370195
72	0xbe17c496	-0.14821085
73	0xbe4f4e9f	-0.20244835
74	0xbc13d66e	-0.009023292
75	0xbd2291a1	-0.039689664
76	0x3ba4739f	0.005018666
77	0xbe32b99d	-0.17453618
78	0xbe5d30a8	-0.21600592
79	0xbdfa7225	-0.122288026
80	0xbb92d4cb	-0.0044809333
81	0x3c9d31a0	0.019188702
82	0xbe2767c3	-0.16348176
83	0xbd497743	-0.049186002
84	0xbd4478e9	-0.04796687
85	0x3ca5b05f	0.020225702
86	0x3d668c12	0.056285925
87	0x3d84c6b2	0.064832106
88	0xbd87ca4f	-0.06630384
89	0xbd287efd	-0.04113673
90	0xbcbf8258	-0.023377582
91	0xbdb177bd	-0.086654164
92	0xbe2d14cf	-0.16902469
93	0x3d1a884b	0.037727635
94	0x3f0f6ca3	0.5602514
95	0x3ee97e4a	0.45604163
96	0x3c843c06	0.016141903
97	0xbdd5a633	-0.104320906
98	0xbbc92203	-0.0061380877
99	0x3d905d58	0.07049054
100	0xbd8cb22a	-0.068699196
101	0xbd8fd056	-0.07022159
102	0xbe20762e	-0.15670082
103	0xbd9bb2eb	-0.07602485
104	0x3ebe106b	0.371219
105	0xbe5d8221	-0.21631671
106	0x3f225a6f	0.6341924
107	0xbdae7015	-0.08517472
108	0xbd01c763	-0.03168429
109	0x3d931b43	0.07182934
110	0xbcc8944b	-0.024484774
111	0x3dcf3806	0.101181075
112	0xbc3dc7ac	-0.01158325
113	0xbe3a674c	-0.18203467
114	0x3c3f1c75	0.0116644995
115	0xbe07ff08	-0.1328088
116	0x3f1b0b2b	0.60563916
117	0xbe54886d	-0.20755167
118	0xbe1de6f0	-0.15420127
119	0xbdc26e83	-0.09493735
120	0xbc5619b2	-0.01306765
121	0xbe7405cf	-0.23830341
122	0xbe651182	-0.2236996
123	0x3d0fe281	0.03512812
124	0xbe279cd7	-0.16368423
125	0x3e76e74a	0.24111667
126	0xbd5f15f4	-0.054464296
127	0xbdfd3ee6	-0.123655125

network.4.weight f4 [3, 128]
0	0xbd2c7941	-0.042107824
1	0xbe2f497a	-0.17117873
2	0xbd824b09	-0.06361968
3	0xbf1a2201	-0.60208136
4	0x3ee17a0e	0.44038433
5	0xbf35ce7f	-0.71018213
6	0xbd84e0b1	-0.06488169
7	0x3ef86f74	0.48522532
8	0xbd248207	-0.040163066
9	0x3cdcaf49	0.026939051
10	0x3ed1300b	0.40856966
11	0xbd3f1c33	-0.046657752
12	0x3caa4d24	0.020788737
13	0x3c4dcbb8	0.012560777
14	0xbcb4bc62	-0.022062484
15	0x3ec79693	0.38982067
16	0x3f09b554	0.5379231
17	0xbd483853	-0.04888184
18	0xbf97aff0	-1.1850567
19	0x3e6fc883	0.23416333
20	0xbeb85c2e	-0.36007828
21	0x3eaa4749	0.3325751
22	0x3f0bf653	0.54672736
23	0xbda8d27b	-0.08243271
24	0xbd38be54	-0.045103386
25	0x3d4ed91b	0.050500017
26	0x3f0987eb	0.5372302
27	0xbd15a796	-0.036536776
28	0x3cadc137	0.021210296
29	0x3e54c71e	0.20779082
30	0xbc362a5b	-0.011118497
31	0x3e84bb0c	0.25923955
32	0xbd914f03	-0.070951484
33	0xbd98a218	-0.07452792
34	0x3d65d78f	0.056113776
35	0x3e3e93c1	0.18611051
36	0x3eedce94	0.4644667
37	0x3f047bf5	0.51751643
38	0xbc554d02	-0.013018848
39	0x3c508e66	0.012729263
40	0x3cb0c160	0.021576583
41	0xbfb2e553	-1.3976234
42	0xbe7db95f	-0.24777745
43	0x3e952295	0.29127946
44	0x3ee9ab86	0.45638674
45	0x3b963249	0.004583631
46	0x3eacde2e	0.3376326
47	0xbf930a20	-1.1487465
48	0x3ef87fe0	0.4853506
49	0xbff032ba	-1.876548
50	0xbec88062	-0.39160448
51	0x3da31f32	0.079649344
52	0xba59c40d	-0.0008307107
53	0x3e03bee7	0.12865792
54	0x3d3d9904	0.046288505
55	0xbff19d1f	-1.8876075
56	0x3b82c98c	0.0039913114
57	0xbd1ac72e	-0.03778761
58	0xbd69fe5a	-0.057127334
59	0x3c668b32	0.014071273
60	0xbd0475be	-0.03233885
61	0x3f0bd74a	0.5462538
62	0xbcf0f19c	-0.029412083
63	0x3eafe629	0.34355286
64	0xbd5c894b	-0.05384187
65	0x3ebb712c	0.3660978
66	0xbd23952f	-0.039937194
67	0x3daff2e9	0.08591253
68	0xbd060d32	-0.032727428
69	0x3f056d24	0.5211966
70	0xbf0e1e17	-0.55514663
71	0xbd99d510	-0.075113416
72	0xbf307a2d	-0.68936425
73	0xbeca721e	-0.3954019
74	0xbfb10333	-1.3829101
75	0xbcd1ed0b	-0.025625726
76	0xbd8ab386	-0.06772523
77	0xbf2618e6	-0.6488174
78	0xbf4f648b	-0.8101279
79	0x3e44ce99	0.19219436
80	0x3dadd0a8	0.08487064
81	0xbc51d2fc	-0.01280665
82	0xbfe7f41b	-1.812137
83	0xbd418cb8	-0.04725334
84	0xbc2d85da	-0.010590995
85	0x3e1c9075	0.15289481
86	0x3d8110ee	0.06302057
87	0x3c4db063	0.012554261
88	0xbfdfb808	-1.7478037
89	0xbd5c6083	-0.05380298
90	0xbd68373d	-0.056693304
91	0xbcf1cdc9	-0.029517071
92	0xbe7a4b71	-0.24442841
93	0xbcb73e92	-0.022368703
94	0x3f19063a	0.59775126
95	0x3f0b38e3	0.5438368
96	0xbd86acbc	-0.06575915
97	0xbd9713c7	-0.07376819
98	0xbd28aa73	-0.041178178
99	0xbcead378	-0.02866529
100	0xbfdf465d	-1.7443348
101	0xbd22cc0c	-0.039745376
102	0xc04c55c7	-3.1927354
103	0xbfacf7b3	-1.3513092
104	0x3f038b1e	0.5138415
105	0xbefbd125	-0.49183002
106	0x3f040cce	0.5158204
107	0xbc9e2b46	-0.019307744
108	0xbfcc5ac9	-1.5965205
109	0x3bf277b2	0.0073995227
110	0xbd47e0d3	-0.048798393
111	0x3ebc59fc	0.36787403
112	0x3cb9e32e	0.022691336
113	0xbeb60c0b	-0.35556063
114	0x3dacd6e2	0.08439423
115	0xbef40578	-0.47660422
116	0x3ef208c5	0.47272316
117	0x3f0216d7	0.508161
118	0xbee7be1d	-0.45262232
119	0xbe1a9642	-0.15096381
120	0xbd1c4956	-0.038155876
121	0xbedea711	-0.43486837
122	0xbf271a47	-0.6527447
123	0xbd84e942	-0.06489803
124	0xbf151d48	-0.58247805
125	0x3f16153c	0.5862615
126	0xbcfcba18	-0.030850455
127	0x3f07daff	0.53068537
128	0x3d841577	0.064494066
129	0xbe6bb8e4	-0.23019749
130	0xbd36cfd0	-0.04463178
131	0xbf86c9b9	-1.0530311
132	0x3f12191a	0.5706955
133	0xbc0ac7e2	-0.008470507
134	0x3d4705be	0.04858946
135	0x3ed2e773	0.41192207
136	0xbce2cf01	-0.027686598
137	0x3cc57cdb	0.024107387
138	0x3e16a2f7	0.14710604
139	0xbd53c92c	-0.051705524
140	0xbd37b5f3	-0.044851255
141	0x3d5cb050	0.053879082
142	0x3d6fb59f	0.058522817
143	0x3f1cf1fd	0.61306745
144	0x3eb5600c	0.3542484
145	0x3d64dab6	0.05587264
146	0xbeef3d08	-0.4672625
147	0xbec9bdf6	-0.3940274
148	0xbe8e196a	-0.27753764
149	0x3f1232b0	0.57108593
150	0x3ecbaa0c	0.39778173
151	0x3c915dd0	0.017744929
152	0xbd92dcef	-0.07171046
153	0xbd3e257b	-0.046422463
154	0x3ef85167	0.48499605
155	0x3caf193d	0.02137434
156	0x3d35943d	0.044330824
157	0x3f641565	0.89095145
158	0x3d104f73	0.03523202
159	0x3f004c06	0.50116
160	0xbc2163b1	-0.009850428
161	0x3c462f6b	0.012096266
162	0xbd1dad5b	-0.038495403
163	0xbf42eebb	-0.76145524
164	0x3f2e8bb9	0.6818195
165	0x3f1b0788	0.60558367
166	0x3d04e0bf	0.032440897
167	0xbcb44180	-0.02200389
168	0x3d032aa5	0.03202309
169	0xbf790085	-0.9726642
170	0xbfc4ac50	-1.5365086
171	0x3eebbf75	0.46044508
172	0x3eb3a826	0.35089225
173	0x3d2bcc33	0.041942786
174	0x3ed03009	0.40661648
175	0x3f517489	0.81818444
176	0x3f213150	0.6296587
177	0xbfc16dd0	-1.5111637
178	0x3e108fa4	0.14117295
179	0x3d57535f	0.052569743
180	0x3d0a625d	0.033785213
181	0x3f1ec33c	0.62016654
182	0xbedd8ce5	-0.43271556
183	0xbfbc71ef	-1.472227
184	0x3e8a34fe	0.26993555
185	0xbd1dc026	-0.038513325
186	0x3d44258a	0.047887363
187	0x3ca8a9e2	0.020588819
188	0x3d8a243a	0.06745191
189	0x3f0fc6d0	0.5616274
190	0x3d1b67a0	0.03794062
191	0xbe9d584a	-0.30731422
192	0x3d409d4c	0.04702501
193	0x3e920b64	0.28524315
194	0xbc122ede	-0.008922307
195	0x3da689be	0.08131741
196	0x3d1714d4	0.036885098
197	0x3f14a6cf	0.5806703
198	0xbf26eae0	-0.6520214
199	0x3cbf5029	0.023353653
200	0xbf545c9f	-0.8295383
201	0x3ee482d7	0.44631073
202	0xbf73da0c	-0.9525459
203	0xbbacc1d1	-0.005272128
204	0x3d355714	0.044272497
205	0xbf801664	-1.0006833
206	0xbe7563e2	-0.23963884
207	0xbf4a198b	-0.78945225
208	0x3c817b7e	0.015805956
209	0x3d88f6c4	0.06687692
210	0xbfbec890	-1.4904957
211	0x3d46e6bf	0.0485599
212	0x3d14b107	0.03630164
213	0x3ed97ca3	0.42477903
214	0x3d56a9ca	0.052408017
215	0x3bb5c7aa	0.0055474835
216	0xbfa74b73	-1.30699
217	0xbd459485	-0.048237342
218	0x3d0dcba0	0.03461802
219	0xbcd8f752	-0.026485119
220	0xbf5bcbd9	-0.8585792
221	0xbf91a9e9	-1.1379977
222	0x3f28e974	0.6598122
223	0x3ea8e474	0.32986796
224	0x3d8ca37e	0.06867121
225	0x3cf9d44e	0.030496743
226	0x3c375c0c	0.011191379
227	0x3cadf640	0.021235585
228	0xbf892444	-1.0714192
229	0xbba24a7e	-0.004952728
230	0xbef0f271	-0.47059968
231	0xbfb9b76e	-1.4509103
232	0x3f2093cb	0.62725514
233	0xbeecfe05	-0.46287552
234	0x3f08c5f0	0.5342703
235	0xbd5d2ec7	-0.05399969
236	0x3f4b41d2	0.7939731
237	0x3d2610df	0.040543433
238	0xbd1ef810	-0.03881079
239	0x3eed8886	0.46393222
240	0x3b82a259	0.0039866385
241	0xbf805d67	-1.0028504
242	0x3d8a4e2a	0.0675319
243	0xbf827cdb	-1.0194353
244	0x3eb7dc23	0.35910138
245	0xbf8d1eb7	-1.1024998
246	0xbf83b3ea	-1.028928
247	0x3f77af1f	0.9675159
248	0x3c952f3b	0.018210998
249	0xbf7f9036	-0.99829423
250	0xbf991c23	-1.1961712
251	0xbb911e8b	-0.00442869
252	0xbf427c72	-0.7597114
253	0x3d44a20b	0.0480061
254	0x3b571d75	0.0032823954
255	0x4012729e	2.2882457

network.4.bias f4 [3]
0	0x3db5a4e0	0.08869338
1	0x3ee1542f	0.4400954
2	0x3eadd572	0.33951908

network.0.weight f4 [128, 8]
0	0x3e0a86ee	0.13528034
1	0x3df7173a	0.12064977
2	0x3e8d4c92	0.2759748
3	0x3db15865	0.08659438
4	0xbe6e1489	-0.23250021
5	0x3e22655a	0.15858975
6	0x3e1db3ca	0.15400615
7	0x3e89b9d6	0.26899594
8	0xbead16fb	-0.33806595
9	0x3edcbf2f	0.43114612
10	0x3e7fc468	0.24977267
11	0xbe0a3d19	-0.1349987
12	0x3ef37198	0.47547603
13	0xbebd13df	-0.36929223
14	0x3e988091	0.29785588
15	0xbe36384d	-0.17794915
16	0xbf3e5673	-0.7435066
17	0x3f33f63a	0.70297587
18	0xbe993cef	-0.299293
19	0xbe5b2a08	-0.21402752
20	0x3eb3b3e9	0.35098198
21	0x3f0960cd	0.5366333
22	0x3efb8120	0.49121952
23	0x3ea8a05d	0.32934847
24	0x3f21836f	0.63091177
25	0xbf5490c9	-0.83033425
26	0x3f06a209	0.52590996
27	0x3ec1d75d	0.37859622
28	0xbc63e302	-0.013909103
29	0xbf463540	-0.77425003
30	0x3eb4da32	0.3532272
31	0xbebee82c	-0.37286508
32	0xbf40286b	-0.7506167
33	0x3eef5a85	0.46748748
34	0xbf09fbcd	-0.5389984
35	0x3e660111	0.22461344
36	0x3e3b169f	0.18270348
37	0x3f80625f	1.003002
38	0xbe8887a8	-0.26665998
39	0x3d998a22	0.0749705
40	0x3e5492e5	0.20759161
41	0xbde93546	-0.11387114
42	0x3e8fba15	0.28071657
43	0x3e02beaa	0.12768045
44	0xbb875e19	-0.0041310904
45	0xbda84a75	-0.082173266
46	0xbe43a2c9	-0.19105066
47	0xbeba0214	-0.3632971
48	0xbe146bc8	-0.1449424
49	0x3ed5c3da	0.41750985
50	0xbe55a2b5	-0.20862849
51	0xbf13d169	-0.5774141
52	0xbdf2ee1c	-0.11861822
53	0x3f55d344	0.8352549
54	0x3d8b35ea	0.06797393
55	0x3f4ab2ee	0.79179275
56	0x3dfa76e4	0.12229708
57	0x3f271583	0.652672
58	0xbf0b6894	-0.5445645
59	0xbef227c3	-0.4729596
60	0xbdce2636	-0.10065882
61	0x3d00f090	0.03147942
62	0x3ed7e52a	0.42167026
63	0xbd741ef6	-0.05959984
64	0xbf85eb8e	-1.046251
65	0x3ec55a70	0.3854556
66	0xbf67feef	-0.9062337
67	0xbecb04b5	-0.3965203
68	0x3f3dedbb	0.7419087
69	0x3f96c002	1.1777346
70	0x3da939fb	0.08263012
71	0x3efc2a31	0.4925094
72	0x3e1f5242	0.15558723
73	0xbf0cd374	-0.5501015
74	0x3eb4bfae	0.3530249
75	0x3ec3d331	0.38247064
76	0x3c89c08a	0.016815443
77	0xbb3b309a	-0.0028562904
78	0xbf840432	-1.031378
79	0x3f0cf4f8	0.5506129
80	0xbdb97e42	-0.09057285
81	0x3e010ceb	0.12602584
82	0x3ed6025c	0.41798675
83	0x3ec0a3be	0.37624925
84	0x3e92de13	0.28685054
85	0x3ed076b7	0.40715572
86	0xbd4b7ed3	-0.049681496
87	0xbe9956d2	-0.2994905
88	0xbf0fd019	-0.56176907
89	0x3f03e6e9	0.51524216
90	0x3dad0a42	0.08449222
91	0xbf1d9078	-0.61548567
92	0x3e5302b7	0.20606504
93	0x3f03ed96	0.515344
94	0x3eb41a9b	0.35176548
95	0x3eae33dc	0.3402394
96	0x3ecdd91c	0.40204704
97	0xbec91895	-0.39276567
98	0xbf19033f	-0.5977058
99	0x3f413aa5	0.7548011
100	0x3ce50a55	0.027959028
101	0xbe99bb73	-0.30025825
102	0xbecb6b95	-0.39730516
103	0x3e87ee4b	0.2654899
104	0xbeaf059a	-0.3418396
105	0x3ea557fb	0.32293686
106	0x3d4fce47	0.05073383
107	0x3f103008	0.5632329
108	0xbebb490b	-0.36579165
109	0x3e9220e4	0.2854072
110	0x3dba97f9	0.09111018
111	0x3f0a8890	0.5411463
112	0x3c4c5bd4	0.012473065
113	0x3ed8b5e6	0.42326277
114	0x3f1445c7	0.5791897
115	0x3f2b7698	0.66977835
116	0xbf8506c5	-1.0392691
117	0xbd648631	-0.055792037
118	0x3d80f2ee	0.06296335
119	0xbd904d4e	-0.07045995
120	0x3f2d4f82	0.67699444
121	0xbdcda499	-0.1004116
122	0x3eb6632a	0.3562253
123	0xbe1c0f3c	-0.15240186
124	0x3f1745eb	0.5909106
125	0xbdbdb584	-0.09263137
126	0xbe1b1211	-0.1514361
127	0x3dc9a3ee	0.0984572
128	0x3e5eb293	0.21747808
129	0x3eae1e29	0.34007385
130	0x3f226b0b	0.63444585
131	0x3ebde3e7	0.37087938
132	0xbf3229f0	-0.6959524
133	0x3db6b7e6	0.089217946
134	0xbdd55d17	-0.10418146
135	0xbea2c713	-0.31792507
136	0x3c3ca3ca	0.01151366
137	0x3dc03d81	0.09386731
138	0x3e6e3e3c	0.23265928
139	0x3f020b7f	0.5079879
140	0x3e860f00	0.2618332
141	0xbc5032d1	-0.012707428
142	0xbe4d744b	-0.20063893
143	0x3e3047f5	0.1721495
144	0xbf01b738	-0.50670195
145	0x3f12c09c	0.5732515
146	0x3cb9e39f	0.022691546
147	0x3ead2fe1	0.3382559
148	0x3cd3f52f	0.025873749
149	0xbf42c241	-0.7607766
150	0xbe2078e2	-0.15671113
151	0xbf0fb78b	-0.5613944
152	0x3d99a11c	0.07501432
153	0x3d098490	0.033573687
154	0x3ec422a1	0.3830767
155	0xbe2c3774	-0.16818029
156	0xc033a375	-2.8068516
157	0xbd8ff4e6	-0.070291325
158	0x3ea0975f	0.31365487
159	0xbc827295	-0.015923778
160	0x3e4f40e9	0.20239605
161	0xbe91d2ea	-0.28481227
162	0x3e33b83c	0.17550749
163	0x3e1563ad	0.14588805
164	0x3e0048f7	0.12527834
165	0xbe0bbf0b	-0.13647096
166	0xbebbfa3d	-0.36714354
167	0x3f0d92b3	0.5530197
168	0xbea68838	-0.32525802
169	0xbd7f6586	-0.06235268
170	0x3e9c0b1d	0.3047723
171	0x3e3de39d	0.18543859
172	0xc06dc8ad	-3.7153733
173	0xbdb68934	-0.08912888
174	0x3e0a1d74	0.13487798
175	0xbd3490da	-0.044083454
176	0xbdc357d2	-0.09538235
177	0xbf34f5e0	-0.70687675
178	0x3ed5295c	0.41633117
179	0x3f0656a3	0.5247595
180	0x3e4a7426	0.1977087
181	0x3e01ea25	0.12686975
182	0x3ed3ebe3	0.41390905
183	0xbed624df	-0.41825005
184	0x3f24d7a6	0.64391553
185	0xbdd7e715	-0.10542122
186	0x3e3c4def	0.18389104
187	0xbe75638d	-0.23963757
188	0x3f0bfead	0.5468548
189	0xbe27a557	-0.16371666
190	0xbe7c3bbc	-0.24632162
191	0x3df1c085	0.11804298
192	0xbebf8dfe	-0.3741302
193	0x3ec7421c	0.38917625
194	0x3eef5bf9	0.46749857
195	0xbf28321a	-0.6570145
196	0x3f0149e0	0.5050335
197	0x3ea9fda8	0.33201337
198	0xbeaf6efb	-0.3426436
199	0xbe69adee	-0.22820255
200	0xbed022db	-0.40651593
201	0xbc926a64	-0.017872997
202	0x3e4fcc0a	0.20292678
203	0xbecb5105	-0.3971025
204	0x3dbd846b	0.09253772
205	0x3eaff0d5	0.34363428
206	0xbe463766	-0.1935707
207	0xbd9edcc6	-0.07756953
208	0x3d44fc65	0.048092265
209	0x3e76a003	0.24084477
210	0x3d4d4edb	0.05012403
211	0x3de62098	0.112366855
212	0x3e5a9381	0.21345331
213	0xbe7022ef	-0.23450826
214	0xbe562af0	-0.20914817
215	0x3cb740a1	0.022369685
216	0x3e254179	0.16138257
217	0xbea113b6	-0.3146035
218	0x3ebf5e01	0.37376407
219	0x3ea87b7f	0.3290672
220	0xbfe83b95	-1.8143183
221	0xbea9c1c5	-0.33155647
222	0x3e8c7bb4	0.27438128
223	0xbe938bdb	-0.2881764
224	0x3f31e889	0.69495445
225	0xbd0ea523	-0.034825455
226	0xbe7213a2	-0.23640302
227	0xbe18cdaa	-0.14922205
228	0x3e7249b5	0.2366093
229	0x3d1d3057	0.03837618
230	0xbc81ad5f	-0.01582974
231	0xbdf8459c	-0.12122652
232	0x3ecbdd1a	0.39817125
233	0x3e0a6016	0.13513216
234	0xbf0fc287	-0.561562
235	0xbf779eb6	-0.9672655
236	0x3e483607	0.1955186
237	0xbece87c9	-0.4033797
238	0xbf8f8f35	-1.1215578
239	0xbd118e58	-0.03553614
240	0x3efcf701	0.494072
241	0xbead6a40	-0.33870125
242	0x3ee19026	0.4405529
243	0xbe3ff42f	-0.18745492
244	0x3de48ef5	0.111600794
245	0x3dd8e898	0.10591239
246	0xbf20ace3	-0.62763804
247	0xbe80b868	-0.2514069
248	0x3edd0ef3	0.43175468
249	0xbecec7aa	-0.40386707
250	0x3edb8c28	0.42880368
251	0xbd33ad24	-0.04386629
252	0x3f28fec5	0.6601375
253	0x3e3b250e	0.18275854
254	0x3e75d419	0.2400669
255	0x3cde62db	0.027146747

network.0.bias f4 [128]
0	0x3ec150a5	0.3775684
1	0x3f080e5b	0.53146905
2	0xbe26e950	-0.16299939
3	0xbe7fa78a	-0.24966255
4	0xbdd43768	-0.103621304
5	0x3f35fe47	0.7109112
6	0xbefb6529	-0.49100617
7	0x3ea12e4c	0.31480634
8	0x3ef3aa2c	0.47590768
9	0x3e8eab1f	0.2786493
10	0x3f1c37fd	0.6102293
11	0xbe117295	-0.14203866
12	0x3c83f358	0.016107246
13	0x3ec3a94b	0.38215098
14	0x3d86ee26	0.06588392
15	0xbe9f36a8	-0.31096387
16	0xbe9065bf	-0.28202626
17	0x3e143106	0.14471826
18	0x3edada90	0.42744875
19	0xbdacc6ef	-0.08436381
20	0x3e69a873	0.22818165
21	0x3e96fbcf	0.2948899
22	0xbe4d562d	-0.20052405
23	0xbdffc2ff	-0.124883644
24	0x3e85f818	0.26165843
25	0x3f0155f6	0.5052179
26	0x3f2771c4	0.6540797
27	0xbb62d008	-0.003460886
28	0x3e002e1f	0.12517594
29	0xbe8746b4	-0.2642113
30	0x3eb6f421	0.3573313
31	0xbe6bc51e	-0.23024413
32	0xbd1b77b7	-0.037955966
33	0x3e2f7a71	0.17136551
34	0xbf09bd00	-0.53804016
35	0x3e990ab1	0.2989097
36	0xbd9e35c9	-0.077251025
37	0xbcc8acfa	-0.024496544
38	0xbe8aa4d6	-0.27078885
39	0xbea381c5	-0.31934944
40	0x3f470d4b	0.7775466
41	0x3cd60a8a	0.026128072
42	0x3e19ce64	0.15020138
43	0xbdac0907	-0.08400159
44	0xbe58f454	-0.21186954
45	0x3ee9f783	0.4569665
46	0x3ef6970a	0.4816211
47	0x3e1c5c87	0.15269671
48	0x3e8b4dcc	0.27207792
49	0x3dddfadc	0.10838863
50	0xbebbbaa3	-0.3666583
51	0x3e400c72	0.18754748
52	0x3eb3bcf2	0.3510509
53	0x3efc0ee8	0.49230123
54	0x3f3fdbcd	0.74944764
55	0x3ee7a46a	0.45242625
56	0x3d5e7e3a	0.054319598
57	0x3f1ecd89	0.6203237
58	0x3f1af78d	0.6053398
59	0xbdea5171	-0.11441315
60	0x3f19d4f5	0.6009057
61	0x3de59582	0.11210157
62	0x3e1bdaeb	0.1522023
63	0xbdf131e7	-0.11777096
64	0x3e4d31da	0.20038548
65	0x3f39c7f8	0.72570753
66	0x3e473253	0.19452791
67	0x3efb7057	0.49109146
68	0xbb607499	-0.0034249185
69	0x3ea78c89	0.32724407
70	0x3cb72462	0.022356216
71	0xbd8642c7	-0.065557055
72	0x3e8a13d3	0.2696825
73	0xbeb08388	-0.3447535
74	0xbddfe884	-0.10933021
75	0xbd0e88d4	-0.03479846
76	0xbeacdf10	-0.33763933
77	0xbe60eb5b	-0.21964781
78	0x3f270f42	0.65257657
79	0x3d3e9cb9	0.04653618
80	0x3eb7d7c3	0.359068
81	0x3eae03cc	0.33987272
82	0xbe22086c	-0.15823525
83	0x3e997a9a	0.2997635
84	0x3e3b102c	0.18267888
85	0xbd0b7dc5	-0.03405549
86	0xbe26fa40	-0.163064
87	0x3c6ebc72	0.014571296
88	0x3f05ec62	0.52313817
89	0x3eee1a0f	0.46504256
90	0xbef8a297	-0.48561546
91	0x3df65e09	0.120296545
92	0x3ef1f1ed	0.47254887
93	0xbeef3f40	-0.46727943
94	0x3e000280	0.12500954
95	0xbbec6109	-0.007213716
96	0xbea2ba20	-0.31782627
97	0x3e9a672a	0.30156833
98	0x3e91168b	0.2833751
99	0x3edfa493	0.43680248
100	0x3cb89ed9	0.022536682
101	0x3e870d3c	0.26377285
102	0x3e7bbc8e	0.24583647
103	0xbe907b3f	-0.2821903
104	0x3ef6569b	0.4811295
105	0xbc9b198b	-0.018933078
106	0x3f1487d3	0.5801975
107	0xbe157e28	-0.14598906
108	0x3d70cc08	0.05878833
109	0x3e3f0ee4	0.18658024
110	0x3e98e95e	0.29865545
111	0x3eab2e7c	0.33433902
112	0xbd72a1dc	-0.059236392
113	0x3d0929d8	0.03348717
114	0x3ec33b4b	0.38131174
115	0xbdda77e8	-0.106674016
116	0x3eb2cc27	0.3492138
117	0xbe343967	-0.17600022
118	0x3ea4a134	0.32154238
119	0x3da00c01	0.078147896
120	0x3e595a90	0.21225953
121	0xbe8cf8fc	-0.2753371
122	0x3d7d02d2	0.061770268
123	0x3f2a1730	0.6644163
124	0xbd619055	-0.055069286
125	0x3eaf8050	0.34277582
126	0x3f3ffdd3	0.7499668
127	0xbebfa560	-0.3743086

network.2.weight f4 [128, 128]
0	0x3d20ed4e	0.03928881
1	0x3d21f626	0.039541386
2	0x3d10a19a	0.035310365
3	0xbd7e43dc	-0.062076434
4	0xbcd2fb62	-0.025754634
5	0xbc28cb5f	-0.010302394
6	0xbd2b0a6a	-0.04175798
7	0xbca05f1f	-0.019576607
8	0xbdbf5038	-0.093414724
9	0xbd5fc342	-0.05462957
10	0xbda4e297	-0.08051031
11	0xbc48b496	-0.012250086
12	0x3d7933c3	0.06084038
13	0x3d45ad20	0.048260808
14	0xbd91600e	-0.07098399
15	0xbd88ae45	-0.06673864
16	0xbd8f42a5	-0.06995133
17	0x3bff603b	0.007793454
18	0xbd72b92c	-0.059258625
19	0x3c8b9e9c	0.017043404
20	0x3cb90f6f	0.022590367
21	0x3c527c09	0.012846955
22	0xbdbbac30	-0.091637015
23	0xbd9866d1	-0.07441486
24	0xbd1556e6	-0.036459826
25	0xba402bc1	-0.00073307386
26	0x3d72183b	0.05910514
27	0xbd4421d1	-0.047883812
28	0xbcb93040	-0.022606015
29	0x3d47ea6f	0.048807558
30	0x3d9ce545	0.07660917
31	0xbd3da8c8	-0.04630354
32	0xbca83b9f	-0.020536242
33	0x3d8b697c	0.06807229
34	0x3d0ef164	0.034898177
35	0xbd4ab3d9	-0.049487922
36	0x3d16c7a5	0.03681149
37	0xbc66234b	-0.0140465
38	0x3b933d66	0.0044934032
39	0x3ba58970	0.005051784
40	0xbc69bad3	-0.014265734
41	0xbcc5df21	-0.024154248
42	0x3a896c1c	0.001048449
43	0xbd430ae9	-0.047617827
44	0x3d8a18c4	0.06743005
45	0xbdac66cf	-0.08418047
46	0x3d2a2a26	0.041544102
47	0xbcb65cd0	-0.022261053
48	0x3d28099e	0.041024797
49	0x3d51d4d9	0.051228378
50	0xbd48f8e1	-0.049065474
51	0x3d581b19	0.052760217
52	0xbce44aa3	-0.02786762
53	0xbcc7060c	-0.024294876
54	0x3c4e8788	0.012605555
55	0x3cb27e2f	0.021788685
56	0xbd965406	-0.07340245
57	0xbc9d09fe	-0.019169804
58	0xbd8572ed	-0.06516061
59	0x3d40ee48	0.047102243
60	0xbb361e50	-0.0027789064
61	0xbdc37529	-0.09543831
62	0x3c21320e	0.009838594
63	0x3d354b5f	0.044261333
64	0x3cf723a3	0.03016836
65	0x3cb77547	0.02239479
66	0xbd131656	-0.035909973
67	0x3d808a7a	0.06276412
68	0xbd585cba	-0.052822806
69	0x3c8634ac	0.016382538
70	0xbd88c1cd	-0.066775896
71	0x3d157ad5	0.036494095
72	0xbd9c6630	-0.07636678
73	0x3d47e0aa	0.04879824
74	0x3d873d84	0.0660353
75	0xbd57c39a	-0.052676775
76	0xbdc251c1	-0.094882496
77	0xbd8f9e31	-0.070125945
78	0xbc0cf4cd	-0.008603287
79	0x3d3b211f	0.045685884
80	0x3d54cb71	0.05195183
81	0xbc88753d	-0.016657466
82	0x3d5d5df9	0.054044697
83	0xbd95b3de	-0.073096976
84	0xbd4a9ad9	-0.04946408
85	0x3ccd1434	0.025034048
86	0x3c996465	0.01872463
87	0x3cad544e	0.021158364
88	0xbdd809ea	-0.10548766
89	0x3c88fa0c	0.016720794
90	0x3c8d96de	0.017283853
91	0xbc6da9db	-0.014505829
92	0xbd22c116	-0.039734922
93	0x3cea5afa	0.028607834
94	0x3c6308c2	0.0138570685
95	0xbbdc2fa2	-0.0067195455
96	0xbcee6a4c	-0.02910342
97	0x3b492ae0	0.0030695722
98	0x3d0b200c	0.03396611
99	0xbd4f40b1	-0.050598804
100	0x3da83989	0.08214099
101	0xbd9ff736	-0.078108236
102	0xbdbdfa08	-0.09276205
103	0x3d0ca9cc	0.03434162
104	0xbd03195d	-0.03200661
105	0xbdb95b38	-0.09050602
106	0xbdcefa61	-0.1010635
107	0xbc39d838	-0.0113430545
108	0xbc8f69b5	-0.01750646
109	0xbd94512e	-0.07242046
110	0x3d8440ac	0.06457648
111	0x3d34916f	0.04408401
112	0xbd0045bb	-0.0313165
113	0xba92fafe	-0.0011213718
114	0xbce3e12b	-0.02781733
115	0xbcc82079	-0.024429547
116	0xbcb4ec10	-0.02208522
117	0x3d03406c	0.03204386
118	0xbd5d7182	-0.054063328
119	0x3d954a65	0.0728958
120	0x3cea244a	0.028581757
121	0xbcc7e389	-0.02440049
122	0x3bca68d8	0.006177049
123	0x3b6c698a	0.0036073648
124	0x3d95098d	0.07277212
125	0x3d44ffb0	0.048095405
126	0xbd0cb8a5	-0.03435578
127	0xbd94f9f2	-0.07274236
128	0x3e66dce2	0.22545198
129	0xbeaf7318	-0.34267497
130	0x3e675b2e	0.22593376
131	0xbe682412	-0.2267001
132	0x3e866288	0.26247048
133	0xbea83b80	-0.32857895
134	0x3eaea1c4	0.34107792
135	0xbe96b679	-0.2943609
136	0xbc3e75ef	-0.011624797
137	0x3f193222	0.5984212
138	0xbdde7b85	-0.10863403
139	0xbdbeefb2	-0.09323062
140	0x3eb5f0cd	0.3553528
141	0x3ebfbeda	0.37450296
142	0x3e83cbe7	0.25741503
143	0x3f161d42	0.58638394
144	0x3e91eb2b	0.2849973
145	0x3e22286d	0.15835734
146	0xbe0c4fa7	-0.1370226
147	0x3c202475	0.009774317
148	0x3f058d2e	0.5216855
149	0xbdff2884	-0.124588996
150	0xbf623f76	-0.88378084
151	0x3e503ccd	0.20335694
152	0xbf2f9b06	-0.6859592
153	0xbecc607d	-0.39917365
154	0xbd48e008	-0.049041778
155	0x3d923d8b	0.07140645
156	0xbc22e264	-0.009941671
157	0x3f232157	0.6372275
158	0x3e54bb5d	0.20774598
159	0xbebb5b8a	-0.36593276
160	0x3ed8a8c8	0.4231627
161	0x3ea1693a	0.31525594
162	0x3f052a43	0.5201761
163	0x3e4d2ed4	0.20037395
164	0xbe66dc9a	-0.2254509
165	0xbf50a581	-0.8150254
166	0xbd3cc45a	-0.046085693
167	0x3c309c5d	0.010779467
168	0xbde4dc05	-0.11174778
169	0x3f1ad406	0.6047977
170	0xbf1c526d	-0.6106327
171	0x3f59a1be	0.85012424
172	0x3e967bb1	0.29391244
173	0x3e3c9e53	0.18419771
174	0x3e8736cf	0.26409003
175	0x3e9804e9	0.29691246
176	0xbd9c66f3	-0.076368235
177	0xbef7ccbd	-0.4839839
178	0x3c8eb81a	0.01742177
179	0xbee27d10	-0.4423604
180	0x3e4a88d1	0.19778754
181	0x3e8cc5be	0.27494615
182	0xbe122b55	-0.14274342
183	0x3e8374f4	0.25675166
184	0x3eab05f5	0.33402982
185	0x3e374daa	0.1790072
186	0xbdbb6dc7	-0.09151798
187	0x3d9e0fa4	0.07717827
188	0x3e27ad65	0.16374739
189	0xbfd9d876	-1.7019184
190	0xc02c7d1c	-2.695136
191	0x3ed38b0a	0.41317016
192	0xbf09d826	-0.5384544
193	0xbc44c98c	-0.012010943
194	0xbf755dd6	-0.9584631
195	0x3ee2fb0f	0.44332168
196	0xbe6c849d	-0.23097463
197	0x3ed349af	0.41267154
198	0xbede9032	-0.43469387
199	0xbf4f1f8d	-0.8090752
200	0xbf727d5c	-0.94722533
201	0xbd3607f9	-0.044441197
202	0xbf331dfe	-0.6996764
203	0xbff75af0	-1.9324627
204	0x3e8cb010	0.27478075
205	0x3d62f833	0.055412482
206	0xbdc5bc3c	-0.096550435
207	0x3e48890c	0.19583529
208	0xbe814def	-0.2525477
209	0x3e9f9811	0.31170705
210	0xbf7bf3f0	-0.98419094
211	0xbc86baf4	-0.016446568
212	0x3eed4b30	0.46346426
213	0x3f42fb94	0.7616513
214	0xbf620b53	-0.8829853
215	0xbf59a532	-0.85017693
216	0xbeee1aa1	-0.4650469
217	0x3d97b15f	0.07406878
218	0x3f8e03e8	1.1094942
219	0xbd27163e	-0.040792696
220	0xbefe52f1	-0.49672654
221	0x3e8d2d36	0.27573556
222	0x3f17540b	0.59112614
223	0x3e98bfcf	0.29833838
224	0x3d8b3cc1	0.06798697
225	0x3e6044c8	0.21901238
226	0xbf045ad0	-0.5170107
227	0xbf200423	-0.6250631
228	0xbf49afcc	-0.7878387
229	0xbf336a6c	-0.7008426
230	0x3d1d5145	0.038407583
231	0xbe8d6bf7	-0.27621433
232	0xbc702ba6	-0.014658844
233	0x3e84477e	0.25835794
234	0x3e116822	0.1419988
235	0x3ec3a4fe	0.38211817
236	0x3e295bd3	0.16538934
237	0x3eecc0b6	0.46240777
238	0xbf7c2d8a	-0.9850699
239	0x3e6dd9b6	0.23227581
240	0xbde33eba	-0.110959485
241	0xbf862790	-1.0480824
242	0xbe31b158	-0.17352808
243	0x3e4effb6	0.20214733
244	0x3e205d95	0.15660699
245	0x3e2381e6	0.15967521
246	0x3e7c397f	0.24631308
247	0x3e8ab7d2	0.2709337
248	0xbf1029b3	-0.5631363
249	0xbea2b02e	-0.3177504
250	0xbc8e02c6	-0.017335307
251	0xbdbec013	-0.09313979
252	0x3f81696e	1.01103
253	0x3f14ba60	0.58096886
254	0x3ddcdac6	0.10783915
255	0x3dbedd60	0.09319568

network.2.bias f4 [128]
0	0xb9da155a	-0.00041596108
1	0xbd847700	-0.0646801
2	0xbe6bb041	-0.23016454
3	0xbde41470	-0.11136711
4	0x3f1bf8d7	0.60926574
5	0xbe0d4668	-0.13796389
6	0xbced6453	-0.028978502
7	0x3f184e67	0.5949463
8	0xbb80b02d	-0.003927252
9	0xbd11c59e	-0.035588853
10	0x3e990a93	0.2989088
11	0x3bc35cf0	0.0059620067
12	0x3d2e21c6	0.042512678
13	0x3c9d969d	0.019236857
14	0xbdabf0d7	-0.08395546
15	0x3e97111e	0.29505247
16	0x3f06386f	0.5242986
17	0xbd5a029a	-0.053225137
18	0xbd807e69	-0.06274111
19	0xbe6d2f39	-0.23162545
20	0xbe1f09c8	-0.15531075
21	0x3ea42b9d	0.32064524
22	0x3e98f4d2	0.29874283
23	0xbd8bf61d	-0.06834052
24	0xbd494639	-0.049139235
25	0x3d621c0a	0.05520252
26	0x3e9a077e	0.3008384
27	0x3c6085ca	0.013703773
28	0x3bb3f23d	0.0054915235
29	0xbe2a9867	-0.166597
30	0xbd9f7e1e	-0.07787727
31	0x3e2bcf56	0.16778311
32	0x3ca9e49e	0.020738896
33	0xbbe21c0b	-0.0069003156
34	0x3d80562b	0.06266435
35	0xbe25ed0d	-0.16203709
36	0x3f1afa60	0.6053829
37	0x3f214710	0.6299906
38	0xbd906866	-0.070511624
39	0xbd14fd0e	-0.036374144
40	0xbce1d0b8	-0.027565345
41	0xbd0fa81d	-0.035072435
42	0xbd243897	-0.04009303
43	0x3e2e5447	0.17024337
44	0x3f188c36	0.59588945
45	0x3d618542	0.055058725
46	0x3d03b5a8	0.032155663
47	0x3e83e943	0.25763902
48	0x3f14d4ef	0.5813741
49	0xbe2f944c	-0.17146415
50	0xbdef47c6	-0.116836116
51	0xbd89883d	-0.067154385
52	0x3d2dfc46	0.042476915
53	0x3eb98583	0.36234674
54	0xbda0fdb6	-0.078608915
55	0xbe376024	-0.17907768
56	0x3e078e61	0.13237907
57	0xbdb1656e	-0.08661924
58	0xbda0975f	-0.07841372
59	0x3d83bce2	0.06432511
60	0x3cedb8b2	0.029018734
61	0x3f2c82bf	0.67387
62	0x3d608b42	0.054820307
63	0x3d1bbe54	0.038023308
64	0x3d3ee467	0.04660454
65	0x3e9b04d2	0.30277115
66	0xbd215dcf	-0.039396103
67	0xbda76bb1	-0.081748374
68	0xbdb0d6c0	-0.0863471
69	0x3ef1d315	0.47231355
70	0xbea09f70	-0.3137164
71	0xbdbb1f90	-0.091368794
72	0xbe15ecbf	-0.14641093
73	0xbe51fc06	-0.20506296
74	0xbc808f60	-0.015693367
75	0xbd2291a1	-0.039689664
76	0x3ba4746e	0.0050187623
77	0xbe30814b	-0.17236821
78	0xbe5f5471	-0.21809556
79	0xbdfc5d53	-0.12322488
80	0xbb92d4b6	-0.0044809235
81	0x3c9d31d5	0.0191888
82	0xbe2a0bdb	-0.16606085
83	0xbd4976a9	-0.04918543
84	0xbd447889	-0.047966514
85	0x3ca93d30	0.02065906
86	0x3d668cc2	0.05628658
87	0x3d84c70c	0.06483278
88	0xbd8bc31e	-0.06824325
89	0xbd287ecf	-0.04113656
90	0xbcbf8258	-0.023377582
91	0xbdb177b0	-0.08665407
92	0xbe2cf546	-0.1689044
93	0x3d25b591	0.04045636
94	0x3f0f428b	0.5596091
95	0x3ee9607a	0.45581418
96	0x3c843cc4	0.016142257
97	0xbdd5a632	-0.1043209
98	0xbbc92203	-0.0061380877
99	0x3d905d75	0.070490755
100	0xbd92e4b1	-0.07172526
101	0xbd8fd00d	-0.070221044
102	0xbe1b4ce9	-0.15166058
103	0xbd9ce195	-0.07660214
104	0x3ebda147	0.37037107
105	0xbe5e44d0	-0.21705937
106	0x3f224284	0.63382745
107	0xbdae6fe7	-0.085174374
108	0xbcf21354	-0.029550232
109	0x3d931bcd	0.07183037
110	0xbcc89419	-0.024484681
111	0x3dcfd7aa	0.101485565
112	0xbc3dc7ac	-0.01158325
113	0xbe3c4408	-0.18385327
114	0x3c3f1ca7	0.011664546
115	0xbe0616b1	-0.13094594
116	0x3f1afee0	0.6054516
117	0xbe537c63	-0.20652919
118	0xbe1e8e4a	-0.15483966
119	0xbdc3b230	-0.09555471
120	0xbc56190a	-0.013067493
121	0xbe7386ef	-0.23781942
122	0xbe640801	-0.22268678
123	0x3d0fe2cc	0.0351284
124	0xbe27c4fc	-0.16383737
125	0x3e76f9cf	0.24118732
126	0xbd5f15d2	-0.05446417
127	0xbdfd80f8	-0.123781145
