DQN/DQN_checkpoints/dqn_checkpoint_300.pt (torch, 298901 bytes, 24 tensors)

network.0.weight f4 [128, 8]
0.10502914 0.10273707 0.2467193 0.05824871 -0.27502078 0.14547502 0.17431395 0.27532494
-0.31854087 0.4324165 0.271247 -0.12664112 0.46320897 -0.34601504 0.36183447 -0.10374079
-0.8017962 0.6714033 -0.34033597 -0.2766414 0.42601702 0.4724192 0.63578516 0.38740242
0.6396671 -0.88559705 0.3667538 0.5454117 -0.10145119 -0.756863 0.39162898 -0.4335113
-0.7979507 0.49384946 -0.56124276 0.23478563 0.31143913 0.9663653 -0.40946218 -0.016950049
0.17175303 -0.13039096 0.24635981 0.094179384 -0.011427139 -0.07979253 -0.16769232 -0.3808123
-0.2398377 0.42151424 -0.11342456 -0.56971097 0.0016434388 0.9319438 -0.17930174 0.9593734
0.06583752 0.70977616 -0.4622043 -0.4565645 -0.21185078 -0.111885376 0.4097241 -0.15463822
-1.0613843 0.39516586 -0.87843573 -0.52508825 0.8524024 1.0962825 0.21221717 0.48168096
0.19544584 -0.5541791 0.2803144 0.38362342 0.013549797 0.08519647 -1.1888782 0.53004944
-0.12036962 0.1252039 0.39257637 0.3514322 0.27295274 0.39121857 0.000260657 -0.30731228
-0.61841846 0.5238324 0.10405677 -0.6049605 0.22147726 0.5481326 0.3662668 0.47974288
0.44202173 -0.38700512 -0.64127654 0.7516338 0.035358384 -0.30159453 -0.32888308 0.32539713
-0.35647947 0.32472602 0.026863182 0.55234045 -0.39264143 0.29146186 0.05030308 0.49552834
-0.01829627 0.45463884 0.62449986 0.64419997 -1.0302166 -0.045224555 0.095710196 -0.11664373
0.6624393 -0.115981735 0.36416733 -0.10722764 0.60018265 -0.020991098 -0.16080548 0.21530356
0.23878762 0.32587695 0.701955 0.33457512 -0.68384117 -0.020016551 -0.12358447 -0.3015903
-0.035632182 0.08438696 0.18426956 0.49127278 0.21617337 -0.0076214373 -0.21647388 0.16025428
-0.5377591 0.61463946 0.005685201 0.26869097 0.021235054 -0.760124 -0.16079478 -0.59254557
0.09647473 0.10338754 0.35896704 -0.19020179 -3.4108524 -0.08419048 0.3136555 0.01934518
0.168885 -0.28767797 0.13004534 0.15947047 0.10456958 -0.041597847 -0.32812268 0.55209064
-0.33749855 -0.07745872 0.31182277 0.17095907 -3.8648934 -0.052223563 0.13487746 -0.036823478
-0.14050977 -0.8136235 0.4557072 0.50725466 0.1823841 0.117749594 0.5728377 -0.6460042
0.62860954 -0.113531314 0.18063104 -0.22559011 0.5517295 -0.12286562 -0.25586104 0.20859508
-0.31483263 0.32707727 0.4900007 -0.8007839 0.4979863 0.40933174 -0.3470891 -0.13257277
-0.501477 -0.05908448 0.2693176 -0.42176664 0.16763076 -0.078663774 0.07679179 -0.24140136
0.018837264 0.22977307 0.018005855 0.09218616 0.19179118 -0.21960562 -0.19721958 0.0192941
0.22518599 -0.3407234 0.3844023 0.32591942 -1.9626656 -0.3515811 0.27437627 -0.29181212
0.64993894 -0.040141378 -0.25979275 -0.14697321 0.28972802 0.012889316 -0.020276923 -0.27440894
0.40271497 0.33073327 -0.5378526 -1.200673 0.35822812 -0.77846044 -1.121579 0.18951915
0.50803405 -0.43388945 0.44281527 -0.27985916 0.16375178 0.15625723 -0.69371796 -0.42786524
0.40195417 -0.39070827 0.4661913 -9.990022e-05 0.6780284 0.21099615 0.2824378 0.1578867
00000000: 8519 d73d d067 d23d fca3 7c3e 3396 6e3d
00000010: 86cf 8cbe 67f7 143e 5b7f 323e 64f7 8c3e
00000020: ca17 a3be b265 dd3e e3e0 8a3e 36ae 01be
00000030: ba29 ed3e e228 b1be 5e42 b93e 0d76 d4bd
00000040: 8442 4dbf 16e1 2b3f 8440 aebe f1a3 8dbe
00000050: e71e da3e eee0 f13e d1c2 223f 9c59 c63e
00000060: 39c1 233f 7db6 62bf 27c7 bb3e 1aa0 0b3f
00000070: a4c5 cfbd c6c1 41bf 9883 c83e 31f5 ddbe
00000080: 7f46 4cbf d6d9 fc3e 9bad 0fbf a56b 703e
00000090: f374 9f3e b763 773f 07a5 d1be d4da 8abc
000000a0: 07e0 2f3e 3585 05be bf45 7c3e 1fe1 c03d
000000b0: e538 3bbc 446a a3bd 89b7 2bbe d4f9 c2be
000000c0: 0498 75be b7d0 d73e 234b e8bd 94d8 11bf
000000d0: a868 d73a de93 6e3f e09a 37be 7f99 753f
000000e0: d2d5 863d e4b3 353f 0ba6 ecbe d2c2 e9be
000000f0: 69ef 58be 2924 e5bd 5bc7 d13e 7b59 1ebe
00000100: 71db 87bf 2e53 ca3e 2ae1 60bf 2f6c 06bf
00000110: 0b37 5a3f fc52 8c3f 754f 593e e39e f63e
00000120: f422 483e aede 0dbf 5e85 8f3e 4a6a c43e
00000130: f8ff 5d3c 7d7b ae3d 292d 98bf 52b1 073f
00000140: 5984 f6bd 7335 003e c5ff c83e ecee b33e
00000150: 76c0 8b3e cd4d c83e caa8 8839 0958 9dbe
00000160: ac50 1ebf e119 063f b71b d53d b1de 1abf
00000170: efca 623e 6b52 0c3f 5287 bb3e dca0 f53e
00000180: ac50 e23e 8925 c6be b32a 24bf 136b 403f
00000190: f4d3 103d 996a 9abe 5d63 a8be 749a a63e
000001a0: 7a84 b6be 7d42 a63e 2d10 dc3c 2f66 0d3f
000001b0: 4c08 c9be 7d3a 953e 9a0a 4e3d e4b5 fd3e
000001c0: 0fe2 95bc 6cc6 e83e 39df 1f3f 4aea 243f
000001d0: 23de 83bf 623d 39bd b503 c43d e8e2 eebd
000001e0: 9f95 293f d587 edbd 2474 ba3e 2a9a dbbd
000001f0: 92a5 193f 86f5 abbc 31aa 24be 8978 5c3e
00000200: be84 743e 58d9 a63e 53b3 333f 6e4d ab3e
00000210: 3710 2fbf c0f9 a3bc db19 fdbd 0b6a 9abe
00000220: 0df3 11bd 12d3 ac3d 29b1 3c3e 1b88 fb3e
00000230: 8d5c 5d3e 40bd f9bb 54ab 5dbe b319 243e
00000240: 95aa 09bf 0359 1d3f ec4a ba3b dd91 893e
00000250: 23f5 ad3c 7d97 42bf 63a7 24be 11b1 17bf
00000260: 8b94 c53d d9bc d33d 87ca b73e 42c4 42be
00000270: 684b 5ac0 0f6c acbd 7497 a03e c879 9e3c
00000280: 30f0 2c3e 874a 93be 9b2a 053e 3a4c 233e
00000290: 9328 d63d 8162 2abd b2ff a7be d055 0d3f
000002a0: 9ccc acbe ada2 9ebd 3ca7 9f3e e50f 2f3e
000002b0: 6a5a 77c0 60e8 55bd 511d 0a3e 37d4 16bd
000002c0: cbe1 0fbe a149 50bf 7452 e93e 71db 013f
000002d0: e6c2 3a3e b326 f13d 7ea5 123f 8860 25bf
000002e0: 8eec 203f 1b83 e8bd 58f7 383e 1801 67be
000002f0: 253e 0d3f f8a0 fbbd 3800 83be f399 553e
00000300: be31 a1be ac76 a73e 5fe1 fa3e 2c00 4dbf
00000310: 0ff8 fe3e ee93 d13e aab5 b1be 28c1 07be
00000320: cc60 00bf 9102 72bd ffe3 893e ccf1 d7be
00000330: 66a7 2b3e 791a a1bd 0445 9d3d eb31 77be
00000340: 9b50 9a3c a249 6b3e 0481 933c 19cc bc3d
00000350: e864 443e 4ce0 60be eef3 49be a90e 9e3c
00000360: 2897 663e 4c73 aebe 61d0 c43e e9de a63e
00000370: a038 fbbf 7002 b4be 0c7b 8c3e 6668 95be
00000380: 6662 263f 496b 24bd 8e03 85be 2580 16be
00000390: 3b57 943e b62d 533c ca1b a6bc 547f 8cbe
000003a0: a830 ce3e df55 a93e b5b0 09bf a7af 99bf
000003b0: ad69 b73e 2f49 47bf e78f 8fbf 4f11 423e
000003c0: 850e 023f c226 debe afb8 e23e b349 8fbe
000003d0: 8cae 273e e501 203e 8097 31bf 2711 dbbe
000003e0: f0cc cd3e ea0a c8be a0b0 ee3e 8681 d1b8
000003f0: 4593 2d3f 600f 583e b09b 903e 0dad 213e

network.0.bias f4 [128]
0.33807936 0.57707834 -0.07869486 -0.23768887 -0.061746363 0.715455 -0.59698766 0.3138944
0.51692957 0.2593611 0.6132188 -0.12904559 -0.013440647 0.36559054 0.08338929 -0.30528507
-0.28466633 0.108876474 0.457787 -0.105359666 0.1857811 0.3005338 -0.2727879 -0.13487989
0.32182258 0.5411607 0.65333676 0.030409515 0.11135952 -0.23083733 0.31643113 -0.21075606
-0.023623485 0.1722158 -0.53992236 0.30886176 -0.08065295 -0.042407304 -0.27078885 -0.31934944
0.7788 -0.0021812336 0.14945227 -0.13780005 -0.27282834 0.45381087 0.49395108 0.0014741016
0.2577583 0.16829835 -0.3157606 0.22714001 0.31586146 0.45039162 0.7492099 0.3814881
0.042722266 0.6101552 0.5964856 -0.05002236 0.58679783 0.099177554 0.23001659 -0.07824578
0.13894315 0.7329112 0.19250932 0.46592247 -0.022101052 0.3102583 0.019432565 -0.08514279
0.2730579 -0.3447535 -0.1386518 -0.0020763334 -0.38804904 -0.21965055 0.6495582 -0.11000844
0.41562617 0.36029693 -0.1320921 0.26602706 0.2051721 -0.07318821 -0.17729327 0.006744326
0.50565034 0.45724988 -0.6407176 0.10228197 0.51893866 -0.38795274 0.07667363 -0.08544561
-0.31782627 0.26204818 0.33084133 0.4221515 -0.05597802 0.20884177 0.28554532 -0.24290359
0.4787141 -0.014607261 0.55881363 -0.13305196 0.090590104 0.19776939 0.30954853 0.3469889
-0.032246012 0.027738145 0.43857187 -0.08865932 0.3274213 -0.16943698 0.29652742 0.025886301
0.30902693 -0.23868985 0.102810286 0.6611913 -0.16572705 0.41554284 0.74461186 -0.37431028
00000000: bd18 ad3e 68bb 133f c52a a1bd b664 73be
00000010: c1e9 7cbd 0f28 373f 2fd4 18bf c4b6 a03e
00000020: 7f55 043f faca 843e e8fb 1c3f 8724 04be
00000030: 2936 5cbc af2e bb3e 01c8 aa3d 534e 9cbe
00000040: c9bf 91be a1fa de3d 0f63 ea3e cfc6 d7bd
00000050: 673d 3e3e 91df 993e dbaa 8bbe f41d 0abe
00000060: eec5 a43e 8289 0a3f 1441 273f 601d f93c
00000070: 7610 e43d 9f60 6cbe 4303 a23e 70d0 57be
00000080: 0a86 c1bc 5759 303e 5a38 0abf 2123 9e3e
00000090: 602d a5bd 48b3 2dbd d6a4 8abe c581 a3be
000000a0: 705f 473f 07f3 0ebb 040a 193e 751b 0dbe
000000b0: 28b0 8bbe e659 e83e 28e7 fc3e a436 c13a
000000c0: e5f8 833e 6756 2c3e 60ab a1be 6497 683e
000000d0: 98b8 a13e bb99 e63e 38cc 3f3f 6952 c33e
000000e0: 8bfd 2e3d 2233 1c3f 48b3 183f 3fe4 4cbd
000000f0: 6238 163f 9a1d cb3d 7889 6b3e 533f a0bd
00000100: 1d47 0e3e 12a0 3b3f 2a21 453e 648d ee3e
00000110: 440d b5bc 2dda 9e3e 0b31 9f3c 585f aebd
00000120: 3fce 8b3e 8883 b0be bdfa 0dbe 1813 08bb
00000130: 5dae c6be 13ec 60be 7249 263f 1b4c e1bd
00000140: f4cc d43e d778 b83e 2743 07be b334 883e
00000150: a318 523e b3e3 95bd 5e8c 35be 82ff dc3b
00000160: 4d72 013f a81c ea3e 1206 24bf 3679 d13d
00000170: 2ad9 043f bea1 c6be 1007 9d3d 1cfe aebd
00000180: 20ba a2be 2e2b 863e 0964 a93e 3e24 d83e
00000190: 3549 65bd 9eda 553e ff32 923e b8bb 78be
000001a0: 041a f53e 4b53 6fbc 690e 0f3f c63e 08be
000001b0: 4e87 b93d 0f84 4a3e 257d 9e3e 87a8 b13e
000001c0: 6514 04bd 1b3b e33c 7e8c e03e 0493 b5bd
000001d0: c4a3 a73e e380 2dbe 71d2 973e 820f d43c
000001e0: c738 9e3e 1d6b 74be 338e d23d d543 293f
000001f0: 5ab4 29be 08c2 d43e e29e 3e3f 99a5 bfbe

network.2.weight f4 [128, 128]
0.039288323 0.039540607 0.035310365 -0.06207644 -0.02575498 -0.010302548 -0.04175798 -0.019576943
-0.0934155 -0.054630037 -0.08051144 -0.012250086 0.06083982 0.0482602 -0.0709848 -0.066739075
-0.069951534 0.0077933646 -0.0592587 0.017043151 0.022590332 0.012846777 -0.091638036 -0.07441486
-0.036460035 -0.0007330746 0.059104767 -0.04788433 -0.022606043 0.048807558 0.076608784 -0.046303503
-0.020536533 0.068072036 0.03489793 -0.049488176 0.036811147 -0.014046565 0.004493402 0.005051784
-0.014265735 -0.024154395 0.0010484303 -0.047618013 0.067428604 -0.08418047 0.04154402 -0.022261271
0.041024204 0.051227737 -0.04906592 0.05275996 -0.02786773 -0.024294876 0.012605452 0.021788398
-0.07340282 -0.019169899 -0.065160915 0.047102127 -0.0027789162 -0.09543945 0.009838453 0.044261046
0.030168084 0.022394681 -0.035910506 0.06276314 -0.05282285 0.016382355 -0.06677622 0.036493532
-0.07636678 0.04879824 0.06603388 -0.0526769 -0.09488366 -0.070125945 -0.008603373 0.04568536
0.0519513 -0.016657507 0.054044463 -0.07309716 -0.04946429 0.025034048 0.018724576 0.021158133
-0.10548772 0.0167205 0.017283853 -0.014505872 -0.039734922 0.028607734 0.013856902 -0.006719572
-0.02910342 0.00306953 0.03396552 -0.050599303 0.08214099 -0.078109324 -0.092762806 0.03434118
-0.032006737 -0.09050702 -0.10106375 -0.011343212 -0.017506732 -0.07242055 0.0645761 0.044083733
-0.031316914 -0.0011213929 -0.027817477 -0.024429582 -0.022085281 0.032043707 -0.054063298 0.0728955
0.028581452 -0.024400823 0.006176958 0.00360733 0.07277121 0.048094947 -0.03435626 -0.07274236
0.20280737 -0.4874144 -0.05790266 -0.21438722 0.22776815 -0.32202968 -0.095670104 -0.38895044
-0.052645735 0.73762256 -0.11609841 -0.67153513 0.552597 0.38401207 0.30910575 0.6558285
0.3913654 0.20327695 -0.08619589 0.38703 0.56575453 0.36770204 -1.2588955 0.29578814
-0.85619676 -0.69768757 -0.071983054 0.6480208 -0.11573899 0.6550476 0.15138786 -0.37618774
0.5811291 0.44266114 0.8227238 0.36583003 -0.6495312 -0.80596286 -0.046085693 0.010779467
-0.13884415 0.73559755 -0.64648616 1.0844357 0.40361324 0.11543159 0.2522907 0.5257894
-0.26620075 -0.23946814 0.10669445 -0.2944404 0.1959141 -0.24380387 -0.16534267 0.19949071
0.5052649 0.17160791 -0.12702294 0.21088035 0.18870069 -1.947007 -3.1598637 0.55146575
-0.6953522 -0.026785908 -1.288196 0.47329116 -0.27115732 0.1770785 0.078679636 -0.59906375
-1.1350071 -0.044441197 -0.6231999 -2.0914187 0.17768663 0.055412482 -0.16633886 0.18117064
0.27407116 0.23022011 -1.1022774 -0.043360405 0.8004122 1.1838945 -1.1352096 -0.27202997
-0.58343613 0.055511486 1.087275 -0.24922504 -0.54858 0.57571965 0.45774892 0.31075957
0.06798697 0.21555732 -0.1576883 -0.8257713 0.31188875 -1.024349 0.12033217 -0.015099366
0.011425473 0.2292697 0.18685627 0.5108139 0.17785048 0.5752988 -0.7061082 0.20729405
-0.47380322 -1.2716074 0.21839203 0.9759503 0.08054412 0.3196181 0.31190115 0.31819248
-0.7606683 0.22825994 0.099838905 -0.108588494 1.2189664 0.10440947 0.14602286 0.09319634
00000000: cbec 203d 55f5 213d 9aa1 103d dd43 7ebd
00000010: 1cfc d2bc 05cc 28bc 6a0a 2bbd d35f a0bc
00000020: a050 bfbd bfc3 5fbd 2fe3 a4bd 96b4 48bc
00000030: 2d33 793d 7dac 453d 7b60 91bd 7fae 88bd
00000040: c042 8fbd 7b5f ff3b 40b9 72bd 149e 8b3c
00000050: 5c0f b93c 4a7b 523c b9ac bbbd d166 98bd
00000060: 1e57 15bd ce2b 40ba d717 723d 5c22 44bd
00000070: 4f30 b9bc 6fea 473d 11e5 9c3d bea8 3dbd
00000080: 3b3c a8bc 5a69 8b3d 22f1 0e3d 1db4 4abd
00000090: 49c7 163d 9023 66bc 633d 933b 7089 a53b
000000a0: d4ba 69bc 70df c5bc 7c6b 893a 1b0b 43bd
000000b0: 0218 8a3d cf66 acbd 102a 2a3d 455d b6bc
000000c0: ff08 283d 2dd4 513d 59f9 48bd d41a 583d
000000d0: de4a e4bc 0c06 c7bc 1987 4e3c 957d b23c
000000e0: 3854 96bd 310a 9dbc 1673 85bd 29ee 403d
000000f0: 7a1e 36bb c275 c3bd 7631 213c 124b 353d
00000100: 0f23 f73c 0d75 b73c e516 13bd f689 803d
00000110: c65c 58bd 4a34 863c f9c1 88bd 3e7a 153d
00000120: 3066 9cbd aae0 473d c53c 873d bcc3 57bd
00000130: 5d52 c2bd 319e 8fbd 29f5 0cbc 9220 3b3d
00000140: e3ca 543d 5375 88bc ba5d 5d3d f7b3 95bd
00000150: 119b 4abd 3414 cd3c 4864 993c d253 ad3c
00000160: f209 d8bd 6ef9 883c de96 8d3c 09aa 6dbc
00000170: 16c1 22bd c45a ea3c 0f08 633c db2f dcbb
00000180: 4c6a eebc 2b2a 493b 6e1f 0b3d 3741 4fbd
00000190: 8939 a83d c8f7 9fbd 6dfa bdbd 56a9 0c3d
000001a0: 7f19 03bd bf5b b9bd 83fa cebd e1d8 39bc
000001b0: 476a 8fbc 3a51 94bd 7940 843d 2591 343d
000001c0: 2a46 00bd b4fb 92ba 7ae1 e3bc 8c20 c8bc
000001d0: 31ec b4bc 4340 033d 7a71 5dbd 3c4a 953d
000001e0: a623 ea3c 3ce4 c7bc 1468 ca3b f468 6c3b
000001f0: 1209 953d 35ff 443d 26b9 0cbd f2f9 94bd
00000200: bcac 4f3e 618e f9be 572b 6dbd 5388 5bbe
00000210: 0e3c 693e 13e1 a4be b0ee c3bd 8324 c7be
00000220: 0ea3 57bd d5d4 3c3f 01c5 edbd bae9 2bbf
00000230: ff76 0d3f 3b9d c43e 1c43 9e3e 60e4 273f
00000240: 0c61 c83e d527 503e 7987 b0bd cc28 c63e
00000250: 4ad5 103f 7143 bc3e 7d23 a1bf 8b71 973e
00000260: b62f 5bbf a79b 32bf da6b 93bd b1e4 253f
00000270: 9008 edbd 33b1 273f 6b05 1b3e ae9b c0be
00000280: e0c4 143f 7ba4 e23e 079e 523f 134e bb3e
00000290: ad47 26bf 9553 4ebf 5ac4 3cbd 5d9c 303c
000002a0: 292d 0ebe 1f50 3c3f 1e80 25bf cace 8a3f
000002b0: 65a6 ce3e 6667 ec3d 3f2c 813e 229a 063f
000002c0: 774b 88be 2337 75be 9f82 da3d e4c0 96be
000002d0: b59d 483e b9a7 79be 974f 29be 4b47 4c3e
000002e0: 0a59 013f fcb9 2f3e 4d12 02be 05f1 573e
000002f0: c13a 413e 8637 f9bf 353b 4ac0 dc2c 0d3f
00000300: 9a02 32bf 1f6e dbbc 9be3 a4bf 3853 f23e
00000310: 22d5 8abe 1154 353e ca22 a13d 3e5c 19bf
00000320: ea47 91bf f907 36bd 078a 1fbf ced9 05c0
00000330: 7cf3 353e 33f8 623d bc54 2abe cc84 393e
00000340: 0e53 8c3e d2be 6b3e 6d17 8dbf ae9a 31bd
00000350: d0e7 4c3f db89 973f 8c4e 91bf 8347 8bbe
00000360: 125c 15bf 0360 633d d42b 8b3f d934 7fbe
00000370: bd6f 0cbf 5d62 133f 115e ea3e e11b 9f3e
00000380: c13c 8b3d 0fbb 5c3e 0b79 21be bf65 53bf
00000390: e2af 9f3e de1d 83bf b670 f63d 5563 77bc
000003a0: e831 3b3c adc5 6a3e 4057 3f3e b3c4 023f
000003b0: 701e 363e c846 133f 82c3 34bf e444 543e
000003c0: 5696 f2be 08c4 a2bf 29a2 5f3e e1d7 793f
000003d0: 51f4 a43d fca4 a33e 82b1 9f3e 20ea a23e
000003e0: 28bb 42bf f9bc 693e 5778 cc3d a563 debd
000003f0: 1707 9c3f a2d4 d53d 0487 153e b9dd be3d

network.2.bias f4 [128]
-0.00041596632 -0.12726569 -0.270829 -0.10989878 0.667693 -0.1476082 -0.028978817 0.6550303
-0.0039272956 -0.035589032 0.3556639 0.005961983 0.04251212 -0.011989129 -0.11542089 0.3334504
0.58765584 -0.05322529 -0.07667319 -0.23833397 -0.18561363 0.36436066 0.32307693 -0.06834066
-0.049139358 0.055201832 0.35278744 0.013703649 0.0054915235 -0.17077547 -0.07787794 0.19566584
0.020738859 -0.006900317 0.06266435 -0.1814678 0.66665226 0.68699825 -0.070512004 -0.036374744
-0.027565345 -0.044999935 -0.024580805 0.19730835 0.6569579 0.05505838 0.03579463 0.32032523
0.6446987 -0.16923742 -0.1041126 -0.06715455 0.04247647 0.3522834 -0.0618594 -0.17704497
0.07794699 -0.08661924 -0.078414 0.06432511 0.029018534 0.7348654 0.054819938 0.06733423
0.046604473 0.35911852 -0.039396323 -0.081748374 -0.086347654 0.52787733 -0.30159578 -0.091370195
-0.16120283 -0.16377395 -0.011244696 -0.039689664 0.005018666 -0.20541807 -0.26569545 -0.20231219
-0.0409477 0.019188702 -0.1667844 -0.049186002 -0.04796687 0.06241232 0.0248242 0.064832106
-0.08239006 -0.04113673 -0.054760758 -0.086654164 -0.21497723 0.045381695 0.6212159 0.51797074
0.016141903 -0.104320906 -0.0061380877 0.07049054 -0.0905384 -0.07022159 -0.2313705 -0.07749986
0.42237806 -0.20028436 0.6974385 -0.08517472 0.01797371 0.07182934 -0.024484774 0.15430903
-0.01158325 -0.212104 0.0116644995 -0.16482799 0.6669002 -0.2505332 -0.15003273 -0.16911738
-0.01306765 -0.25527337 -0.2505002 0.03512812 -0.18413174 0.2990368 -0.054464296 -0.11843034
00000000: 0e16 dab9 f051 02be 19aa 8abe 9d12 e1bd
00000010: eeed 2a3f 9b26 17be fc64 edbc 11b0 273f
00000020: 8bb0 80bb cec5 11bd 9419 b63e bd5c c33b
00000030: 3021 2e3d 0d6e 44bc ca61 ecbd 03ba aa3e
00000040: 9d70 163f c302 5abd d506 9dbd d20d 74be
00000050: 8011 3ebe 7b8d ba3e 576a a53e 30f6 8bbd
00000060: 5a46 49bd 511b 623d 8ea0 b43e 4585 603c
00000070: 3df2 b33b c4df 2ebe 787e 9fbd a05c 483e
00000080: 8ae4 a93c 0e1c e2bb 2b56 803d b2d2 39be
00000090: b9a9 2a3f 1edf 2f3f 9968 90bd affd 14bd
000000a0: b8d0 e1bc da51 38bd af5d c9bc 330b 4a3e
000000b0: 652e 283f e584 613d 649d 123d ab01 a43e
000000c0: f90a 253f 934c 2dbe fd38 d5bd 5388 89bd
000000d0: cffb 2d3d 7d5e b43e 4860 7dbd 474b 35be
000000e0: aca2 9f3d 6e65 b1bd 8597 a0bd e2bc 833d
000000f0: 47b8 ed3c 2420 3c3f df8a 603d 87e6 893d
00000100: 55e4 3e3d 62de b73e 0a5e 21bd b16b a7bd
00000110: 0ad7 b0bd f822 073f c36a 9abe 4c20 bbbd
00000120: 5b12 25be 5cb4 27be ac3b 38bc a191 22bd
00000130: 9f73 a43b 1d59 52be 3c09 88be ed2a 4fbe
00000140: c7b8 27bd a031 9d3c 88c9 2abe 4377 49bd
00000150: e978 44bd 10a4 7f3d 1f5c cb3c b2c6 843d
00000160: 1fbc a8bd fd7e 28bd d14c 60bd bd77 b1bd
00000170: fe22 5cbe 28e2 393d 0108 1f3f bb99 043f
00000180: 063c 843c 33a6 d5bd 0322 c9bb 585d 903d
00000190: 326c b9bd 56d0 8fbd 63ec 6cbe 3fb8 9ebd
000001a0: f041 d83e 5817 4dbe 548b 323f 1570 aebd
000001b0: 9a3d 933c 431b 933d 4b94 c8bc 3003 1e3e
000001c0: acc7 3dbc ca31 59be 751c 3f3c abc8 28be
000001d0: f9b9 2a3f e345 80be 2ea2 19be 1b2d 2dbe
000001e0: b219 56bc 31b3 82be 9041 80be 81e2 0f3d
000001f0: 088d 3cbe 5a1b 993e f415 5fbd 9b8b f2bd

network.4.weight f4 [3, 128]
-0.042107824 -0.30125868 -0.041120246 -0.7195575 0.46076074 -0.6269152 -0.06488169 0.502761
-0.040163066 0.026939051 0.4204238 -0.046657752 0.020788737 0.012560777 -0.022062484 0.3729023
0.556163 -0.04888184 -1.6465604 0.39859086 -0.38539764 0.32508555 0.56156546 -0.08243271
-0.045103386 0.050500017 0.52800864 -0.036536776 0.021210296 0.073909126 -0.011118497 0.23175324
-0.070951484 -0.07452792 0.056113776 0.28457195 0.48734513 0.53113276 -0.013018848 0.012729263
0.021576583 -1.770955 -0.0866426 0.24898411 0.47774988 0.004583631 0.2878092 -1.8333553
0.50725746 -2.0897582 -0.17212564 0.079649344 -0.0008307107 0.12277285 0.02168549 -2.0943477
-0.065026835 -0.03778761 -0.057127334 0.014071273 -0.03233885 0.5619422 -0.029412083 0.3193355
-0.05384187 0.37972006 -0.039937194 0.08591253 -0.032727428 0.53177273 -0.66399264 -0.075113416
-0.7603739 -0.41934514 -1.5042503 -0.025625726 -0.06772523 -0.8873103 -0.8893355 0.10011488
0.08487064 -0.01280665 -2.0424814 -0.04725334 -0.010590995 0.140407 0.06302057 0.012554261
-2.014479 -0.05380298 -0.03127977 -0.029517071 -0.1910178 -0.23772761 0.6101231 0.55707264
-0.06575915 -0.07376819 -0.041178178 -0.02866529 -1.9932936 -0.039745376 -1.893608 -1.3842653
0.51893765 -0.5857564 0.53693175 -0.019307744 -1.9901267 0.0073995227 -0.048798393 0.30874142
0.022691336 -0.4936478 0.08439423 -0.6150767 0.49293128 1.2586205 -0.56327593 -0.26849476
-0.038155876 -0.56340486 -0.715342 -0.06489803 -0.71350616 0.5844437 -0.030850455 0.27880502
0.064494066 -0.20578347 0.0141663775 -1.083811 0.5809604 -0.11411434 0.04858946 0.4185007
-0.027686598 0.024107387 0.13452655 -0.051705524 -0.044851255 0.053879082 0.043044098 0.6030418
0.35794184 0.05587264 -0.53703004 -0.4462436 -0.36309117 0.5610462 0.39285806 0.017744929
-0.07171046 -0.046422463 0.4855231 0.02137434 0.044330824 0.30066386 0.03523202 0.46969867
-0.009850428 0.012096266 -0.038495403 -0.81934154 0.6901366 0.61769575 0.032440897 -0.02200389
0.03202309 -1.1138602 -1.5869446 0.44264445 0.35485217 0.041942786 0.38963422 1.1210359
0.63529176 -1.6102546 0.20599495 0.052569743 0.033785213 0.55735147 -0.3346643 -1.5788087
0.40338358 -0.038513325 0.047887363 0.020588819 0.06745191 0.5723381 0.03794062 -0.45746025
0.04702501 0.2705736 -0.008922307 0.08131741 0.036885098 0.5908114 -0.7025582 0.023353653
-0.855389 0.59489 -1.0979513 -0.005272128 0.044272497 -0.43562356 -0.40814382 -1.3072696
-0.026446221 0.06687692 -1.598567 0.0485599 0.03630164 0.5283859 0.021164168 0.0055474835
-1.3938067 -0.048237342 0.03461802 -0.026485119 -0.85765755 -1.335157 0.6716393 0.32983556
0.06867121 0.030496743 0.011191379 0.021235585 -1.128534 -0.004952728 -0.5328047 -1.7304174
0.6323243 -0.52811277 0.54194754 -0.05399969 1.1997702 0.040543433 -0.03881079 0.43804
0.0039866385 -1.2146683 0.0675319 -1.2145852 0.36477292 -0.83869255 -1.0606339 1.536711
0.018210998 -1.1403503 -1.3407749 -0.00442869 -0.9865866 0.02768815 0.0032823954 3.2307286
00000000: 4179 2cbd 943e 9abe b46d 28bd ec34 38bf
00000010: d5e8 eb3e 847d 20bf b1e0 84bd f2b4 003f
00000020: 0782 24bd 49af dc3c ca41 d73e 331c 3fbd
00000030: 244d aa3c b8cb 4d3c 62bc b4bc 0ded be3e
00000040: b360 0e3f 5338 48bd 7ec2 d2bf 1a14 cc3e
00000050: d752 c5be 9d71 a63e c1c2 0f3f 7bd2 a8bd
00000060: 54be 38bd 1bd9 4e3d 932b 073f 96a7 15bd
00000070: 37c1 ad3c ab5d 973d 5b2a 36bc b950 6d3e
00000080: 034f 91bd 18a2 98bd 8fd7 653d 6ab3 913e
00000090: 4d85 f93e 51f8 073f 024d 55bc 668e 503c
000000a0: 60c1 b03c a7ae e2bf ad71 b1bd b1f5 7e3e
000000b0: a29b f43e 4932 963b ba5b 933e 63ab eabf
000000c0: a0db 013f 99be 05c0 b441 30be 321f a33d
000000d0: 0dc4 59ba 5570 fb3d c5a5 b13c cb09 06c0
000000e0: ca2c 85bd 2ec7 1abd 5afe 69bd 328b 663c
000000f0: be75 04bd 72db 0f3f 9cf1 f0bc f17f a33e
00000100: 4b89 5cbd ab6a c23e 2f95 23bd e9f2 af3d
00000110: 320d 06bd 4222 083f 6cfb 29bf 10d5 99bd
00000120: dda7 42bf 68b4 d6be 468b c0bf 0bed d1bc
00000130: 86b3 8abd c526 63bf 7eab 63bf 0809 cd3d
00000140: a8d0 ad3d fcd2 51bc 04b8 02c0 b88c 41bd
00000150: da85 2dbc dac6 0f3e ee10 813d 63b0 4d3c
00000160: 39ed 00c0 8360 5cbd 371f 00bd c9cd f1bc
00000170: 2c9a 43be de6e 73be 0731 1c3f 509c 0e3f
00000180: bcac 86bd c713 97bd 73aa 28bd 78d3 eabc
00000190: 3f24 ffbf 0ccc 22bd bf61 f2bf 9b2f b1bf
000001a0: 19d9 043f 22f4 15bf 5c74 093f 462b 9ebc
000001b0: 79bc febf b277 f23b d3e0 47bd 5b13 9e3e
000001c0: 2ee3 b93c 68bf fcbe e2d6 ac3d ab75 1dbf
000001d0: 7d61 fc3e 7a1a a13f da32 10bf 2578 89be
000001e0: 5649 1cbd 4d3b 10bf a720 37bf 42e9 84bd
000001f0: 57a8 36bf 1a9e 153f 18ba fcbc 88bf 8e3e
00000200: 7715 843d e7b8 52be 181a 683c 52ba 8abf
00000210: d2b9 143f c7b4 e9bd be05 473d b945 d63e
00000220: 01cf e2bc db7c c53c 54c1 093e 2cc9 53bd
00000230: f3b5 37bd 50b0 5c3d 024f 303d f360 1a3f
00000240: 2744 b73e b6da 643d cd7a 09bf 0b7a e4be
00000250: 16e7 b9be b9a0 0f3f b124 c93e d05d 913c
00000260: efdc 92bd 7b25 3ebd 7c96 f83e 3d19 af3c
00000270: 3d94 353d 9df0 993e 734f 103d 587c f03e
00000280: b163 21bc 6b2f 463c 5bad 1dbd 5ec0 51bf
00000290: cbac 303f 4f21 1e3f bfe0 043d 8041 b4bc
000002a0: a52a 033d f992 8ebf 0021 cbbf 4ba2 e23e
000002b0: 2faf b53e 33cc 2b3d 237e c73e 1b7e 8f3f
000002c0: 7ba2 223f d31c cebf 57f0 523e 5f53 573d
000002d0: 5d62 0a3d 96ae 0e3f 1e59 abbe 6716 cabf
000002e0: 4b88 ce3e 26c0 1dbd 8a25 443d e2a9 a83c
000002f0: 3a24 8a3d c084 123f a067 1b3d 3b38 eabe
00000300: 4c9d 403d 9f88 8a3e de2e 12bc be89 a63d
00000310: d414 173d 6a3f 173f dbda 33bf 2950 bf3c
00000320: c6fa 5abf b64a 183f ab89 8cbf d1c1 acbb
00000330: 1457 353d 0d0a dfbe 3af8 d0be 9c54 a7bf
00000340: bfa5 d8bc c4f6 883d d89d ccbf bfe6 463d
00000350: 07b1 143d 4c44 073f 7a60 ad3c aac7 b53b
00000360: 4268 b2bf 8594 45bd a0cb 0d3d 52f7 d8bc
00000370: 728f 5bbf 6de6 aabf 8ef0 2b3f 35e0 a83e
00000380: 7ea3 8c3d 4ed4 f93c 0c5c 373c 40f6 ad3c
00000390: cd73 90bf 7e4a a2bb e465 08bf 517e ddbf
000003a0: 01e0 213f 6632 07bf 13bd 0a3f c72e 5dbd
000003b0: 1292 993f df10 263d 10f8 1ebd c746 e03e
000003c0: 59a2 823b 407a 9bbf 2a4e 8a3d 8777 9bbf
000003d0: 84c3 ba3e 8eb4 56bf dac2 87bf f2b2 c43f
000003e0: 3b2f 953c 00f7 91bf 839e abbf 8b1e 91bb
000003f0: f090 7cbf 42d2 e23c 751d 573b 42c4 4e40

network.4.bias f4 [3]
0.1555428 0.46192122 0.39516315
00000000: 9d46 1f3e f080 ec3e d352 ca3e

network.0.weight f4 [128, 8]
0.106275655 0.10253241 0.24655585 0.05775621 -0.2752935 0.14724405 0.17551112 0.27611643
-0.31833714 0.4324375 0.2713321 -0.12618619 0.46229163 -0.3461053 0.36332846 -0.103594854
-0.80436593 0.6707752 -0.33795628 -0.27273378 0.42622995 0.47495404 0.6363254 0.39543632
0.6421842 -0.8837065 0.37272358 0.54834265 -0.0992195 -0.7489104 0.38566357 -0.4324932
-0.7959314 0.4966161 -0.5621497 0.23042059 0.31238815 0.9703429 -0.40806812 -0.010696366
0.17214291 -0.13052915 0.24593233 0.09292416 -0.013151219 -0.079938956 -0.17094877 -0.38208947
-0.24513355 0.42301068 -0.10873565 -0.57605195 -0.0011790866 0.9195147 -0.1841463 0.95321167
0.061705045 0.70928025 -0.46462512 -0.45875487 -0.2099308 -0.11535465 0.4098811 -0.15396382
-1.0592443 0.3964495 -0.87575895 -0.52210677 0.8546653 1.0973606 0.21362707 0.48888618
0.1983383 -0.5554589 0.27878606 0.37991393 0.012916281 0.08691927 -1.19527 0.5291018
-0.12010373 0.12454153 0.39212984 0.35090697 0.27216998 0.39206433 -0.00039969635 -0.30778512
-0.6196033 0.5241353 0.101678476 -0.6043873 0.21985546 0.5473405 0.37270153 0.48145407
0.44240972 -0.38522485 -0.6383416 0.754011 0.03984578 -0.3002022 -0.32899833 0.32493523
-0.35519782 0.32417753 0.026687803 0.55207825 -0.3922015 0.29419553 0.055093944 0.49872378
-0.017272359 0.4550824 0.6251715 0.64551926 -1.0297228 -0.047152016 0.09789785 -0.118120395
0.662641 -0.11292004 0.36717814 -0.10532998 0.6007958 -0.028209148 -0.16368937 0.21444573
0.23864098 0.3264967 0.7015043 0.3323976 -0.6859566 -0.023418814 -0.12726866 -0.30525872
-0.03505463 0.08327077 0.18386255 0.49047786 0.2162378 -0.0068926928 -0.21777992 0.16052587
-0.5359033 0.616842 0.007373725 0.26831397 0.020549852 -0.75708675 -0.15774964 -0.5915476
0.09581157 0.1002791 0.3558373 -0.19168514 -3.408346 -0.08052888 0.31365487 0.01700957
0.17110607 -0.28809905 0.13053189 0.15881011 0.10511098 -0.04467974 -0.32364684 0.55305016
-0.33755615 -0.08013616 0.31099156 0.16935207 -3.8647537 -0.047215275 0.13487798 -0.036271162
-0.14867984 -0.81074667 0.4501743 0.5067048 0.1799939 0.10556151 0.5671643 -0.65340054
0.6293131 -0.11188342 0.18313044 -0.22579563 0.551965 -0.12987557 -0.25993952 0.20304237
-0.3163478 0.32701558 0.48797703 -0.80219185 0.49181092 0.40613297 -0.33946574 -0.13337037
-0.50685215 -0.063661024 0.2642757 -0.4253585 0.1646166 -0.073366635 0.08263804 -0.23552832
0.019147689 0.22923717 0.017820671 0.09151775 0.1909206 -0.2211285 -0.19892737 0.018960968
0.22472462 -0.34203693 0.3825607 0.32345602 -1.9622167 -0.35098925 0.27438128 -0.2910655
0.6512309 -0.0401136 -0.25904828 -0.14714052 0.28716016 0.01739239 -0.018017424 -0.27323097
0.40288085 0.33073375 -0.53573334 -1.196447 0.36581522 -0.7937143 -1.1215578 0.1956174
0.50920105 -0.4323599 0.4420346 -0.28078276 0.15949817 0.15488623 -0.69389904 -0.4300934
0.40254602 -0.3882029 0.46784076 0.00039539541 0.67785966 0.20837456 0.28048846 0.15681851
00000000: 0da7 d93d 83fc d13d 2379 7c3e c791 6c3d
00000010: 45f3 8cbe 25c7 163e 30b9 333e 225f 8d3e
00000020: 16fd a2be 7368 dd3e 0aec 8a3e f436 01be
00000030: 7db1 ec3e b734 b1be 3006 ba3e 8a29 d4bd
00000040: edea 4dbf ecb7 2b3f 9b08 adbe c3a3 8bbe
00000050: d03a da3e 2d2d f33e 39e6 223f a176 ca3e
00000060: 2f66 243f 973a 62bf a0d5 be3e 2f60 0c3f
00000070: 9833 cbbd 98b8 3fbf b275 c53e c06f ddbe
00000080: 29c2 4bbf 7744 fe3e 0be9 0fbf 60f3 6b3e
00000090: 57f1 9f3e 6468 783f 4eee d0be d03f 2fbc
000000a0: 3b46 303e 6fa9 05be afd5 7b3e 064f be3d
000000b0: 3678 57bc 09b7 a3bd 320d 2fbe 3ba1 c3be
000000c0: 4a04 7bbe db94 d83e ccb0 debd 2478 13bf
000000d0: 958b 9aba 5165 6b3f d990 3cbe ae05 743f
000000e0: 6ebe 7c3d 6493 353f 58e3 edbe ebe1 eabe
000000f0: 1af8 56be 0f3f ecbd efdb d13e b1a8 1dbe
00000100: 5195 87bf 6efb ca3e bd31 60bf caa8 05bf
00000110: 58cb 5a3f 5076 8c3f 0ec1 5a3e 4a4f fa3e
00000120: 3219 4b3e 8e32 0ebf 0cbd 8e3e 1484 c23e
00000130: cf9e 533c bb02 b23d 9bfe 98bf 3773 073f
00000140: f2f8 f5bd a10f ff3d 3ec5 c83e 14aa b33e
00000150: dd59 8b3e a8bc c83e 568e d1b9 0396 9dbe
00000160: 529e 1ebf bb2d 063f ce3c d03d 20b9 1abf
00000170: ca21 613e 821e 0c3f bcd2 be3e 2681 f63e
00000180: 8783 e23e 313c c5be 5b6a 23bf dd06 413f
00000190: 5435 233d 1ab4 99be 7872 a8be e95d a63e
000001a0: 7ddc b5be 99fa a53e 61a0 da3c 0055 0d3f
000001b0: a3ce c8be cca0 963e 30aa 613d b958 ff3e
000001c0: c37e 8dbc 8f00 e93e 3d0b 203f c040 253f
000001d0: f5cd 83bf 7922 41bd ab7e c83d 1be9 f1bd
000001e0: d7a2 293f 9f42 e7bd c6fe bb3e 3fb7 d7bd
000001f0: c1cd 193f df16 e7bc 309e 27be a997 5b3e
00000200: 4d5e 743e 932a a73e c995 333f 0530 aa3e
00000210: da9a 2fbf d0d8 bfbc b752 02be df4a 9cbe
00000220: 7295 0fbd de89 aa3d 7746 3c3e ea1f fb3e
00000230: 716d 5d3e 19dc e1bb b301 5fbe e560 243e
00000240: f530 09bf 5be9 1d3f 4a9f f13b 7360 893e
00000250: 2a58 a83c 70d0 41bf 1f89 21be aa6f 17bf
00000260: db38 c43d 215f cd3d 4e30 b63e 1c49 44be
00000270: 5722 5ac0 53ec a4bd 5f97 a03e a757 8b3c
00000280: 6e36 2f3e b881 93be 27aa 053e 1e9f 223e
00000290: 6d44 d73d 1a02 37bd 0ab5 a5be b294 0d3f
000002a0: 29d4 acbe 6d1e a4bd 493a 9f3e a16a 2d3e
000002b0: 2058 77c0 ce64 41bd 741d 0a3e 1291 14bd
000002c0: 873f 18be 188d 4fbf 3f7d e63e 68b7 013f
000002d0: 5250 383e a230 d83d ae31 113f 4245 27bf
000002e0: aa1a 213f 2223 e5bd 8c86 3b3e f836 67be
000002f0: 944d 0d3f 1afe 04be cb16 85be 57ea 4f3e
00000300: 57f8 a1be 966e a73e 20d8 f93e 725c 4dbf
00000310: a4ce fb3e a9f0 cf3e 74ce adbe 3e92 08be
00000320: 10c1 01bf b660 82bd 254f 873e 97c8 d9be
00000330: 4191 283e 3f41 96bd 223e a93d 562e 71be
00000340: 9ddb 9c3c 26bd 6a3e a8fc 913c a86d bb3d
00000350: b180 433e 826f 62be 9eb3 4bbe 0854 9b3c
00000360: 361e 663e 771f afbe ffde c33e 079c a53e
00000370: eb29 fbbf ddb4 b3be b47b 8c3e 8a06 95be
00000380: 11b7 263f 294e 24bd faa1 84be 01ac 16be
00000390: a806 933e 7c7a 8e3c 4799 93bc eee4 8bbe
000003a0: 6646 ce3e ef55 a93e d225 09bf 2d25 99bf
000003b0: 224c bb3e dc30 4bbf 358f 8fbf ed4f 483e
000003c0: 005b 023f 475e ddbe 5c52 e23e c2c2 8fbe
000003d0: 7d53 233e 7f9a 1e3e 5ea3 31bf 3435 dcbe
000003e0: 831a ce3e 88c2 c6be d388 ef3e 134d cf39
000003f0: 3688 2d3f 2460 553e 2f9c 8f3e 0895 203e

network.0.bias f4 [128]
0.3381699 0.576972 -0.074156806 -0.23415792 -0.05887037 0.715312 -0.60448205 0.31352067
0.5203762 0.25950512 0.61331326 -0.13013275 -0.011269523 0.36610872 0.08336435 -0.30197856
-0.2847233 0.10894526 0.458501 -0.10848987 0.18613936 0.29778555 -0.27569917 -0.13375112
0.31985423 0.54073495 0.65329593 0.028265292 0.11071287 -0.22760808 0.31660223 -0.20826554
-0.024849506 0.1719715 -0.5394993 0.31085357 -0.08364643 -0.045867328 -0.27078885 -0.31934944
0.7788147 -0.00049583474 0.14813161 -0.13313314 -0.27066666 0.4538327 0.49413928 0.0011041485
0.2578491 0.1665548 -0.3158939 0.22461739 0.31626633 0.45319527 0.7492376 0.38225827
0.04185131 0.6103011 0.5964199 -0.04989224 0.5870095 0.09847361 0.22930484 -0.07911536
0.14374146 0.73265725 0.18966927 0.46602514 -0.020462772 0.31049308 0.018390967 -0.087952524
0.27421442 -0.3447535 -0.14206563 -0.0008825952 -0.38732764 -0.21964781 0.6495262 -0.1062821
0.41973537 0.361988 -0.13159306 0.26619422 0.20350964 -0.07285522 -0.17618357 0.005711026
0.50875807 0.45731616 -0.63902825 0.1003424 0.5195817 -0.38611057 0.077726014 -0.08517641
-0.31782627 0.2624297 0.33147204 0.4201627 -0.0556848 0.2076952 0.2870696 -0.2418386
0.47860765 -0.010929323 0.5589736 -0.13107534 0.087080374 0.19807523 0.3109846 0.34584928
-0.029867396 0.02777613 0.43623996 -0.09094495 0.32791138 -0.16541849 0.29649985 0.026316982
0.31144303 -0.23800837 0.10022633 0.6613458 -0.16278283 0.41634315 0.7446363 -0.3743086
00000000: 9b24 ad3e 70b4 133f 86df 97bd 18c7 6fbe
00000010: 0f22 71bd b01e 373f 56bf 1abf c885 a03e
00000020: 6037 053f dbdd 843e 1902 1d3f 8541 05be
00000030: cea3 38bc 9a72 bb3e eeba aa3d ef9c 9abe
00000040: 41c7 91be b11e df3d a5c0 ea3e f02f debd
00000050: 519b 3e3e 5977 983e 7128 8dbe 0ef6 08be
00000060: efc3 a33e 9b6d 0a3f 673e 273f 9d8c e73c
00000070: 6ebd e23d 1812 69be b019 a23e 9043 55be
00000080: 3191 cbbc 4c19 303e a01c 0abf 3328 9f3e
00000090: d24e abbd 61df 3bbd d6a4 8abe c581 a3be
000000a0: 6660 473f e8fa 01ba d0af 173e 0e54 08be
000000b0: d294 8abe c25c e83e d3ff fc3e 13b9 903a
000000c0: cc04 843e 578d 2a3e d8bc a1be 1a02 663e
000000d0: a9ed a13e 3609 e83e 09ce 3f3f 5bb7 c33e
000000e0: 476c 2b3d b13c 1c3f f9ae 183f ce5b 4cbd
000000f0: 4146 163f 88ac c93d e3ce 6a3e 3c07 a2bd
00000100: f630 133e 6d8f 3b3f a938 423e d99a ee3e
00000110: 8ba1 a7bc f3f8 9e3e a7a8 963c 7420 b4bd
00000120: d565 8c3e 8883 b0be a779 11be f65d 67ba
00000130: cf4f c6be 5beb 60be 5947 263f 6eaa d9bd
00000140: 8ee7 d63e 7e56 b93e 55c0 06be 9c4a 883e
00000150: d564 503e 1e35 95bd 7769 34be 8f23 bb3b
00000160: f83d 023f 5825 ea3e 5b97 23bf 5180 cd3d
00000170: 4e03 053f 49b0 c5be d12e 9f3d f870 aebd
00000180: 20ba a2be 305d 863e b4b6 a93e 911f d73e
00000190: bf15 64bd 0dae 543e c9fa 923e 8aa4 77be
000001a0: 100c f53e e710 33bc e518 0f3f 9d38 06be
000001b0: 3257 b23d 3cd4 4a3e 6039 9f3e 2813 b13e
000001c0: 78ac f4bc c48a e33c d85a df3e 5941 babd
000001d0: 00e4 a73e 7763 29be d4ce 973e b696 d73c
000001e0: 7675 9f3e 77b8 73be 7643 cd3d f54d 293f
000001f0: 8bb0 26be ee2a d53e 7ca0 3e3f 60a5 bfbe

network.2.weight f4 [128, 128]
0.03928881 0.039541386 0.035310365 -0.062076434 -0.025754634 -0.010302394 -0.04175798 -0.019576607
-0.093414724 -0.05462957 -0.08051031 -0.012250086 0.06084038 0.048260808 -0.07098399 -0.06673864
-0.06995133 0.007793454 -0.059258625 0.017043404 0.022590367 0.012846955 -0.091637015 -0.07441486
-0.036459826 -0.00073307386 0.05910514 -0.047883812 -0.022606015 0.048807558 0.07660917 -0.04630354
-0.020536242 0.06807229 0.034898177 -0.049487922 0.03681149 -0.0140465 0.0044934032 0.005051784
-0.014265734 -0.024154248 0.001048449 -0.047617827 0.06743005 -0.08418047 0.041544102 -0.022261053
0.041024797 0.051228378 -0.049065474 0.052760217 -0.02786762 -0.024294876 0.012605555 0.021788685
-0.07340245 -0.019169804 -0.06516061 0.047102243 -0.0027789064 -0.09543831 0.009838594 0.044261333
0.03016836 0.02239479 -0.035909973 0.06276412 -0.052822806 0.016382538 -0.066775896 0.036494095
-0.07636678 0.04879824 0.0660353 -0.052676775 -0.094882496 -0.070125945 -0.008603287 0.045685884
0.05195183 -0.016657466 0.054044697 -0.073096976 -0.04946408 0.025034048 0.01872463 0.021158364
-0.10548766 0.016720794 0.017283853 -0.014505829 -0.039734922 0.028607834 0.0138570685 -0.0067195455
-0.02910342 0.0030695722 0.03396611 -0.050598804 0.08214099 -0.078108236 -0.09276205 0.03434162
-0.03200661 -0.09050602 -0.1010635 -0.0113430545 -0.01750646 -0.07242046 0.06457648 0.04408401
-0.0313165 -0.0011213718 -0.02781733 -0.024429547 -0.02208522 0.03204386 -0.054063328 0.0728958
0.028581757 -0.02440049 0.006177049 0.0036073648 0.07277212 0.048095405 -0.03435578 -0.07274236
0.2006756 -0.48836848 -0.0610442 -0.19890085 0.2121641 -0.32455695 -0.106320255 -0.39080697
-0.064332806 0.73667306 -0.11978442 -0.6754332 0.5557982 0.3813872 0.3045457 0.65531147
0.3854362 0.20212764 -0.09477606 0.37474734 0.56631035 0.3603376 -1.2476132 0.29520327
-0.86630946 -0.7064342 -0.0737677 0.64273673 -0.11582503 0.65537524 0.14868826 -0.37579337
0.5787084 0.44271907 0.81902444 0.362807 -0.65349585 -0.80656403 -0.046085693 0.010779467
-0.14143685 0.73238546 -0.6410695 1.0839407 0.40267977 0.11439501 0.25249937 0.52423334
-0.26538184 -0.23429753 0.108103566 -0.29681307 0.19428124 -0.23863858 -0.16859616 0.19802032
0.5049536 0.17095318 -0.12857012 0.20941634 0.18849103 -1.9401257 -3.1644418 0.5533171
-0.7011622 -0.032509837 -1.2869772 0.47273383 -0.27550498 0.18431568 0.07102069 -0.60044307
-1.1327341 -0.044441197 -0.6126364 -2.0972002 0.17586875 0.055412482 -0.16813724 0.18316603
0.26729995 0.22607683 -1.1026645 -0.04567405 0.7960235 1.1769202 -1.1231424 -0.2780569
-0.58514106 0.054360267 1.0881912 -0.24713773 -0.5486455 0.5649389 0.458675 0.3115421
0.06798697 0.21433507 -0.16320227 -0.82989246 0.30540746 -1.0263348 0.11075477 -0.011026499
0.008315514 0.22609748 0.18373455 0.5065964 0.17824267 0.57699245 -0.7204992 0.20828207
-0.4776143 -1.2682207 0.20478912 0.9701231 0.07998406 0.313661 0.3108368 0.3198342
-0.7536376 0.21758124 0.09271007 -0.11040343 1.2205957 0.107090406 0.14436005 0.09319568
00000000: 4eed 203d 26f6 213d 9aa1 103d dc43 7ebd
00000010: 62fb d2bc 5fcb 28bc 6a0a 2bbd 1f5f a0bc
00000020: 3850 bfbd 42c3 5fbd 97e2 a4bd 96b4 48bc
00000030: c333 793d 20ad 453d 0e60 91bd 45ae 88bd
00000040: a542 8fbd 3b60 ff3b 2cb9 72bd 9c9e 8b3c
00000050: 6f0f b93c 097c 523c 30ac bbbd d166 98bd
00000060: e656 15bd c12b 40ba 3b18 723d d121 44bd
00000070: 4030 b9bc 6fea 473d 45e5 9c3d c8a8 3dbd
00000080: 9f3b a8bc 7c69 8b3d 64f1 0e3d d9b3 4abd
00000090: a5c7 163d 4b23 66bc 663d 933b 7089 a53b
000000a0: d3ba 69bc 21df c5bc 1c6c 893a e90a 43bd
000000b0: c418 8a3d cf66 acbd 262a 2a3d d05c b6bc
000000c0: 9e09 283d d9d4 513d e1f8 48bd 191b 583d
000000d0: a34a e4bc 0c06 c7bc 8887 4e3c 2f7e b23c
000000e0: 0654 96bd fe09 9dbc ed72 85bd 48ee 403d
000000f0: 501e 36bb 2975 c3bd 0e32 213c 5f4b 353d
00000100: a323 f73c 4775 b73c 5616 13bd 7a8a 803d
00000110: ba5c 58bd ac34 863c cdc1 88bd d57a 153d
00000120: 3066 9cbd aae0 473d 843d 873d 9ac3 57bd
00000130: c151 c2bd 319e 8fbd cdf4 0cbc 1f21 3b3d
00000140: 71cb 543d 3d75 88bc f95d 5d3d deb3 95bd
00000150: d99a 4abd 3414 cd3c 6564 993c 4e54 ad3c
00000160: ea09 d8bd 0cfa 883c de96 8d3c dba9 6dbc
00000170: 16c1 22bd fa5a ea3c c208 633c a22f dcbb
00000180: 4c6a eebc e02a 493b 0c20 0b3d b140 4fbd
00000190: 8939 a83d 36f7 9fbd 08fa bdbd cca9 0c3d
000001a0: 5d19 03bd 385b b9bd 61fa cebd 38d8 39bc
000001b0: b569 8fbc 2e51 94bd ac40 843d 6f91 343d
000001c0: bb45 00bd fefa 92ba 2be1 e3bc 7920 c8bc
000001d0: 10ec b4bc 6c40 033d 8271 5dbd 654a 953d
000001e0: 4a24 ea3c 89e3 c7bc d868 ca3b 8a69 6c3b
000001f0: 8d09 953d b0ff 443d a5b8 0cbd f2f9 94bd
00000200: e87d 4d3e 6f0b fabe 7c09 7abd aaac 4bbe
00000210: 8c41 593e 542c a6be 6fbe d9bd da17 c8be
00000220: ebc0 83bd 9b96 3c3f 8951 f5bd 31e9 2cbf
00000230: ca48 0e3f 2f45 c33e 6aed 9b3e 7ec2 273f
00000240: e557 c53e 8cfa 4e3e f319 c2bd e2de bf3e
00000250: b7f9 103f 2b7e b83e cab1 9fbf e224 973e
00000260: 75c6 5dbf dfd8 34bf 8513 97bd 658a 243f
00000270: ac35 edbd acc6 273f bc41 183e fd67 c0be
00000280: 3c26 143f 13ac e23e 96ab 513f d7c1 b93e
00000290: 814b 27bf fb7a 4ebf 5ac4 3cbd 5d9c 303c
000002a0: d2d4 10be 9d7d 3b3f 211d 24bf 92be 8a3f
000002b0: 0b2c ce3e ee47 ea3d 9947 813e 2834 063f
000002c0: 21e0 87be b1eb 6fbe 6765 dd3d e2f7 97be
000002d0: a9f1 463e ac5d 74be 79a4 2cbe d7c5 4a3e
000002e0: a444 013f 5a0e 2f3e e3a7 03be 3d71 563e
000002f0: cb03 413e 0a56 f8bf 3786 4ac0 31a6 0d3f
00000300: 5e7f 33bf 0929 05bd abbb a4bf 2b0a f23e
00000310: fd0e 8dbe 40bd 3c3e 4c73 913d a3b6 19bf
00000320: 6efd 90bf f907 36bd bdd5 1cbf 8738 06c0
00000330: f016 343e 33f8 623d 2b2c 2cbe e08f 3b3e
00000340: 8adb 883e af80 673e 1c24 8dbf b614 3bbd
00000350: 32c8 4b3f 52a5 963f 21c3 8fbf 795d 8ebe
00000360: cecb 15bf dfa8 5e3d d949 8b3f ac11 7dbe
00000370: 0874 0cbf d69f 103f 73d7 ea3e 7282 9f3e
00000380: c13c 8b3d a77a 5b3e 7f1e 27be d573 54bf
00000390: 5e5e 9c3e f05e 83bf 66d3 e23d 7da8 34bc
000003a0: cb3d 083c 1986 673e e924 3c3e 4db0 013f
000003b0: 3f85 363e c7b5 133f a372 38bf e547 553e
000003c0: dd89 f4be 0e55 a2bf 3db4 513e fd59 783f
000003d0: afce a33d 2d98 a03e 0026 9f3e 4fc1 a33e
000003e0: 65ee 40bf 9ecd 5e3e c7de bd3d 321b e2bd
000003f0: 7b3c 9c3f 3752 db3d 1fd3 133e 60dd be3d

network.2.bias f4 [128]
-0.00041596108 -0.12948108 -0.27264628 -0.11081373 0.6673194 -0.14827675 -0.028978502 0.65455157
-0.003927252 -0.035588853 0.3551544 0.0059620067 0.042512678 -0.011989021 -0.11542078 0.33317757
0.5871294 -0.053225137 -0.07458829 -0.24013169 -0.18298157 0.3641359 0.3209551 -0.06834052
-0.049139235 0.05520252 0.3522888 0.013703773 0.0054915235 -0.16725552 -0.07787727 0.19623742
0.020738896 -0.0069003156 0.06266435 -0.18232986 0.6663049 0.6865634 -0.070511624 -0.036374144
-0.027565345 -0.043513637 -0.024397224 0.19770825 0.6564889 0.055058725 0.03665923 0.32150343
0.6443194 -0.17044447 -0.10423675 -0.067154385 0.042476915 0.35260212 -0.060408417 -0.17693117
0.07835443 -0.08661924 -0.07841372 0.06432511 0.029018734 0.73439586 0.054820307 0.06732161
0.04660454 0.35869893 -0.039396103 -0.081748374 -0.0863471 0.5274281 -0.3008003 -0.091368794
-0.163136 -0.16365561 -0.010571435 -0.039689664 0.0050187623 -0.20747021 -0.26550242 -0.2001388
-0.040947314 0.0191888 -0.16730855 -0.04918543 -0.047966514 0.06435778 0.024824426 0.06483278
-0.082155064 -0.04113656 -0.054760706 -0.08665407 -0.21761753 0.04819938 0.62074685 0.5174226
0.016142257 -0.1043209 -0.0061380877 0.070490755 -0.09141906 -0.070221044 -0.2304608 -0.08180384
0.42195457 -0.20048085 0.6969969 -0.085174374 0.013171063 0.07183037 -0.024484681 0.1536797
-0.01158325 -0.21192752 0.011664546 -0.16437274 0.66642207 -0.24539095 -0.15054408 -0.16917764
-0.013067493 -0.25562227 -0.2503838 0.0351284 -0.18321939 0.29836243 -0.05446417 -0.11937219
00000000: 5a15 dab9 b096 04be 4b98 8bbe 4ff2 e2bd
00000010: 72d5 2a3f dcd5 17be 5364 edbc b190 273f
00000020: 2db0 80bb 9ec5 11bd ccd6 b53e f05c c33b
00000030: c621 2e3d 996d 44bc bb61 ecbd 4096 aa3e
00000040: 1d4e 163f 9a02 5abd bfc1 98bd 15e5 75be
00000050: 855f 3bbe 0570 ba3e 3a54 a43e 1df6 8bbd
00000060: 3946 49bd 0a1c 623d 335f b43e ca85 603c
00000070: 3df2 b33b 0845 2bbe 1e7e 9fbd 76f2 483e
00000080: 9ee4 a93c 0b1c e2bb 2b56 803d aeb4 3abe
00000090: f592 2a3f 9ec2 2f3f 6668 90bd 0efd 14bd
000000a0: b8d0 e1bc 5b3b 32bd b0dc c7bc 0874 4a3e
000000b0: a80f 283f 4285 613d fd27 163d 199c a43e
000000c0: 1ef2 243f ff88 2ebe 147a d5bd 3d88 89bd
000000d0: 46fc 2d3d 4488 b43e d16e 77bd 722d 35be
000000e0: 4a78 a03d 6e65 b1bd 5f97 a0bd e2bc 833d
000000f0: b2b8 ed3c 5e01 3c3f 428b 603d eadf 893d
00000100: 67e4 3e3d 63a7 b73e cf5d 21bd b16b a7bd
00000110: c0d6 b0bd 8705 073f 7f02 9abe 901f bbbd
00000120: 200d 27be 5695 27be d033 2dbc a191 22bd
00000130: 6e74 a43b 1273 54be efef 87be 30f1 4cbe
00000140: 5fb8 27bd d531 9d3c ef52 2bbe a976 49bd
00000150: 8978 44bd 03ce 833d 985c cb3c 0cc7 843d
00000160: ea40 a8bd cf7e 28bd c34c 60bd b077 b1bd
00000170: 21d7 5ebe b76c 453d 44e9 1e3f cf75 043f
00000180: c43c 843c 32a6 d5bd 0322 c9bb 755d 903d
00000190: eb39 bbbd 0dd0 8fbd eafd 6bbe c688 a7bd
000001a0: 6e0a d83e da4a 4dbe 646e 323f e76f aebd
000001b0: 71cb 573c cd1b 933d 1994 c8bc 365e 1d3e
000001c0: acc7 3dbc 8703 59be a71c 3f3c 5451 28be
000001d0: a39a 2a3f c447 7bbe 3a28 1abe e73c 2dbe
000001e0: 0a19 56bc ece0 82be 4e32 80be cce2 0f3d
000001f0: dd9d 3bbe f6c2 983e d215 5fbd 6879 f4bd

network.4.weight f4 [3, 128]
-0.04210811 -0.2999403 -0.042022277 -0.7188232 0.4602994 -0.6299611 -0.06488195 0.5023947
-0.04016351 0.026938904 0.42012456 -0.046658184 0.020788815 0.012560667 -0.022062866 0.37318295
0.55580896 -0.048882186 -1.6476532 0.40166476 -0.3868386 0.32526684 0.5621092 -0.08243271
-0.045103386 0.050500017 0.52803755 -0.03653731 0.021210296 0.08451109 -0.011118605 0.23253666
-0.07095269 -0.07452897 0.056113776 0.28245953 0.48683155 0.5307345 -0.013018877 0.012729237
0.021576583 -1.7729309 -0.086947285 0.24976374 0.47737214 0.0045835553 0.28848565 -1.8037535
0.506776 -2.0925372 -0.17401668 0.079649344 -0.000830723 0.123752445 0.021726675 -2.096058
-0.0660732 -0.03778761 -0.05712775 0.014071274 -0.032338902 0.5614914 -0.029412083 0.3198614
-0.05384187 0.3794811 -0.039937194 0.08591253 -0.032727428 0.5313995 -0.66428167 -0.075113416
-0.7610784 -0.41462755 -1.5123042 -0.02562574 -0.06772658 -0.8869808 -0.89761746 0.106763445
0.08487064 -0.012806722 -2.0435145 -0.04725334 -0.010591103 0.14097884 0.06301931 0.012554147
-2.0164237 -0.0538033 -0.03127999 -0.029517071 -0.19353318 -0.22475263 0.60967463 0.55672073
-0.06575963 -0.07376819 -0.041178178 -0.028665576 -1.9956752 -0.039745532 -1.8936294 -1.3900712
0.5187108 -0.58652556 0.53647053 -0.01930764 -1.990504 0.007399505 -0.04879874 0.30954492
0.022691336 -0.49398482 0.08439355 -0.61504406 0.49254423 1.2602903 -0.56369823 -0.2657058
-0.03815632 -0.5636292 -0.71589375 -0.06489834 -0.714437 0.5843817 -0.030850833 0.2919619
0.06449452 -0.21008731 0.015822094 -1.0810233 0.5818039 -0.10992996 0.048590124 0.41918743
-0.027686572 0.02410768 0.134886 -0.05170596 -0.044851255 0.053879295 0.043044653 0.6042403
0.3584596 0.055873074 -0.5322089 -0.44399127 -0.36451718 0.56252754 0.38978398 0.017744929
-0.07171046 -0.046422746 0.4863445 0.02137443 0.044330824 0.30049336 0.03523271 0.4717226
-0.009850515 0.012096308 -0.038495403 -0.8171498 0.6911005 0.61857444 0.032440975 -0.022003636
0.03202309 -1.1190159 -1.5853205 0.44384494 0.35546005 0.041943453 0.3923563 1.1235182
0.63620424 -1.6101329 0.21008636 0.052570228 0.033785064 0.56255025 -0.3422934 -1.5763977
0.3999396 -0.038513325 0.047887534 0.020588819 0.0674524 0.5730798 0.037940998 -0.4589923
0.04702501 0.27118284 -0.008922173 0.08131741 0.03688451 0.5917759 -0.6964067 0.023353653
-0.85113376 0.59418654 -1.0992919 -0.005272128 0.044273254 -0.44081473 -0.40329805 -1.3107055
-0.026446048 0.066877216 -1.5941228 0.04856032 0.03630187 0.53121096 0.021164324 0.0055475677
-1.3918205 -0.04823697 0.03461804 -0.026485162 -0.8541193 -1.3443217 0.6726441 0.3303766
0.068671316 0.03049693 0.011191379 0.02123585 -1.1277275 -0.0049528247 -0.53039277 -1.7267023
0.6333681 -0.52140325 0.54270065 -0.05399969 1.1971287 0.04054349 -0.038810484 0.44066522
0.0039866385 -1.2098682 0.06753287 -1.2100629 0.36521903 -0.84384537 -1.0562526 1.5375397
0.018211285 -1.1365383 -1.334125 -0.0044286763 -0.98414475 0.027102452 0.0032824262 3.2219598
00000000: 8e79 2cbd c691 99be 8d1f 2cbd cc04 38bf
00000010: 5dac eb3e 2145 21bf d4e0 84bd f09c 003f
00000020: 7e82 24bd faae dc3c 911a d73e a71c 3fbd
00000030: 4e4d aa3c 41cb 4d3c 2fbd b4bc d611 bf3e
00000040: 7f49 0e3f b038 48bd 4de6 d2bf 01a7 cd3e
00000050: b50f c6be 6089 a63e 63e6 0f3f 7bd2 a8bd
00000060: 54be 38bd 1bd9 4e3d 782d 073f 25a8 15bd
00000070: 37c1 ad3c 2614 ad3d cf2a 36bc 171e 6e3e
00000080: a54f 91bd a5a2 98bd 8fd7 653d 899e 903e
00000090: fc41 f93e 37de 073f 214d 55bc 4a8e 503c
000000a0: 60c1 b03c 66ef e2bf 6b11 b2bd 11c2 7f3e
000000b0: 1f6a f43e a631 963b 64b4 933e 65e1 e6bf
000000c0: 12bc 013f 21ec 05c0 6e31 32be 321f a33d
000000d0: e0c4 59ba ec71 fd3d 24fc b13c d025 06c0
000000e0: 6351 87bd 2ec7 1abd cafe 69bd 338b 663c
000000f0: cc75 04bd e6bd 0f3f 9cf1 f0bc e0c4 a33e
00000100: 4b89 5cbd 594b c23e 2f95 23bd e9f2 af3d
00000110: 320d 06bd cc09 083f 5d0e 2abf 10d5 99bd
00000120: 09d6 42bf 104a d4be 2f93 c1bf 12ed d1bc
00000130: 3cb4 8abd 2c11 63bf 42ca 65bf cba6 da3d
00000140: a8d0 ad3d 49d3 51bc f1c8 02c0 b88c 41bd
00000150: 4e86 2dbc c25c 103e 4510 813d e9af 4d3c
00000160: 160d 01c0 d960 5cbd 721f 00bd c9cd f1bc
00000170: 902d 46be 8e25 66be a313 1c3f 4085 0e3f
00000180: fcac 86bd c713 97bd 73aa 28bd 12d4 eabc
00000190: 4972 ffbf 36cc 22bd 7362 f2bf daed b1bf
000001a0: 3bca 043f 8a26 16bf 2256 093f 0e2b 9ebc
000001b0: d6c8 febf 8c77 f23b 30e1 47bd ac7c 9e3e
000001c0: 2ee3 b93c 94eb fcbe 87d6 ac3d 8773 1dbf
000001d0: c22e fc3e 3151 a13f 874e 10bf 970a 88be
000001e0: cd49 1cbd 014a 10bf d044 37bf 6ce9 84bd
000001f0: 58e5 36bf 0a9a 153f e3ba fcbc 087c 953e
00000200: b415 843d 2121 57be 569d 813c f95e 8abf
00000210: 1af1 143f f522 e1bd 7006 473d bc9f d63e
00000220: f3ce e2bc 787d c53c 8e1f 0a3e a1c9 53bd
00000230: f3b5 37bd 89b0 5c3d 974f 303d 7eaf 1a3f
00000240: 0488 b73e 2adb 643d d83e 08bf d352 e3be
00000250: ffa1 babe ce01 103f c491 c73e d05d 913c
00000260: efdc 92bd c725 3ebd 2502 f93e 6e19 af3c
00000270: 3d94 353d 44da 993e 2d50 103d a085 f13e
00000280: 0e64 21bc 982f 463c 5bad 1dbd bb30 51bf
00000290: f6eb 303f e55a 1e3f d4e0 043d f840 b4bc
000002a0: a52a 033d ea3b 8fbf c8eb cabf a53f e33e
000002b0: dcfe b53e e6cc 2b3d ede2 c83e 72cf 8f3f
000002c0: 48de 223f d618 cebf e120 573e e153 573d
000002d0: 3562 0a3d 4b03 103f 1541 afbe 66c7 c9bf
000002e0: e2c4 cc3e 26c0 1dbd b825 443d e2a9 a83c
000002f0: 7c24 8a3d 5cb5 123f 0568 1b3d 0a01 ebbe
00000300: 4c9d 403d 7ad8 8a3e 4e2e 12bc be89 a63d
00000310: 3614 173d a07e 173f b647 32bf 2950 bf3c
00000320: e7e3 59bf 9c1c 183f 99b5 8cbf d1c1 acbb
00000330: df57 353d 78b2 e1be 157d cebe 33c5 a7bf
00000340: 62a5 d8bc ecf6 883d 370c ccbf 30e7 463d
00000350: 45b1 143d 71fd 073f ce60 ad3c 5fc8 b53b
00000360: 2d27 b2bf 2194 45bd a5cb 0d3d 69f7 d8bc
00000370: 90a7 5abf bc12 acbf 6732 2c3f 1f27 a93e
00000380: 8ca3 8c3d b3d4 f93c 0c5c 373c cef6 ad3c
00000390: 6059 90bf 4e4b a2bb d2c7 07bf 9504 ddbf
000003a0: 6924 223f af7a 05bf 6eee 0a3f c72e 5dbd
000003b0: 833b 993f ee10 263d bef7 1ebd df9e e13e
000003c0: 59a2 823b f6dc 9abf ac4e 8a3d 57e3 9abf
000003d0: fdfd ba3e 4006 58bf 4933 87bf 1ace c43f
000003e0: d52f 953c 167a 91bf 9cc4 aabf 6e1e 91bb
000003f0: e9f0 7bbf f605 de3c f91d 573b 9734 4e40

network.4.bias f4 [3]
0.15462415 0.46220332 0.3950955
00000000: cb55 1e3e eaa5 ec3e f549 ca3e
